burgers/trained_models/burgers_viscid_1_finale.pth (torch, 24768 bytes, 7 tensors)

net.layer_0.weight f4 [50, 2]
0	0xbf129d44	-0.5727122
1	0x3efbb356	0.4916026
2	0xbf56aa47	-0.8385357
3	0xbf138f64	-0.5764067
4	0xbf0dea44	-0.55435586
5	0x3e325403	0.1741486
6	0xbd956cc1	-0.07296134
7	0x3f497b61	0.78703886
8	0xbd6ab52b	-0.05730168
9	0x3e513c0e	0.20433065
10	0xbf0111f9	-0.5041805
11	0xbdc2cb9f	-0.09511494
12	0xbf829f29	-1.0204822
13	0xbed4884c	-0.41510236
14	0xbf406ad2	-0.75162995
15	0x3df3ecd9	0.119104095
16	0x3efa3dde	0.48875326
17	0x3ec3114f	0.38099143
18	0xbfd0e778	-1.6320639
19	0xbec6e0ff	-0.38843533
20	0x3f20814f	0.6269731
21	0x3f161dc6	0.5863918
22	0xbf1e4453	-0.61823004
23	0x3f2c0dfc	0.6720884
24	0xbf020b7d	-0.5079878
25	0x3e2da2f1	0.16956688
26	0x3faca5fd	1.3488156
27	0xbf3c31e8	-0.7351365
28	0xbf4a43ef	-0.7900991
29	0xbe9e0608	-0.30863976
30	0xbf82dfaa	-1.0224507
31	0x3f24d346	0.6438488
32	0xbf1b5570	-0.6067724
33	0xbe13dc25	-0.14439447
34	0xbf729232	-0.94754326
35	0xbf1c8916	-0.61146677
36	0xbe8dd66a	-0.27702647
37	0x3f125a26	0.57168806
38	0x40246cec	2.569148
39	0xbd30f1f3	-0.04319949
40	0x3f27844c	0.65436244
41	0xbf3b29e5	-0.731108
42	0x3d998c14	0.07497421
43	0xbfc72892	-1.5559256
44	0xbf470b11	-0.7775126
45	0xbdcfc37f	-0.1014471
46	0x3f07451a	0.52839816
47	0x3e7d5bbf	0.2474203
48	0xbf239217	-0.6389479
49	0xbd1aac00	-0.03776169
50	0x3f441f38	0.76610136
51	0x3f2538a1	0.64539534
52	0x3f04c1e2	0.5185834
53	0x3e24ad22	0.1608167
54	0x3f15c21a	0.584993
55	0xbe744e79	-0.2385806
56	0x3e209a0a	0.15683761
57	0xbfe7e3d3	-1.8116401
58	0xbf1e1c46	-0.6176189
59	0xbe231600	-0.15926361
60	0x3f1cf8c2	0.61317074
61	0x3e89fb99	0.26949766
62	0xbf91aec2	-1.1381457
63	0x3c36d824	0.01115993
64	0x3f11dabe	0.569744
65	0x3c92ae2e	0.017905321
66	0xbf3312d4	-0.69950604
67	0x3fab34dc	1.3375506
68	0x3f61528a	0.8801657
69	0x40295fc9	2.6464713
70	0xc0117f1b	-2.273383
71	0xbdfb5b9d	-0.12273333
72	0x3ec0e6c3	0.37676057
73	0x3f7e1057	0.9924368
74	0x3f937839	1.1521064
75	0x3f19dac0	0.6009941
76	0xbc177ce1	-0.009246082
77	0xbfb81f47	-1.4384545
78	0x3e67a231	0.22620465
79	0xbf3da098	-0.7407317
80	0xbf1e1dbc	-0.6176412
81	0x3ec21f46	0.37914485
82	0x3fd89062	1.6919062
83	0xbf62314e	-0.88356483
84	0x3ea6aba3	0.32552823
85	0xbde9948f	-0.114052884
86	0xbf3ab263	-0.72928447
87	0xbeb592d9	-0.35463598
88	0x3f403da7	0.75094074
89	0xbf3a7b76	-0.72844636
90	0x3ee80710	0.45317888
91	0x3eea8f68	0.45812535
92	0x3f4b63e6	0.7944931
93	0x3c8c9289	0.017159717
94	0xbfd2e8a4	-1.6477246
95	0xbe903b59	-0.2817028
96	0x3f5f29de	0.8717326
97	0x3eabcb32	0.33553463
98	0xbf2a15cd	-0.66439515
99	0xbe5d834c	-0.21632117

net.layer_0.bias f4 [50]
0	0x3f2badfb	0.6706235
1	0x3f16b626	0.58871686
2	0xbeb11334	-0.34584963
3	0xbe10fa2c	-0.14157933
4	0xbf343b79	-0.7040325
5	0xbae5bb39	-0.001752711
6	0xbed69b80	-0.41915512
7	0xbf1ee6ce	-0.6207093
8	0xbe1bd689	-0.15218557
9	0x3e5d2ca4	0.2159906
10	0xbeafc7f9	-0.34332255
11	0x3f4bc89c	0.7960298
12	0xbee58638	-0.44828963
13	0x3f3fd36e	0.7493199
14	0x3f03ae50	0.51437855
15	0xbf1a6569	-0.6031099
16	0xbd8d165c	-0.0688903
17	0x3e3df042	0.18548682
18	0xbd838a0b	-0.06422814
19	0xbcbefaf2	-0.02331302
20	0x3ee9df6d	0.45678273
21	0x3dd318d1	0.10307468
22	0xbe8847d3	-0.26617298
23	0x3e8aa661	0.27080062
24	0xbf35b036	-0.70972
25	0xbee8ad41	-0.45444682
26	0xbe5c3191	-0.21503283
27	0xbe9cfc7e	-0.30661386
28	0xbe2f6f3b	-0.17132275
29	0xbf0e2bdc	-0.55535674
30	0xbe046bd5	-0.1293176
31	0x3cecce60	0.028907001
32	0xbeed9861	-0.46405318
33	0xbe9aa4f6	-0.3020398
34	0x3f9940bc	1.197288
35	0x3df0e418	0.117622554
36	0xbe57482e	-0.21023628
37	0xbe4e9b3b	-0.20176403
38	0x3db16ebc	0.08663699
39	0x3ee5887b	0.4483069
40	0x3f3b7291	0.7322169
41	0x3f4b098f	0.7931146
42	0x3f4e660d	0.8062447
43	0x3e406afb	0.1879081
44	0xbf475efa	-0.778793
45	0xbec4b43e	-0.38418764
46	0x3f13bb55	0.5770772
47	0x3df70212	0.12060942
48	0xbf02eaf2	-0.5113975
49	0xbf2372a1	-0.63846785

net.layer_1.weight f4 [50, 50]
0	0xbdfa5a2b	-0.122242294
1	0xbe03da3f	-0.12876223
2	0xbdb7feb2	-0.08984126
3	0x3e0d43aa	0.13795343
4	0x3d71939b	0.05897866
5	0xbe804195	-0.25050035
6	0x3dbd51ce	0.09244119
7	0xbe22a1a5	-0.15881975
8	0x3d2db178	0.042405576
9	0x3c0be4dc	0.008538451
10	0xbd01f6d1	-0.031729523
11	0xbbc0cb38	-0.0058836006
12	0xbe292e34	-0.16521531
13	0xbd7824e6	-0.060582064
14	0xbd3b166c	-0.04567568
15	0xbd4c2c20	-0.04984677
16	0xbddedca3	-0.10881927
17	0x3d941797	0.07231062
18	0xbdfc07d1	-0.12306178
19	0xbd0a3686	-0.033743404
20	0x3e1b5222	0.1516805
21	0xbda2fe5a	-0.0795867
22	0x3dc0d60a	0.09415825
23	0x3db71ec3	0.08941414
24	0xbe310028	-0.17285216
25	0x3d929564	0.071574
26	0x3cdec3d6	0.027192991
27	0xbd901a3f	-0.07036256
28	0x3db4fb81	0.08837033
29	0xbe1f7cb4	-0.15574914
30	0x3db98099	0.09057731
31	0xbd0960b4	-0.03353949
32	0x3df2c4a0	0.118539095
33	0x3d97c98c	0.07411489
34	0x3e05ac8e	0.13054106
35	0x3e15fea8	0.14647925
36	0x3cde3f51	0.027129801
37	0xbdceb1c1	-0.100924976
38	0xbdfa851a	-0.12232418
39	0x3dc9b80f	0.098495595
40	0x3dfec612	0.12440123
41	0x3e0de1e5	0.13855703
42	0xbd9c1471	-0.076210864
43	0xbd91900b	-0.07107552
44	0xbde26f84	-0.11056426
45	0xbd835fae	-0.06414734
46	0xbd225a50	-0.03963691
47	0x3e48e9b0	0.19620395
48	0xbd758b97	-0.059947576
49	0xbd335823	-0.043785226
50	0x3ce9a398	0.02852039
51	0xbe317e55	-0.17333348
52	0x3d3d7f08	0.046263725
53	0x3eca3474	0.39493144
54	0xbce44827	-0.027866436
55	0x3de2c09e	0.11071895
56	0xbcefa5ee	-0.029253926
57	0x3e6ff13b	0.23431866
58	0x3e9f70d3	0.31140766
59	0xbe9f7c0e	-0.31149334
60	0x3eb4669f	0.35234544
61	0x3cb8c722	0.022555891
62	0x3dffc263	0.12488248
63	0xbed44d54	-0.41465247
64	0xbe467081	-0.19378854
65	0x3ebc5cd5	0.36789575
66	0xbe16d203	-0.1472855
67	0xbed6ab76	-0.4192769
68	0x3ea48134	0.32129824
69	0xbd6a73f0	-0.057239473
70	0xbed39d11	-0.4133077
71	0xbecd8598	-0.40140986
72	0x3dcffec8	0.101560175
73	0x3d545cd6	0.051846348
74	0xbd3fe156	-0.046845756
75	0x3ece5da7	0.40305826
76	0x3d4a7070	0.049423635
77	0xbd1813ea	-0.037128367
78	0xbe8f115e	-0.27942938
79	0xbb33e215	-0.0027447988
80	0x3e1adf1b	0.1512417
81	0x3df47af3	0.11937513
82	0x3dafdad4	0.0858666
83	0x3f7c2c08	0.98504686
84	0x3e633205	0.2218705
85	0xbe6b8f18	-0.23003805
86	0x3ee47886	0.44623202
87	0x3eb9f83f	0.3632221
88	0xbf0d05f5	-0.55087215
89	0xbe4125c0	-0.18862057
90	0x3d24a265	0.040193934
91	0xbee00d3f	-0.43760106
92	0xbdbd1d77	-0.092341356
93	0xbe949551	-0.2902017
94	0x3d7114dc	0.058857784
95	0x3dc63ed3	0.096799515
96	0x3bc02c13	0.005864629
97	0xbec80235	-0.39064184
98	0x3e6660fb	0.22497933
99	0xbbeba05b	-0.0071907467
100	0xbd4d3537	-0.050099578
101	0x3dabeeb7	0.083951406
102	0xbd4f5d83	-0.05062629
103	0xbdc2a409	-0.095039435
104	0xbe28a816	-0.1647037
105	0xbe5136e1	-0.20431091
106	0xbe37eeac	-0.1796214
107	0xbd981c8b	-0.07427319
108	0xbcb4fde0	-0.022093713
109	0xbd4539be	-0.04815077
110	0xbe0b57d4	-0.13607723
111	0x3db9d3fa	0.090736344
112	0xbd98bf5f	-0.07458376
113	0x3ee0f52f	0.4393706
114	0x3d6f46d9	0.058417175
115	0xbefec9ad	-0.4976324
116	0xbdf7f3f9	-0.12107081
117	0x3dacdb46	0.084402606
118	0x3da5e9e3	0.08101251
119	0x3dd36137	0.10321277
120	0x3e11b7f4	0.14230329
121	0xbbf3cee4	-0.007440435
122	0xbe6909ab	-0.22757594
123	0x3de76375	0.11298267
124	0xbe4f806e	-0.20263836
125	0xbe7e70ba	-0.2484769
126	0x3e2172f7	0.15766512
127	0xbda45d90	-0.08025658
128	0xbc50101d	-0.012699154
129	0xbd843dab	-0.06457075
130	0x3d77dd99	0.060514066
131	0xbe0b5630	-0.13607097
132	0xbdef6dcf	-0.11690866
133	0xbcad4d5b	-0.02115505
134	0x3de1a45e	0.11017679
135	0x3de38d0a	0.111108854
136	0xbd7f9bc8	-0.062404424
137	0xbcc70bcf	-0.024297623
138	0x3d357177	0.04429766
139	0x3ea0b1f7	0.31385776
140	0xbd82fd00	-0.06395912
141	0x3f0756d4	0.52866864
142	0x3e021e9a	0.12706986
143	0xbd8282d3	-0.06372609
144	0xbd68c46c	-0.056827947
145	0xbe296d59	-0.16545619
146	0x3e59d859	0.21273936
147	0xbd40fe25	-0.04711737
148	0x3d625bde	0.055263393
149	0xbe147690	-0.14498353
150	0xbde18483	-0.11011603
151	0x3e371042	0.17877296
152	0x3ef9cb31	0.48787835
153	0x3eb853f1	0.36001542
154	0x3e96565a	0.29362756
155	0x3e2e4421	0.17018177
156	0x3df091c3	0.11746552
157	0x3ee7fe76	0.45311326
158	0xbb996a7b	-0.004681883
159	0x3e412b45	0.18864162
160	0xbe090b49	-0.13383211
161	0xbc98ac56	-0.018636864
162	0x3f036d91	0.5133906
163	0xbf27c715	-0.6553815
164	0x3e9711c0	0.2950573
165	0x3f1535aa	0.5828501
166	0x3de6fc1a	0.11278553
167	0x3d09b77d	0.033622254
168	0x3eaf2df2	0.3421474
169	0xbf118389	-0.5684133
170	0xbed58d99	-0.41709593
171	0xbea779be	-0.3271007
172	0x3e258f8d	0.16168042
173	0xbdfa5fc3	-0.12225296
174	0x3ec29d67	0.38010713
175	0x3d4844be	0.048893683
176	0xbe0bffdf	-0.13671826
177	0xbe3ae0a9	-0.18249764
178	0xbdd0f3f9	-0.10202784
179	0x3e074ee8	0.13213694
180	0xbe887ab3	-0.26656112
181	0x3f23defd	0.6401213
182	0x3d289b82	0.04116393
183	0x3efcfe70	0.4941287
184	0xbddea00c	-0.1087037
185	0x3ed9f514	0.42569792
186	0x3e317fa4	0.17333847
187	0x3d95cf1c	0.073148936
188	0xbe5edcdf	-0.21763943
189	0xbe27c618	-0.1638416
190	0xbd1abb41	-0.037776235
191	0xbf2291ea	-0.635039
192	0xbe10e587	-0.14150058
193	0x3e5650dc	0.20929283
194	0xbd71c8b0	-0.05902928
195	0x3de72dff	0.1128807
196	0xbe7a7d2c	-0.24461812
197	0x3ea661c1	0.32496455
198	0xbec8676f	-0.39141414
199	0x3e615665	0.22005613
200	0xbda9fa0b	-0.08299645
201	0x3dafd74c	0.085859865
202	0xbd29674d	-0.04135828
203	0x3d0a537d	0.033771027
204	0x3cfaeccd	0.030630494
205	0x3c890c65	0.016729543
206	0xbdd140ba	-0.10217424
207	0x3d4faa79	0.050699685
208	0xbdadc5f0	-0.08485019
209	0x3d23edca	0.040021695
210	0xbdbe097a	-0.09279151
211	0xbe467b09	-0.19382872
212	0xbdfcb057	-0.12338322
213	0x3de465cf	0.11152231
214	0x3d2cb859	0.042167995
215	0x3e1b8d47	0.15190612
216	0x3d687d59	0.056760166
217	0xbdeb4d0b	-0.11489304
218	0xbe0cd1be	-0.13751885
219	0xbe2639fc	-0.16233057
220	0xbdbace74	-0.09121409
221	0x3de75f13	0.11297431
222	0xbe1d9049	-0.15387072
223	0xbc1d121d	-0.009586838
224	0xbe266fcc	-0.16253585
225	0xbd8904d0	-0.06690371
226	0x3e1cc716	0.1531032
227	0x3e2349ee	0.1594617
228	0x3e21cc81	0.15800668
229	0x3d6a2f75	0.057174165
230	0x3e008812	0.12551907
231	0xbd1425c7	-0.03616884
232	0x3db84cf5	0.089990534
233	0x3e1d2b78	0.15348613
234	0x3e1434ad	0.14473219
235	0x3e4307de	0.1904597
236	0x3d6a1c98	0.057156175
237	0x3dcdaca9	0.10042698
238	0xbd071f95	-0.032989103
239	0x3d521ae3	0.051295172
240	0xbcdf3256	-0.027245682
241	0xbce40ad6	-0.027837198
242	0xbd9fbfa9	-0.07800228
243	0xbd821bbf	-0.063529484
244	0xbd68ee82	-0.056868084
245	0x3de62cd7	0.11239021
246	0x3e105154	0.14093524
247	0xbcee6c7a	-0.02910446
248	0xbd50578d	-0.050864745
249	0x3d5a14df	0.05324256
250	0x3d37a4d1	0.044834916
251	0xbf1428d1	-0.5787478
252	0xbc1ce320	-0.009575635
253	0x3ecbbf79	0.3979452
254	0x3e4343b1	0.19068791
255	0xbe888956	-0.2666728

net.layer_1.bias f4 [50]
0	0x3d9d8679	0.07691664
1	0x3d57499d	0.052560437
2	0x3e46e6bc	0.19423956
3	0xbea37dbb	-0.31931862
4	0x3d4e5b62	0.05038012
5	0xbe089391	-0.13337542
6	0xbda6c28a	-0.08142574
7	0xbdfae0af	-0.12249886
8	0x3c8c337a	0.01711439
9	0x3e9dd0cf	0.3082337
10	0xbe12cc02	-0.14335635
11	0xba3f0653	-0.0007287014
12	0x3e27d040	0.16388035
13	0x3e46496a	0.19363943
14	0xbd623490	-0.05522591
15	0x3e60e74d	0.21963234
16	0x3c9a753b	0.018854728
17	0xbcd10442	-0.025514726
18	0x3dc6c1dc	0.097049445
19	0xbc9466c8	-0.018115416
20	0x3d899a2d	0.0671886
21	0x3c680546	0.014161414
22	0x3d08afdc	0.033370838
23	0xbd6f6a89	-0.05845121
24	0x3d093fb2	0.03350801
25	0x3cf32f83	0.029685741
26	0x3dec5fa1	0.11541677
27	0xbd60b3b1	-0.054858867
28	0x3b9bb7b1	0.0047521223
29	0xbd2f5160	-0.042802215
30	0xbe3423fe	-0.17591855
31	0xbd983015	-0.07431046
32	0x3b5b3e8b	0.0033454027
33	0x3e117e2d	0.14208288
34	0xbdc46c6b	-0.095909916
35	0x3c0f218e	0.008736027
36	0xbe0f82a0	-0.14014673
37	0x3ce69977	0.02814935
38	0x3c04c72f	0.00810413
39	0x3d7e4a90	0.062082827
40	0x3de87316	0.11350076
41	0xbd3472d5	-0.044054825
42	0xbd54ad3b	-0.051923018
43	0x3d9c0dc3	0.07619812
44	0x3e3e2fb2	0.18572882
45	0x3daa5a03	0.083179496
46	0x3e13b083	0.14422803
47	0xbd9eb09f	-0.077485316
48	0x3c52bebb	0.0128628565
49	0x3deb97be	0.11503552

net.layer_2.weight f4 [50, 50]
0	0xbce5bacd	-0.028043175
1	0xbc26df03	-0.010185006
2	0x3bf5fe32	0.007507109
3	0xbdb4cf0a	-0.08828552
4	0xbdeb3ef7	-0.11486619
5	0xbd9a3f93	-0.07531657
6	0x3d43b6e1	0.04778183
7	0x3e3abc32	0.18235853
8	0x3da99346	0.08280043
9	0x3cc8db5f	0.024518667
10	0xbcca2eb2	-0.02468047
11	0xbdb02f54	-0.08602777
12	0xbe7f92fb	-0.24958412
13	0x3e17c47b	0.14821045
14	0xbe590954	-0.21194965
15	0xbdbaa624	-0.0911372
16	0xbe2ea781	-0.17056085
17	0xbdc2f45f	-0.09519266
18	0xbcb175e5	-0.021662662
19	0xbde444bc	-0.111459225
20	0xbdc1a541	-0.09455348
21	0x3df5f46a	0.12009509
22	0xbd2b0a76	-0.041758023
23	0x3e090c69	0.1338364
24	0x3d6817ff	0.05666351
25	0xbcdd1272	-0.026986334
26	0xbcfd6993	-0.03093413
27	0xbddaf3a2	-0.106910005
28	0xbdbbe5fe	-0.09174727
29	0x3d96cf84	0.07363799
30	0xbcc008bf	-0.02344167
31	0xbe15e1a8	-0.14636862
32	0x3e1be73d	0.15224929
33	0x3c72fca1	0.014830739
34	0xbdb9a904	-0.0906544
35	0xbcf0cf3c	-0.029395692
36	0xbdea0b63	-0.11427953
37	0xbdefeae6	-0.11714725
38	0x3e3366e3	0.17519717
39	0x3d87a3a8	0.06623012
40	0xbe7e2bbc	-0.24821371
41	0xbd1d1791	-0.038352553
42	0xbddacc9d	-0.10683558
43	0xbe24db75	-0.16099341
44	0x3ceacb54	0.028661408
45	0xbc3188aa	-0.010835806
46	0xbcdc5ab2	-0.026898716
47	0xbccad82c	-0.024761282
48	0x3de932e1	0.113866575
49	0x3d2607d7	0.04053482
50	0xbd52fbdc	-0.051509723
51	0x3c4f23d6	0.012642821
52	0xbd1a840d	-0.03772359
53	0x3c7fa64e	0.015603615
54	0xbe14720d	-0.14496632
55	0x3d9db3bc	0.07700297
56	0xbab21a3c	-0.0013588141
57	0x3df9c430	0.12195623
58	0xbe0bc9d9	-0.13651218
59	0xbd7f1dbb	-0.062284213
60	0x3d9fa61c	0.07795355
61	0xbe01353c	-0.12617964
62	0xbd030c62	-0.03199423
63	0xbe5c17fc	-0.21493524
64	0x3d91f290	0.07126343
65	0x3d7cc931	0.06171531
66	0x3d062d8e	0.032758288
67	0x3e253fe5	0.16137655
68	0x3ce04820	0.027378142
69	0x3d1ea9e8	0.038736254
70	0xbdb90051	-0.090332635
71	0x3d846e21	0.06466318
72	0xbdd1bd16	-0.102411434
73	0x3d884e8d	0.06655607
74	0x3b71e47f	0.0036909876
75	0x3dc380de	0.09546064
76	0x3e063413	0.13105802
77	0x3e16b7eb	0.14718597
78	0x3d4dbaca	0.050226964
79	0x3dc3a509	0.09552962
80	0xbe073afa	-0.13206092
81	0x3d9e9c6c	0.07744679
82	0xbc68fac4	-0.014219943
83	0x3dba4054	0.09094301
84	0x3ce994f0	0.028513402
85	0x3c1b6882	0.009485366
86	0xbde95117	-0.1139242
87	0x3d8cf47c	0.06882569
88	0xbcdada16	-0.02671532
89	0xbd1112eb	-0.035418432
90	0xbceaf8aa	-0.028683025
91	0x3dbefcd9	0.093255706
92	0xbe493301	-0.19648363
93	0xbe185e8a	-0.14879814
94	0xbd855f3e	-0.06512307
95	0x3e42ad2f	0.19011377
96	0xbd89db85	-0.06731323
97	0x3db74b88	0.08949953
98	0x3e5792f1	0.21052147
99	0xbd9be019	-0.076111026
100	0xbe0cf3ee	-0.13764927
101	0xbdbc9309	-0.09207732
102	0x3bf9d498	0.00762422
103	0xbcec901e	-0.028877314
104	0xbc8a5269	-0.016885
105	0xbc4c6e5f	-0.012477486
106	0x3dd16d3d	0.10225914
107	0xbd5062ab	-0.050875347
108	0xbcf98eae	-0.030463543
109	0xbd229384	-0.039691463
110	0x3c8a2077	0.016861184
111	0xbb77a9f9	-0.003779052
112	0xbde01255	-0.109409966
113	0x3d9dced6	0.077054664
114	0xbd5d8f3b	-0.054091673
115	0x3d516007	0.05111697
116	0xbe239c93	-0.15977697
117	0xbd93cfb5	-0.07217351
118	0x3d09ad5b	0.03361259
119	0xbd03d83d	-0.032188643
120	0xbd59aa49	-0.053140912
121	0x3dc1ea1d	0.09468482
122	0x3c725491	0.01479067
123	0x3d60c49a	0.054874994
124	0x3e4fac1a	0.20280495
125	0xbd723621	-0.059133653
126	0xbd3e029f	-0.04638922
127	0xbc5f6af2	-0.013636338
128	0x3ca19335	0.019723514
129	0xbd7c8995	-0.061654646
130	0xbd08410e	-0.033265166
131	0xbcb842b6	-0.022492748
132	0x3dcec81e	0.10096763
133	0x3e1f50b8	0.15558136
134	0x3e0ba67b	0.13637726
135	0x3cc5d3f4	0.024148919
136	0xbc94d7aa	-0.018169243
137	0x3cf6532b	0.030068954
138	0x3c8512e4	0.01624436
139	0x3ccdac46	0.02510656
140	0xbd7af5ae	-0.061269455
141	0xbd7f095b	-0.06226478
142	0xbe1eff93	-0.15527181
143	0xbb971822	-0.004611031
144	0xbd6077eb	-0.054801863
145	0xbcc4ae4d	-0.024008894
146	0xbde7e4ec	-0.1132296
147	0x3dfb3b66	0.12267189
148	0x3c916f3a	0.017753232
149	0xbdc027a3	-0.0938256
150	0xbcb87e46	-0.02252115
151	0x3f16259f	0.58651155
152	0xbeb0ac34	-0.3450638
153	0x3e2db1de	0.16962382
154	0xbe1416c5	-0.14461811
155	0xbf00ff37	-0.50389427
156	0x3e84abb2	0.25912243
157	0xbddc484d	-0.10755978
158	0x3db51347	0.088415675
159	0x3e99d358	0.30044055
160	0x3e6bf47e	0.23042485
161	0x3e10174a	0.14071384
162	0xbebcf612	-0.36906487
163	0x3f78bb19	0.9716049
164	0xbd33c6b1	-0.04389066
165	0x3cacbdf7	0.021086676
166	0x3dbb6c1a	0.09151478
167	0x3e465bdb	0.19370978
168	0xbe4378a7	-0.19088994
169	0xbea6c248	-0.325701
170	0xbecf342e	-0.40469497
171	0xbddc26b1	-0.10749567
172	0xbb6dd0bb	-0.0036287743
173	0x3e6c135b	0.23054259
174	0x3d9280b6	0.07153456
175	0xbe5783d3	-0.2104638
176	0xbc49dbf8	-0.012320511
177	0x3f00e6e0	0.5035229
178	0x3e091bbd	0.13389488
179	0xbf1ca6b2	-0.61191857
180	0xbe14d9e7	-0.14536248
181	0xbe5b35a7	-0.21407185
182	0x3e38d3a0	0.18049479
183	0xbd8d001f	-0.06884789
184	0xbda06b44	-0.07832959
185	0x3f16a13e	0.58839786
186	0xbe3e90ec	-0.18609971
187	0x3eb3d770	0.35125303
188	0x3ee23b8a	0.4418605
189	0xbeeee117	-0.46656105
190	0xbf04d3f3	-0.5188591
191	0x3ed75c03	0.42062387
192	0xbead336a	-0.33828288
193	0x3e43093a	0.19046488
194	0x3e8b2130	0.27173758
195	0x3e0dce95	0.13848336
196	0xbc040aab	-0.008059184
197	0x3e98f4e9	0.29874352
198	0x3f19b523	0.6004202
199	0x3d98abdc	0.074546546
200	0x3e3bcb61	0.18339302
201	0x3d90746e	0.07053457
202	0x3db19308	0.08670622
203	0x3da796a7	0.081830315
204	0x3d0d3157	0.034470882
205	0x3d2c5ce7	0.042080786
206	0xbb6a8fb6	-0.0035791225
207	0xbe3a6204	-0.18201452
208	0x3d28c38c	0.041202113
209	0xbc921d30	-0.017836183
210	0x39c54e97	0.00037633322
211	0xbdf7c8d6	-0.12098853
212	0x3e1b8775	0.15188392
213	0xbe669248	-0.2251674
214	0x3e325a57	0.17417274
215	0x3d147bbf	0.036250826
216	0xbd7b409f	-0.061340924
217	0x3def830f	0.11694919
218	0xbdc3793e	-0.095446095
219	0x3ca4b4f4	0.020105816
220	0x3d8044a6	0.06263094
221	0xbd0f732b	-0.035021942
222	0x3dc980d3	0.098390244
223	0xbd6b66cd	-0.057471085
224	0xbd75bcdf	-0.059994575
225	0xbdd527a3	-0.10407951
226	0xbdc2a346	-0.09503798
227	0x3e412818	0.18862951
228	0x3da0df26	0.07855062
229	0x3d160309	0.03662399
230	0xbb1ad705	-0.0023626697
231	0xbde11d44	-0.1099191
232	0x3d820b5c	0.06349823
233	0xbd51fbe2	-0.051265605
234	0xbd9e6d6c	-0.07735714
235	0xbe1a4dfb	-0.1506881
236	0x3dea0531	0.114267714
237	0x3cfc3d7f	0.030791042
238	0x3d91303d	0.07089279
239	0xbbea667e	-0.0071533313
240	0x3de4e60b	0.1117669
241	0x3c8b0061	0.016967954
242	0x3d40b5ed	0.047048498
243	0x3d6537cf	0.055961426
244	0xbcf1574c	-0.029460572
245	0xbde8576e	-0.11344801
246	0x3dc39c64	0.095513135
247	0x3c8ea964	0.017414756
248	0xbd94ee43	-0.07272007
249	0x3ccb2213	0.024796521
250	0x3e8b19c9	0.2716811
251	0x3da3f1e5	0.08005122
252	0x3e8286d4	0.2549349
253	0xbf1c2245	-0.6098979
254	0x3e12f4d3	0.14351206
255	0x3f222e39	0.6335178

net.layer_2.bias f4 [50]
0	0xbd406a43	-0.04697634
1	0x3e160f63	0.14654307
2	0x3e0f09a0	0.13968515
3	0xbe2b7f24	-0.16747719
4	0x3dc74e50	0.09731734
5	0x3d14b467	0.036304858
6	0x3e00dcba	0.125842
7	0xbc5d83d9	-0.013520204
8	0x3d178b58	0.036998123
9	0xbd14083a	-0.036140658
10	0xbc2ba36c	-0.0104759745
11	0xbd075e21	-0.033048753
12	0xbdc7e22c	-0.09759936
13	0x3dbd02ff	0.09229087
14	0x3d72428f	0.059145506
15	0xbda90db5	-0.082545675
16	0xbdd58854	-0.10426393
17	0x3d42d665	0.047567744
18	0xbdf57a2a	-0.119861916
19	0x3d897742	0.067122
20	0xbe21cbeb	-0.15800445
21	0x3e2cd728	0.1687895
22	0x3e0445f6	0.12917313
23	0xbe18bc1e	-0.14915511
24	0xbe4d47c4	-0.20046908
25	0xbd3b02cd	-0.045656968
26	0x3da71e71	0.08160103
27	0xbce8f492	-0.028436933
28	0xbd05729b	-0.03258
29	0xbda2a2c3	-0.079412006
30	0x3d4ee1c4	0.050508276
31	0xbd8df1df	-0.06930899
32	0x3cf79e70	0.030226916
33	0xbdcabad2	-0.098989144
34	0xbc876a51	-0.016530188
35	0x3e0bbfde	0.1364741
36	0xbdcc60ae	-0.09979378
37	0x3ded9d08	0.11602217
38	0x3d5fdee9	0.054655943
39	0xbcf7d818	-0.030254409
40	0x3d78694d	0.060647298
41	0xbdd39a2d	-0.10332141
42	0x3cd8f87b	0.026485672
43	0x3d1904b8	0.037358016
44	0x3e1c6f7b	0.15276901
45	0xbde90fb1	-0.11379946
46	0xbd944165	-0.072390355
47	0xbd52da73	-0.05147786
48	0xbdeccfa9	-0.115630455
49	0x3cbfe257	0.023423357

net.output.weight f4 [1, 50]
0	0xbde6c0d6	-0.11267249
1	0xbd1fa883	-0.038979065
2	0xbd55cdfb	-0.05219839
3	0x3eabb61d	0.3353738
4	0x3c46c65c	0.0121322535
5	0xbf209738	-0.6273074
6	0xbe637c42	-0.2221537
7	0xbe3b20c4	-0.18274218
8	0x3a1364d0	0.0005622627
9	0xbc8eda7a	-0.017438162
10	0x3daa6736	0.08320467
11	0xbe022fd0	-0.12713552
12	0x3e91b7d0	0.2846055
13	0x3e2f05eb	0.17092101
14	0xbb933524	-0.004492419
15	0x3dbd5014	0.09243789
16	0x3de10301	0.10986901
17	0xbde496f9	-0.11161608
18	0xbd3def21	-0.04637063
19	0x3e29bb31	0.16575314
20	0x3e0a6472	0.1351488
21	0xbe422e4b	-0.18962972
22	0xbd098e2f	-0.033582862
23	0x3e16071d	0.14651151
24	0x3df02c8f	0.11727249
25	0xbddc891b	-0.10768338
26	0x3e383d0b	0.17992036
27	0x3e239ed7	0.15978561
28	0xb930ec85	-0.00016872778
29	0x3e3fdd5c	0.18736786
30	0xbd6b1663	-0.057394397
31	0x3e4bd0a5	0.1990381
32	0xbe67e86c	-0.22647256
33	0xbd8f7683	-0.07005026
34	0x37f93d4f	2.9711662e-05
35	0xbdcfbf05	-0.10143856
36	0x3d9c463a	0.07630582
37	0xbdb96f9a	-0.090544894
38	0xbb1ad57e	-0.0023625786
39	0x38ebc9d2	0.00011243265
40	0x3e67e2fc	0.22645181
41	0xbd0de15e	-0.034638755
42	0xbd7ff665	-0.06249084
43	0x3d44a006	0.048004173
44	0x3e449ec8	0.19201195
45	0x3e455afb	0.19272988
46	0xbdc4f7b6	-0.096175596
47	0x39652db8	0.00021856173
48	0xba0262b5	-0.0004973815
49	0xbdab4816	-0.08363359
