burgers/trained_models/pinn_burgers_inviscid_2.pth (torch, 24768 bytes, 7 tensors)

net.layer_0.weight f4 [50, 2]
00000000: adbf bc3e 210e 50bf c290 173f 28b7 71be
00000010: 98ba 86bf e793 153f 6ef5 97bd 93e5 333f
00000020: 417a bcbd ac97 13bf 47e8 adbf a499 0a3f
00000030: f93b 38bf 1f3b 113f 5a25 16bf f05e 9abe
00000040: 2dea d2be 5e89 633f da82 1cbf 1e82 05bd
00000050: ea55 78be b435 2cbf 6256 ea3d 6038 65bf
00000060: 0de8 753f 0abc 34bf 129c 26bf 3926 18bf
00000070: 9d41 18bf edba 203f 06fc 663f dd12 01be
00000080: 5494 5c3f 614f 59bf 5af5 84bf fc62 353f
00000090: ead0 bfbe e32f dabe 0f2e e7bd ebc9 063d
000000a0: 7218 773f 1700 1b3e 3e4e a93d 6fc9 48bf
000000b0: 44f5 36bf 2dc9 7cbe c8ed 0fbf 0c91 d03d
000000c0: cfe9 f2bd 5ce6 24bf 46e9 843e 952a 8b3e
000000d0: 4e15 033d 5d5f c6be f9a5 c83d ce57 d83e
000000e0: 5375 ed3e 2be6 6e3e 1dc2 cfbb db37 373e
000000f0: 6b27 573e 2f85 0ebf 7089 5dbf 6013 7d3e
00000100: 1b4e 423f 34c3 20bf c709 3e3e 1a07 53bf
00000110: cc2e 8f3f d6f4 2fbf 7012 d3be 857f 33be
00000120: aa18 903e e568 17be ade5 7fbe d94c 4a3f
00000130: c0dd d9be 9816 f7be b8d7 213f 37b8 373e
00000140: 756a 6dbf e68f ea3e 49fd c4be 86fb 1bbf
00000150: 04d3 96bf 94cd b93d e636 303e 0889 4abe
00000160: 48b5 2dbf 3135 073e b11a 453f ec2d 6dbd
00000170: 37ee 2cbf 5312 6dbe f814 473f b56f 11be
00000180: a2c5 8d3f fb3b 82be becb 34bf 1e24 3abf
0.36864987 -0.8127156 0.5920526 -0.23605025 -1.0525694 0.58428806 -0.07419859 0.7027218
-0.092030056 -0.5765331 -1.358651 0.54140687 -0.7196651 0.56730837 -0.58650744 -0.30150557
-0.41194287 0.8888148 -0.61137164 -0.032594793 -0.24251524 -0.67269444 0.114422575 -0.89539146
0.96057206 -0.70599425 -0.65081894 -0.59433323 -0.5947512 0.62785226 0.9022831 -0.12604852
0.8616383 -0.8488675 -1.0387375 0.70854163 -0.37464076 -0.4261466 -0.11288082 0.032907408
0.96521676 0.15136753 0.08266877 -0.78432363 -0.71467996 -0.24686117 -0.562222 0.101839155
-0.11861002 -0.64414 0.25959224 0.27180925 0.03200274 -0.3874463 0.09797282 0.4225449
0.46378574 0.2332999 -0.006340279 0.17892401 0.2101113 -0.5567197 -0.8653784 0.24714422
0.7590043 -0.62797856 0.18558417 -0.8243271 1.1186156 -0.68732965 -0.41225004 -0.17529114
0.28143817 -0.14786108 -0.24989958 0.7902351 -0.42551994 -0.48259425 0.63219786 0.17941366
-0.92740566 0.4581291 -0.3847449 -0.6093067 -1.1783147 0.09072414 0.17208442 -0.19778836
-0.6785474 0.13203885 0.7699385 -0.057905123 -0.67550987 -0.23151521 0.7776637 -0.14202769
1.1075938 -0.25436386 -0.70623386 -0.7271136

net.layer_0.bias f4 [50]
00000000: d184 0f3f 3633 05be 329a 16be bde4 42bf
00000010: 71b3 053f 180a b63d 0801 c6be 166a 9b3e
00000020: 8363 15bf 3591 b13b 949c e7be c07a 58be
00000030: 6be7 b43d e8fa 04bf 8304 e2be d58e 06bf
00000040: ffee e93e 0fb1 8dbe e22a 253f c0c5 fd3e
00000050: ea00 12bf ef5c 163f 9fd7 a53e 6fba 4f3d
00000060: 2c9a 0b3f 3ddb fe3e 6098 56bb 50d4 303f
00000070: f976 f3be 9315 023f e8cc f23e e8b2 de3e
00000080: be72 de3d 7ac0 3b3f a23c 803e b387 e0be
00000090: bd96 3e3f e33a 17bf cc46 4b3f c942 07bf
000000a0: f165 8f3c a238 1ebf 931d eb3e 99b5 cabe
000000b0: e8b8 efbd 68f2 a4be 0e0e debe 89a9 5fbe
000000c0: 7ab7 87be 4225 1fbf
0.56062037 -0.13007817 -0.14707258 -0.76130277 0.5222693 0.08888644 -0.38672662 0.30354375
-0.5835497 0.0054189214 -0.45236647 -0.21140575 0.08833202 -0.5194535 -0.44144067 -0.52561694
0.45690152 -0.27674147 0.6451856 0.49564934 -0.57032645 0.58735555 0.32391068 0.050714906
0.5453212 0.4977664 -0.0032744631 0.69073963 -0.47551706 0.5081417 0.47421956 0.4349587
0.10861729 0.7334057 0.2504626 -0.4385353 0.7444876 -0.5907423 0.794049 -0.5283628
0.017504664 -0.61805165 0.45921 -0.39591673 -0.1170519 -0.3221619 -0.43370098 -0.21842016
-0.2650717 -0.62166226

net.layer_1.weight f4 [50, 50]
00000000: d654 54bd da6f 8d3e 57b6 83be c16b 203e
00000010: 4986 28be 4b56 29bf 3bea 0ebe dcc9 9abe
00000020: b004 8ebd 76f3 aebe 314a 33bd 3305 3c3e
00000030: 4af4 903e ef57 74bd 22e4 5bbd 0e52 ae3e
00000040: 1490 693e cbce 56be 3267 91be 9704 2dbe
00000050: 1834 d13e 0a96 0f3d db67 bfbe 2fff 0abf
00000060: c5e0 36be 9ac1 31bd 496f b2bd cc83 07be
00000070: 12d0 403e 1154 41bd 5cb5 9fbd 5ae9 d3bd
00000080: 45b2 583e 6168 98bd 4ba1 d93e f6a4 0abd
00000090: 4ac6 f0bd d19d 5f3d 86ee 27be ec22 0a3e
000000a0: 6555 a4be 877a dd3c 5648 05bf b908 d73d
000000b0: 35c0 9fbe d764 f63e 8571 20be 740c 9e3e
000000c0: 64a5 f33e 127a 663d c350 dabc 8127 b3bd
000000d0: 270c 39bd c48b e53d f454 133e fc0c df3c
000000e0: 212b 9a3c 2f8f 2cbd 69e6 013e 0004 20bd
000000f0: 1fcd 2bbd 16a1 6bbd 8a9d 94bc c4fc 523d
00000100: c7d5 debd a367 c6bd c722 873d b59f 4c3d
00000110: 16ec ebbd c4d9 823d b937 643d d7e9 aabb
00000120: 8d1e 5e3e 25e1 153e 1379 c0bd 4ca3 aebd
00000130: a249 233e 490e 69bd 1053 c83d 2bc0 f5bd
00000140: 7ac5 e53d 29e9 c93d 78a2 24be 38f9 09be
00000150: a0a4 13be c11d 193e 2615 d13c 3b9a 423d
00000160: 1676 edbc a545 24be 8403 243e c382 55bd
00000170: ca5e 5a3d 13f3 abba c1d6 1f3e 5a84 bd3b
00000180: f746 91bb aa66 763d 79fd 403d bc89 55bc
00000190: 87b2 113e 796c 38be 8b6d 953b 4675 883d
000001a0: c97f b83d cb49 323e 170f e8bc f45c ee3c
000001b0: d836 03be 3e7d ff3d 0652 fabd ca59 2a3d
000001c0: 4953 40bc 1407 95bc 408b 3bbd c34f 67be
000001d0: 8cbe 0fbe b02d 4e3e 3459 553e 9d4b b83d
000001e0: c368 4dbe 4307 8c3c f4c7 493e 109c a53d
000001f0: b6fc 3b3e 721a bd3d 6912 043e f35c 163e
00000200: 0988 5dbe 475d 0fbd 8ba4 9a3d 15c3 453d
00000210: 2f56 95bd b518 393e 4527 5bbe e9b7 9b3d
00000220: 72f8 863c e845 c9bb bfd6 9fbc 2e4b c1bc
00000230: c03f 6f3e 2151 f9bd e28a 833d 6991 0b3d
00000240: 5c46 223e d1c8 9cbd 9730 1b3d f159 35be
00000250: 2ac2 99bd 60bf ac3c c909 01be 9d14 88bd
00000260: e26a 10be fac5 ae3d ff55 40bd 9ba2 e1bc
00000270: 3330 a63d ab95 103d fab4 cb3d 9bd5 02be
00000280: 6acc ae3d d344 f83c 974f f0bc 8527 213e
00000290: 22a4 de3d f201 31bc fc39 d8bd 4374 ff3d
000002a0: fa10 1dbe f606 a33d 98e2 b43c ee4e d4bd
000002b0: 2bed afbc e818 023c 7400 21be e7ad 823d
000002c0: 8909 453d eecb 5e3d ef3a 3e3d 3bde 59bd
000002d0: a7e3 3dbe 4399 c5bd da52 9ebd 4fa8 02bd
000002e0: 2ced 073e 493a 2a3d ff40 ba3d 9c0c 74bd
000002f0: 065b 94bd bd58 b43d a369 c5bd c4d0 ce3d
00000300: 6c96 89bc 27c2 bd3c e63a 55bd 3d0a ff3d
00000310: 5680 ddbd 7d7a d73d 4332 f83d b218 4cbc
00000320: 389e 0d3e 1ef9 19be 4244 58bd 38bf b4bc
00000330: 33cc 313d 1f5a 843e 3dcb d93d 4717 953d
00000340: 3952 0bbe 599b af3c bdad 7bbc 4ee1 b73c
00000350: a918 b3bd f9e4 6fbd f32b 7e3d b046 afbd
00000360: f407 ea3d 8fe8 f33b 72e9 083e ef0b dcbc
00000370: 0b35 59be 5fbc a1bc 5dc1 bc3d 3e10 613e
00000380: 1d2b 5b3e bdc5 f1bc 569e 0e3e 1ee1 823d
00000390: 2eef f7bd 834b dabb 80e5 e93b 076a 273d
000003a0: 8e99 43bd 92bd 013e b93a b0bd 6423 edbd
000003b0: e572 c53d 479b 143d e268 7a3e 781d e4bd
000003c0: 7c43 193e d98e 08be d6dc 813e a737 1fbe
000003d0: 27af d9bc aa57 56be 6b05 833d 3510 8ebd
000003e0: 5ec9 dbbd 7963 733d 82a0 d33d fc26 bbbc
000003f0: 737a 39be c6ce 153e 15db 1ebe f6d5 c03b
-0.05183872 0.27624398 -0.25725052 0.15666105 -0.16457476 -0.661473 -0.1395654 -0.3023213
-0.06934488 -0.3417012 -0.043771926 0.18361358 0.28311378 -0.059654173 -0.05368436 0.34046978
0.22808868 -0.20977323 -0.28399044 -0.16896282 0.40860057 0.035055198 -0.37383923 -0.5429563
-0.1785918 -0.043397523 -0.08712632 -0.1323387 0.18829373 -0.047199313 -0.077982634 -0.10347243
0.21161754 -0.07441784 0.4250587 -0.033848725 -0.11756571 0.054593865 -0.16399583 0.13489884
-0.320964 0.027035965 -0.520635 0.104997106 -0.3120133 0.4812381 -0.15668304 0.30868876
0.4758712 0.05626876 -0.026649838 -0.08747769 -0.045177605 0.11208299 0.14387876 0.027227871
0.018819394 -0.042128738 0.12685551 -0.039066315 -0.041943666 -0.05752667 -0.018141527 0.051510587
-0.108806185 -0.09687736 0.0659843 0.049956996 -0.11519639 0.06389192 0.055717204 -0.005215864
0.21691342 0.14636667 -0.09398093 -0.0852724 0.15946057 -0.05689839 0.09781468 -0.11999544
0.11219306 0.09858925 -0.16077602 -0.13473976 -0.14418268 0.14952756 0.02552278 0.047510367
-0.028986972 -0.16042192 0.16016966 -0.052126657 0.053313054 -0.0013118706 0.15609266 0.0057836
-0.0044335085 0.0601565 0.04711673 -0.013033327 0.14228259 -0.18010129 0.0045601777 0.06662993
0.09008748 0.17410962 -0.028327508 0.029097058 -0.1281389 0.1247506 -0.12222676 0.041589536
-0.011738607 -0.018191852 -0.045787096 -0.2258902 -0.14037532 0.20134616 0.2083481 0.08998797
-0.20059495 0.017093306 0.19705182 0.08086407 0.1835812 0.0923356 0.12897648 0.14683895
-0.21633925 -0.035001066 0.07550915 0.048281748 -0.07291829 0.18075831 -0.21401699 0.076034375
0.01647589 -0.0061423667 -0.019511579 -0.023595419 0.23364162 -0.12173677 0.06422974 0.03407422
0.15847152 -0.0765549 0.037888136 -0.17710091 -0.07507737 0.021087348 -0.12601389 -0.06644557
-0.14103273 0.08533855 -0.046957012 -0.027543357 0.08114662 0.035298984 0.09946628 -0.12776797
0.08535083 0.030306255 -0.029334826 0.15737732 0.108711496 -0.010803686 -0.10557935 0.12473347
-0.15338507 0.07960312 0.022080705 -0.10366617 -0.021475395 0.007940508 -0.15722829 0.063808255
0.048104797 0.0543937 0.046442922 -0.05319045 -0.18543874 -0.09648373 -0.077306464 -0.031898793
0.13274068 0.04155949 0.09094428 -0.059582338 -0.07243924 0.08805988 -0.09639289 0.10098413
-0.01679536 0.023163868 -0.052058123 0.12453125 -0.10815494 0.1052141 0.12118962 -0.01245706
0.13829887 -0.15036437 -0.05279947 -0.022063836 0.04340763 0.25850007 0.10634468 0.072798304
-0.13605584 0.02143638 -0.015361247 0.0224463 -0.08744938 -0.058567975 0.062053632 -0.085584044
0.11427298 0.0074434946 0.13370302 -0.02686116 -0.2121164 -0.019743143 0.092165686 0.21978852
0.21403165 -0.029513234 0.13927588 0.06390594 -0.12106167 -0.0066618337 0.0071379542 0.0408726
-0.047753863 0.12669972 -0.086049505 -0.11579016 0.09641055 0.036280897 0.24454072 -0.11138433
0.1496715 -0.13335742 0.25363797 -0.15548573 -0.026572777 -0.20931879 0.06397518 -0.06936685
-0.10731767 0.059421036 0.10333349 -0.022845738 -0.18113117 0.14629659 -0.1551326 0.005884881

net.layer_1.bias f4 [50]
00000000: f264 82bd 9ba2 ae3c 7822 b93b 8108 2ebe
00000010: 3fc3 06bd bdd6 05be e01e f1bd 01ac 34bc
00000020: a0dd 1d3e e0b1 113c 21ac c0bd 0957 453b
00000030: 5b79 d5bb 3246 843d e2e8 f13c 5015 133e
00000040: 239b a73b 307a 82bc 2c81 9c3d d869 c9bd
00000050: 1b8f 15be c2db 1e3c 6590 823d 85bb cebd
00000060: dae1 23be b08f b6bd 1fb4 48bc dd84 b73d
00000070: a4e8 fcbc 2032 51bd 09bb ef3b 5768 4dbd
00000080: 2768 bc3d 8bd5 23be a8b3 e5bd 29d8 fbbd
00000090: a55a 30bc 6fd4 3b3d 8483 063e ae8d 24bd
000000a0: 7919 083e 0bda fe3b fcc0 e9b9 d77b 003e
000000b0: 762b ee3d ad1d 003e 60bb d33d 54f2 1dbd
000000c0: f72a 7bbd 18c9 edbd
-0.0636691 0.02131777 0.005649861 -0.16995431 -0.032901045 -0.13070197 -0.11773467 -0.011027337
0.15416574 0.008892506 -0.09407831 0.0030111691 -0.006514711 0.06458701 0.029529992 0.14363599
0.0051149293 -0.015927404 0.07641825 -0.09834641 -0.14605372 0.009695949 0.06375197 -0.1009436
-0.16004124 -0.08914125 -0.012249975 0.089608885 -0.03087265 -0.051073194 0.0073159975 -0.050148334
0.09199553 -0.15999429 -0.11215907 -0.12297089 -0.010763799 0.04585689 0.13136107 -0.04017418
0.13290967 0.0077774576 -0.00044585008 0.12547241 0.11629383 0.1251132 0.10338473 -0.03856118
-0.06132027 -0.11610621

net.layer_2.weight f4 [50, 50]
00000000: fb58 edbd 6107 ccbc bf78 40bb 82f8 b9bc
00000010: db5f 0d3d 154a c0bc 4ed5 5f3d 2ca7 883b
00000020: 2881 2abd 5b2d 913c 44a5 fc3b 7af1 c7bc
00000030: 42fe 133d 7a6a acbd 92f6 093e 9327 d2bc
00000040: f410 043e 8be6 1abe b3b9 04be aaf7 f1bd
00000050: b656 21bd 3f2a 62bc 0773 51bd aff8 f23d
00000060: c03f 21bd 6e7d e63d 17c2 77bd d3c3 ecbd
00000070: e1f5 ecbd 75e8 04be 6524 aabd 5458 afbd
00000080: d1bc a4bd cb17 093e 2165 953a 2f61 bf3c
00000090: 51bd d4bd f45c 883d c186 e2bd 6d54 04bd
000000a0: 997c 43bd 55c8 a8bd b01d 59bd 8600 2abd
000000b0: d39e 433d 7d2a 6cbd 57b5 87bd fd1b a83d
000000c0: 1a1d a93d 41b5 72bd d9d3 88bc 4868 c6bd
000000d0: ad05 cfbc f4a4 e2bd 9db3 02be 78fd 25be
000000e0: 1c14 f0bd 5cef 723c c0ec a5bd c796 a2bb
000000f0: ef4f a0bc 8ab9 d2bd 8c8f b6bd c805 473d
00000100: 1185 33bc d882 d8bd 33dc 49bc 3735 25be
00000110: 0278 a6bd 17ac ff39 505b 033e 8fb3 b53d
00000120: b8af a1bd e882 a83d befd 833d 269c b7bd
00000130: b6f5 8a3d 2496 103e f2b7 4ebd da14 88bd
00000140: 27be 0eba 8225 74bb 787d 403c a91b 9cbd
00000150: 7105 82bd b5db fabd 6817 a23d 728c cdbd
00000160: 8b11 34bd 9822 e93d aaa1 b03d 1064 c43d
00000170: 6217 fcbd da57 81bb 1dfa 1a3e 10c5 4b3d
00000180: d8eb 44bd 97f7 1b3d 0e76 02be 1e5c 04bd
00000190: 17f2 b1bd 5769 05be 734a f53c 88a2 c1bd
000001a0: ce81 02be 7c16 c8bc 477b f03c 02fb 223b
000001b0: f744 56bd 39a4 f4bd 14b2 4e3d 52e2 cf3c
000001c0: 94d0 8cbd c610 1bbd c2af bd3d 789c c5bd
000001d0: c56e 91bd 7ae3 803d 2351 943d be48 403d
000001e0: 446a c73d df5c 2cbd 86d4 7d3d 336d 56bd
000001f0: de90 4cbd daff 02be 18f6 23be 29c8 b23d
00000200: ada7 b2bd bddf 003d ba3a 0bbe 25f5 713e
00000210: b9e4 b53d 1677 36bc 1cf4 5a3d dace bc3d
00000220: 1fa0 1e3d bc82 babd 68a3 4c3d 3a25 6f3d
00000230: b47d 873d 6325 b03c 9767 823d ceb5 f73d
00000240: 15c1 63bc 2756 1ebd 7164 b8bd 6b50 f5bd
00000250: 2b43 bcbd 3899 d53d 9ba5 adbd f7e9 003e
00000260: b37d 1fbd 82a7 b53d e06a 603d 188a 09be
00000270: 0bd7 51bd 1f16 1bbe e1f1 353d 914e 33bd
00000280: 9251 c33d 6687 993d 3d1d 093c 7262 a6bd
00000290: 13ea fabb 37f8 0dbe c5cf 803d 669c e8bd
000002a0: eb25 943d 0c6d b8bd 758e 2cbd 5068 c53d
000002b0: 7c64 92bd 01e1 593c ec26 a33d 11bf cebd
000002c0: c31f 3cbd 3556 9e3d 751c 5f3d 785b 8bbd
000002d0: 67c1 843d 5d9d 78bb 7df6 e7bc 88e0 073d
000002e0: 81ec 3e3d d910 293d 2c17 08bc 3a17 a4bc
000002f0: f8dc 343d f9b9 a33c 3f42 4b3d aa8d 40bd
00000300: df04 e9bd aff6 3e3e 5895 f5bc 5d5f 173e
00000310: 85b3 a03d 850d 833d cb2f 65bd d7f1 f5bc
00000320: 59aa 27bd b398 66bd 03cb 94bd 21b5 b93d
00000330: 8d1b 0dbd accc 42bd 17c0 c0bd 5d38 ccbd
00000340: 6e2c 6dbd ee51 ac3d 8b01 be3c 5cc8 b8bc
00000350: 6f36 aebd 7e69 1a3c 7127 2bbd adef 93bd
00000360: 4be4 a1bc 9869 7f3d 1925 04be 8315 11bd
00000370: f07d 7cbc 8e84 cc3d 9e43 4dbc 25ed a4bd
00000380: c48c 2d3e 9cb1 d83c 5d6d 48bd 0c01 0f3e
00000390: 7f19 543c b9a8 5bbd 49ab 833d e035 bfbe
000003a0: 2d74 c33d e1c4 43bd 5db8 583d 9004 cdbc
000003b0: 347f a63d eb9a f9bd 84d5 683c d72e 9bbd
000003c0: 3db2 f8bd f4b1 5cbe 64a8 33bc e017 4b3d
000003d0: 4c8d e5bd 232d bf3d d355 d83b 7ccc 803d
000003e0: 9a79 ddbc 9f09 06be 8395 7c3e 78f3 afbd
000003f0: c48e b0bd 521e 0dbd 1759 07be d404 5cbc
-0.11589237 -0.024905862 -0.0029368845 -0.022701506 0.034515243 -0.023472825 0.054646783 0.004170319
-0.04162708 0.017721822 0.007710131 -0.024407137 0.03613115 -0.08418746 0.13472965 -0.025653636
0.12897092 -0.15127008 -0.12961464 -0.11814816 -0.039389335 -0.013804018 -0.05113509 0.11863839
-0.039367437 0.112543926 -0.060487833 -0.11560788 -0.11570335 -0.129793 -0.08307723 -0.08561769
-0.08043826 0.13387983 0.0011397937 0.02336177 -0.10387672 0.066583544 -0.110608585 -0.032307077
-0.047726247 -0.08241335 -0.053006828 -0.041504405 0.04775889 -0.057657707 -0.06626385 0.08208463
0.08257504 -0.05925489 -0.01670258 -0.09687859 -0.025271261 -0.110666186 -0.1276383 -0.16209972
-0.117225856 0.014827576 -0.08101797 -0.0049618217 -0.019569365 -0.10289295 -0.08914098 0.048589498
-0.0109570185 -0.105718315 -0.012320566 -0.16133581 -0.081283584 0.00048765607 0.12827802 0.08872139
-0.07894844 0.082280934 0.06444882 -0.0896533 0.06785147 0.14119774 -0.050468393 -0.06644602
-0.0005445205 -0.0037253802 0.011748664 -0.07622463 -0.06348694 -0.12248937 0.07914621 -0.100365534
-0.043962043 0.11383551 0.08624585 0.09589398 -0.123091474 -0.0039472403 0.15134473 0.04974848
-0.04807648 0.038077917 -0.12740347 -0.032314412 -0.08688753 -0.13028465 0.029942727 -0.094548285
-0.12744829 -0.024424784 0.029355658 0.002486885 -0.052311864 -0.119453855 0.050462797 0.025376473
-0.068757206 -0.037857793 0.09262039 -0.09648985 -0.07101206 0.06293388 0.07242038 0.046944372
0.097370654 -0.042080756 0.061970256 -0.052350234 -0.049942844 -0.12792912 -0.16011846 0.08729584
-0.08723388 0.031463373 -0.13596621 0.23628671 0.08881516 -0.011136791 0.053455457 0.09219141
0.038726922 -0.09106967 0.049960524 0.05838511 0.06615773 0.021502202 0.063674144 0.12095223
-0.013901015 -0.03865638 -0.09003533 -0.11978229 -0.09192499 0.10429615 -0.08478852 0.1258925
-0.038938235 0.0886984 0.054789424 -0.13431585 -0.05123047 -0.15145157 0.044420127 -0.0437761
0.09537043 0.07496528 0.008368787 -0.08124246 -0.0076572984 -0.13864218 0.06289629 -0.11357956
0.07233795 -0.09005174 -0.042128045 0.09639037 -0.07148072 0.013298274 0.07966408 -0.10095037
-0.045928728 0.077312864 0.054470498 -0.06804556 0.06482201 -0.0037935593 -0.028315777 0.033173114
0.046612266 0.041275833 -0.008306306 -0.020030607 0.044156045 0.01998614 0.049623724 -0.0470101
-0.11377882 0.1864879 -0.02997844 0.14782472 0.07846741 0.06399063 -0.055953782 -0.030022545
-0.04093394 -0.05629797 -0.07265284 0.09067751 -0.034450103 -0.04755847 -0.09411638 -0.09971688
-0.0579037 0.08414064 0.023194095 -0.022556476 -0.08506476 0.009424565 -0.04178566 -0.07223449
-0.019762179 0.06235656 -0.12904777 -0.035420906 -0.015410885 0.0998622 -0.012528328 -0.08053044
0.16948229 0.026451878 -0.048932422 0.13965243 0.012945532 -0.053627703 0.064291544 -0.3734579
0.09543643 -0.04779518 0.052910198 -0.02502659 0.08129731 -0.121877514 0.014211062 -0.07577293
-0.12143371 -0.21552259 -0.01096544 0.049583316 -0.11208591 0.09334781 0.006602028 0.06289002
-0.027035523 -0.13089608 0.24666409 -0.0859136 -0.086209804 -0.034452744 -0.13217579 -0.0134288855

net.layer_2.bias f4 [50]
00000000: 5766 7c3d 3036 2c3e bfd2 17bd 8118 35bd
00000010: 1c41 803d 8c54 0f3e 79e9 eebd 314d febc
00000020: 30c4 35be 334c 7dbd 3c68 2e3e 7c8a a83d
00000030: 6877 023e 3cd8 f93d e6dd 0f3c 9386 bf3d
00000040: 3dc3 5cbc 793d 33be 3ed8 bd3d c15e 8f3d
00000050: 24a3 f63c 61a0 d13d ddf3 17be fa42 953d
00000060: fda9 d3bd 799c 0bbe a9af 853d 2a9c 723d
00000070: 8e8b 8b3d 421d 85bd 18b6 35be d8f8 433d
00000080: 3046 543c ac60 173d 6dce bfbd bf88 df3b
00000090: 6d35 193d d2d3 fa3d 3709 2abd a755 18be
000000a0: 20bc d33d 7682 163e 7836 98bc ea86 9f3b
000000b0: a2e7 e0bd 06cb dd3d 16d4 843d aa8e 8abd
000000c0: 402b afbc 10ce e63d
0.061621036 0.16817546 -0.037066218 -0.044212822 0.06262419 0.13997096 -0.11665625 -0.031042667
-0.17750621 -0.061840247 0.1703195 0.08229539 0.12740862 0.121994466 0.008780932 0.0935184
-0.013474283 -0.17503919 0.092697605 0.07000495 0.030107088 0.10235668 -0.1483912 0.072881654
-0.10335157 -0.13633908 0.06527645 0.05923096 0.06813727 -0.06499721 -0.17745245 0.047844738
0.012956187 0.036957428 -0.093655445 0.0068217213 0.037404466 0.12247433 -0.041512694 -0.14876424
0.10338616 0.14698204 -0.01858066 0.004868378 -0.109816805 0.10829739 0.06485765 -0.06765492
-0.021382928 0.11269772

net.output.weight f4 [1, 50]
00000000: 8253 313c 5e53 9b3d 1572 3e3c 7eed 133d
00000010: 95d3 b5bd 7e8b 293d 6272 04be 73f9 09bd
00000020: 7597 bfbd c485 7ebd bf7f 083e 0400 0f3d
00000030: 639f 0c3e 9ff0 163e d02b ed3d 803e 113e
00000040: 6a0b c9bd 5969 06be 30a8 083b 2552 c7bc
00000050: 281d 153e 07c7 463d 71f8 8dbd c232 b43b
00000060: 5cb6 193e 73cc 03bb 1290 da3d 8e4c 9a3b
00000070: 4e5e b03d 9995 783d 3dda 93be 8807 3abd
00000080: 5e7f 57bd 7f14 09bb f7bd cd3d a6a1 87bb
00000090: 245d d7bd d9e5 143e d076 78bd ab09 89bc
000000a0: f45c af3d 53c6 9b3d 2a09 1f3d dd0f 1abe
000000b0: 8688 c13d a225 80be 718c 8fbc 053a 1a3b
000000c0: c46f 503b f101 023e
0.0108231325 0.075842604 0.011623879 0.036115162 -0.08878247 0.041392796 -0.12934259 -0.03368516
-0.0935506 -0.062139288 0.13329981 0.034912124 0.13732676 0.14740227 0.11580622 0.14183998
-0.0981663 -0.13126124 0.00208522 -0.024331162 0.14561903 0.04852965 -0.06932152 0.005499215
0.15010971 -0.0020110875 0.106720105 0.004708833 0.08611737 0.060689542 -0.2887744 -0.04541734
-0.0526117 -0.0020916758 0.100459985 -0.004139143 -0.10515812 0.14540805 -0.060660183 -0.016728243
0.08562651 0.07606187 0.0388271 -0.15045114 0.09449868 -0.25028712 -0.017523022 0.0023533117
0.0031804899 0.12696053
