burgers/trained_models/wpinn_burgers_inviscid_1_finale.pth (torch, 24864 bytes, 7 tensors)

net.layer_0.weight f4 [50, 2]
-0.047269095 0.45509267 -0.7070922 -0.6139191 -0.51808274 0.2976907 0.08116634 0.6412627
0.10250587 0.41288975 -0.32599372 -0.2547836 -0.9775291 -0.61843896 -0.38949743 -0.06825999
0.29438376 0.6640857 -0.5051619 -0.42910075 0.4189919 0.9364389 -0.34356785 0.6888966
-0.17629248 0.15792513 0.92004204 -0.7946301 -0.426819 -0.4176967 -0.08093248 0.71587604
-0.24933998 -0.46729177 -0.41475192 -0.9787418 -0.51997256 1.1018627 -0.054752946 0.7340087
-0.09199035 -0.5602881 0.2229647 -1.3928796 -1.1950767 -0.4327213 0.047442414 0.6302687
-0.8668882 0.099452265 0.8733889 1.2762729 0.9761332 0.5034226 0.73231184 -0.63209563
0.39414322 -0.8276855 -0.7836359 -0.43807805 0.20102863 0.4854039 -0.72508436 0.36279246
0.71410257 -0.4077372 -0.14166468 0.49009448 -0.09143361 0.9556461 -3.2720618 -0.1961857
-0.06407275 4.775187 0.703899 1.0435841 0.17937732 -3.2639709 -0.0071532945 -0.56411695
-0.7987423 0.9070359 0.52829474 -0.8623134 0.047080755 -0.4301987 0.3333756 -1.7094603
0.40163794 -0.607675 0.36813644 0.50463367 1.0750544 0.28979495 -0.80772775 -0.46221322
0.5869613 0.19013418 -0.98924965 -0.5559981
00000000: 3d9d 41bd e801 e93e ff03 35bf cd29 1dbf
00000010: 12a1 04bf ea6a 983e 8a3a a63d cb29 243f
00000020: 99ee d13d 4966 d33e a6e8 a6be ff72 82be
00000030: 593f 7abf 0452 1ebf 356c c7be e5cb 8bbd
00000040: 78b9 963e 8501 2a3f 4a52 01bf 18b3 dbbe
00000050: 1b86 d63e 76ba 6f3f 20e8 afbe 875b 303f
00000060: 0486 34be 20b7 213e e087 6b3f e16c 4bbf
00000070: 0588 dabe 58dc d5be eebf a5bd a743 373f
00000080: fb52 7fbe de40 efbe 5d5a d4be d38e 7abf
00000090: ec1c 05bf d609 8d3f a044 60bd ffe7 3b3f
000000a0: 7065 bcbd 0a6f 0fbf dc50 643e e149 b2bf
000000b0: 46f8 98bf a58d ddbe fa52 423d 4a59 213f
000000c0: 63ec 5dbf a1ad cb3d 6a96 5f3f e95c a33f
000000d0: dee3 793f 4ee0 003f ca78 3b3f 05d1 21bf
000000e0: 24cd c93e 32e3 53bf 5d9c 48bf c44b e0be
000000f0: 73da 4d3e dc86 f83e 219f 39bf efbf b93e
00000100: 6dcf 363f eec2 d0be 8c10 11be aaed fa3e
00000110: 8b41 bbbd 39a5 743f 7669 51c0 e7e4 48be
00000120: 9338 83bd 55ce 9840 ba32 343f 2a94 853f
00000130: b0ae 373e e6e4 50c0 2f66 eabb f869 10bf
00000140: 607a 4cbf 8133 683f 533e 073f 92c0 5cbf
00000150: c0d7 403d 0143 dcbe 35b0 aa3e 98cf dabf
00000160: 7da3 cd3e 9790 1bbf 617c bc3e ac2f 013f
00000170: 629b 893f 0160 943e 3fc7 4ebf 36a7 ecbe
00000180: 1943 163f 89b2 423e 773f 7dbf e455 0ebf

net.layer_0.bias f4 [50]
0.6933886 0.5628001 -0.19484471 -0.20725043 -0.7472415 0.02727289 -0.5733116 -0.6636391
-0.13753293 0.10904077 -0.42670476 0.4917948 -0.43706846 0.5613732 0.46281832 -0.61414576
-0.12975393 0.07599126 0.11867584 0.19651255 0.36049166 -0.057876863 -0.32556823 0.46780306
-0.6525429 -0.61397576 -0.37595493 -0.36287606 -0.35556054 -0.56761444 -0.13636966 0.15357353
-0.6164086 0.023143353 0.5443183 0.23567955 0.047897942 -0.2886713 -0.088960156 0.5076175
0.75698173 0.40271485 0.74636495 -0.25453347 -0.65708846 -0.37546453 0.45016655 0.040403567
-0.31074372 -0.6317578
00000000: ea81 313f ab13 103f 5f85 47be 7539 54be
00000010: 384b 3fbf 656b df3c 8dc4 12bf 41e4 29bf
00000020: 6fd5 0cbe c450 df3d 0c79 dabe 87cc fb3e
00000030: 70c7 dfbe 27b6 0f3f 86f6 ec3e a838 1dbf
00000040: 37de 04be 4ea1 9b3d 520c f33d 963a 493e
00000050: 5d92 b83e 4a10 6dbd e1b0 a6be e283 ef3e
00000060: 0d0d 27bf 842d 1dbf 2a7d c0be e4ca b9be
00000070: 080c b6be 2e4f 11bf 7da4 0bbe 6142 1d3e
00000080: f4cc 1dbf 2197 bd3c 7258 0b3f fb55 713e
00000090: a230 443d bacc 93be be30 b6bd 38f3 013f
000000a0: 8ec9 413f a430 ce3e c611 3f3f 3652 82be
000000b0: f336 28bf e33c c0be 3b7c e63e 367e 253d
000000c0: cd19 9fbe e1ba 21bf

net.layer_1.weight f4 [50, 50]
-0.09275771 -0.1850153 0.013605129 0.120703585 0.10541892 -0.20090118 0.099000454 -0.105810374
0.021781811 -0.11022006 0.0056836004 0.049466167 -0.105642 -0.10815944 -0.075522386 0.03211924
-0.108310275 0.089036204 -0.12849961 0.045462333 0.059730176 -0.035016492 0.11805842 0.07659048
-0.123294264 0.11511521 0.020667996 -0.17191128 0.03858667 -0.11246672 0.09635374 0.1079479
0.06593908 0.15659818 0.06364431 0.051609147 -0.043474227 -0.03580526 -0.115021706 0.026213355
0.24197781 0.13813546 -0.12269263 -0.06728302 -0.18149105 -0.011890268 -0.080243945 0.04300718
-0.04306504 -0.0003247165 -0.0049267006 0.0422495 0.026149433 0.04885012 -0.014068277 0.07224022
-0.09398335 0.17694613 0.17745332 -0.04906759 0.12579201 0.037402634 0.08585726 -0.19830896
-0.032844245 0.15578651 -0.18051088 -0.2413109 0.2937901 -0.006788924 -0.13605453 -0.043609023
0.012666558 0.06558714 -0.06985602 0.20042601 -0.03438811 -0.12875985 -0.14744502 -0.03028228
0.10665226 0.23277241 0.0045407726 0.3148628 0.18329103 -0.15552856 0.21271212 0.038471222
-0.25875965 -0.07118333 0.05699683 -0.078821145 -0.121303506 -0.1145057 0.06182642 -0.06391312
0.099303596 -0.22256972 0.022385688 -0.05831938 -0.06115296 0.17648551 -0.22368908 -0.2531474
-0.25540245 0.017988227 -0.18150356 -0.011477791 -0.20219146 -0.023545174 -0.28130913 0.03556998
-0.048350938 0.5028329 0.2706806 -0.47890273 0.021396609 0.13300101 0.004840062 -0.049204413
0.23613434 0.051166758 -0.1739896 0.015154694 -0.20520745 -0.2836998 0.048216913 -0.025678918
0.05606332 -0.00037289292 -0.1534418 -0.24913812 -0.09462997 -0.10722385 0.00933432 -0.05500447
-0.099520974 -0.04985795 0.055930413 0.3812122 -0.103565894 0.43048623 0.22902589 0.06087315
-0.015327259 -0.2875784 0.17499432 -0.079563044 -0.06767719 -0.09553143 0.08840407 0.05770413
-0.26935822 -0.0264222 -0.11682635 -0.2253112 -0.19872978 -0.11197515 0.07721717 -0.11143003
-0.1635717 0.05526703 -0.10942236 0.12739366 0.119702525 -0.070853636 -0.18118559 -0.07864102
0.10392376 0.08512303 0.13301353 -0.040527597 -0.33581394 0.14471897 -0.06651628 0.09111438
0.110029146 0.016810212 0.008785912 -0.2731239 -0.13041922 -0.29104352 0.08612331 0.012443542
0.03024218 -0.2345453 0.2120508 0.18899906 0.05816534 0.24441613 0.017063275 0.04822179
0.27525496 -0.01014742 -0.18276747 0.06437685 0.26959792 -0.06866393 -0.113789074 -0.17536786
0.13680845 0.19212991 0.21072744 0.26373756 -0.0058324374 0.19649538 -0.09933309 0.042822234
0.048014104 0.16723464 0.029472943 0.36401245 -0.1021225 0.032381114 0.15969639 0.22090577
-0.031987254 -0.29365838 0.66940904 0.50414735 -0.20809215 -0.646769 -0.08165386 0.16204095
-0.15612876 -0.05765572 -0.14898989 -0.7212811 -0.7607527 0.06094273 0.21672499 0.7908501
-0.33146507 0.8852065 0.39943445 0.35101318 0.8042675 0.03677857 -0.75684214 -0.010596315
0.56396943 -0.20187601 -0.06515592 -0.87560356 -0.47695455 0.08705803 0.10115165 0.19817345
-0.28994194 0.044370886 0.025864698 -0.20173582 0.39469352 0.34087765 0.22047126 -0.04007252
00000000: c1f7 bdbd a774 3dbe 0ce8 5e3c 7133 f73d
00000010: e0e5 d73d 0ab9 4dbe c0c0 ca3d 1cb3 d8bd
00000020: c56f b23c 0ebb e1bd 7f3d ba3b 099d 4a3d
00000030: d55a d8bd b282 ddbd 7bab 9abd 778f 033d
00000040: c7d1 ddbd 9d58 b63d 6795 03be b636 3a3d
00000050: a1a7 743d 746d 0fbd 9dc8 f13d 78db 9c3d
00000060: b481 fcbd 86c1 eb3d ee4f a93c 8309 30be
00000070: 0e0d 1e3d f454 e6bd 1c55 c53d ca13 dd3d
00000080: 120b 873d 465b 203e f357 823d 1d64 533d
00000090: 0812 32bd 89a8 12bd 8090 ebbd 64bd d63c
000000a0: 08c9 773e 6273 0d3e 4646 fbbd aecb 89bd
000000b0: cad8 39be 66cf 42bc f056 a4bd 4c28 303d
000000c0: f864 30bd b63e aab9 2970 a1bb d00d 2d3d
000000d0: 5637 d63c 1017 483d a17e 66bc aef2 933d
000000e0: 587a c0bd 5e31 353e 53b6 353e 19fb 48bd
000000f0: 9fcf 003e 8133 193d eed5 af3d 8111 4bbe
00000100: b087 06bd 8086 1f3e d8d7 38be 341a 77be
00000110: a86b 963e 9f75 debb e151 0bbe 609f 32bd
00000120: 6587 4f3c 8d52 863d ac10 8fbd 7a3c 4d3e
00000130: 8cda 0cbd 9fd9 03be d4fb 16be 8b12 f8bc
00000140: 806c da3d e45b 6e3e c3ca 943b b235 a13e
00000150: a5b0 3b3e e142 1fbe 35d1 593e 0094 1d3d
00000160: 257c 84be 91c8 91bd 8275 693d fb6c a1bd
00000170: f96d f8bd f781 eabd b33d 7d3d e2e4 82bd
00000180: af5f cb3d 51e9 63be 3162 b73c 4de0 6ebd
00000190: 877b 7abd 9eb8 343e c00e 65be 899c 81be
000001a0: 1cc4 82be 0c5c 933c 12dc 39be 580d 3cbc
000001b0: 470b 4fbe cfe1 c0bc c007 90be d4b1 113d
000001c0: a20b 46bd a8b9 003f a696 8a3e bd32 f5be
000001d0: f147 af3c 6b31 083e 6299 9e3b 918a 49bd
000001e0: 33cd 713e 3c94 513d 542a 32be 654b 783c
000001f0: e721 52be 1a41 91be 197f 453d 985c d2bc
00000200: a7a2 653d d780 c3b9 d91f 1dbe 101e 7fbe
00000210: 5ccd c1bd 2e98 dbbd faee 183c 5e4c 61bd
00000220: a7d1 cbbd da37 4cbd 4a17 653d 3f2e c33e
00000230: 5b1a d4bd b168 dc3e c385 6a3e 2056 793d
00000240: 2f1f 7bbc 7a3d 93be b631 333e f3f1 a2bd
00000250: 579a 8abd fba5 c3bd 310d b53d 2a5b 6c3d
00000260: 52e9 89be 5f73 d8bc a742 efbd fbb7 66be
00000270: d27f 4bbe 3a53 e5bd 0924 9e3d 6d35 e4bd
00000280: 577f 27be ae5f 623d d518 e0bd 7c73 023e
00000290: 9926 f53d b61b 91bd b788 39be 8b0e a1bd
000002a0: fbd5 d43d fc54 ae3d b334 083e 4400 26bd
000002b0: ceef abbe 3631 143e b039 88bd 2d9a ba3d
000002c0: f656 e13d 92b5 893c c9f2 0f3c e5d6 8bbe
000002d0: 9e8c 05be a803 95be 6b61 b03d ffdf 4b3c
000002e0: 73be f73c a52c 70be d823 593e f888 413e
000002f0: c83e 6e3d 3948 7a3e 48c8 8b3c 3684 453d
00000300: 38ee 8c3e 5d41 26bc 6527 3bbe 03d8 833d
00000310: bd08 8a3e ad9f 8cbd 3f0a e9bd a293 33be
00000320: 8417 0c3e b4bd 443e efc8 573e 9c08 873e
00000330: 081e bfbb 1636 493e 266f cbbd 5e66 2f3d
00000340: 70aa 443d 8f3f 2b3e 3e71 f13c d75f ba3e
00000350: 9a25 d1bd 0fa2 043d 7387 233e 1f35 623e
00000360: 1105 03bd 645a 96be 645e 2b3f cd0f 013f
00000370: 1c16 55be a792 25bf 243a a7bd 10ee 253e
00000380: 38e0 1fbe 6728 6cbd ce90 18be e1a5 38bf
00000390: b0c0 42bf 169f 793d 28ed 5d3e 2775 4a3f
000003a0: cab5 a9be e59c 623f ac82 cc3e 00b8 b33e
000003b0: 7ae4 4d3f 20a5 163d 68c0 41bf 2b9c 2dbc
000003c0: 4d60 103f 96b8 4ebe 7870 85bd 8e27 60bf
000003d0: 6333 f4be 7b4b b23d 9928 cf3d fbed 4a3e
000003e0: 4573 94be 3fbe 353d 34e2 d33c d693 4ebe
000003f0: 4515 ca3e 8487 ae3e 38c3 613e 1523 24bd

net.layer_1.bias f4 [50]
0.059455846 0.031533483 0.19054623 0.012550774 0.13455626 -0.09548957 0.14804919 -0.01738305
0.0502164 0.12476441 -0.07714117 0.049857188 0.15467118 0.13592763 0.006341205 0.07315679
0.042613328 -0.023226084 0.030344963 0.15454872 -0.14061277 0.010245706 0.044150133 0.012285099
-0.08540558 0.047822166 0.2073279 -0.014268952 -0.028850136 0.11674381 -0.13475163 -0.24305134
-0.02926562 0.1366656 -0.12062391 0.025540141 -0.11392595 -0.01760497 0.01600963 -0.0989938
0.07057525 -0.022776851 -0.07281935 0.0635485 0.08789506 0.07719784 0.124447405 -0.06416493
0.0347604 0.10934518
00000000: f987 733d 4129 013d 8d1e 433e c3a1 4d3c
00000010: 1ec9 093e 0990 c3bd 359a 173e e666 8ebc
00000020: b6af 4d3d 7c84 ff3d 31fc 9dbd 0d37 4c3d
00000030: 1f62 1e3e 9d30 0b3e e2c9 cf3b 3ad3 953d
00000040: 508b 2e3d a144 bebc 0096 f83c 0542 1e3e
00000050: cbfc 0fbe 9bdd 273c c5d6 343d 7147 493c
00000060: 1fe9 aebd 2de1 433d c44d 543e 53c8 69bc
00000070: 1f57 ecbc 6117 ef3d 55fc 09be 73e2 78be
00000080: 74be efbc 11f2 0b3e ab09 f7bd 8f39 d13c
00000090: 0252 e9bd 4c38 90bc a126 833c 43bd cabd
000000a0: c289 903d 8596 babc 5022 95bd b725 823d
000000b0: 5302 b43d e719 9e3d 48de fe3d e768 83bd
000000c0: ec60 0e3d 5ef0 df3d

net.layer_2.weight f4 [50, 50]
-0.0010953877 0.058529746 0.030407477 -0.17825435 -0.11311194 -0.013445104 -0.13437526 0.12472417
0.13473867 0.08621991 -0.079740375 -0.07396038 -0.21822189 -0.066082254 -0.1517414 -0.10656488
-0.12936635 -0.116118446 -0.13377146 -0.022363285 -0.18293634 0.12747358 -0.020787025 0.11531535
0.018475149 -0.049351834 0.0012912801 -0.11289792 -0.07569899 0.06381076 -0.02245932 -0.12380904
0.15393916 -0.0048932447 -0.14335464 -0.0827809 -0.15916 -0.13815415 0.19955286 0.0676644
0.014766016 -0.0956667 -0.045547634 -0.21018484 0.10213976 -0.15075205 -0.034679763 0.014289395
0.10741886 0.0445065 -0.08471659 -0.039427213 0.0035941931 0.02806637 -0.18726842 0.07277039
-0.10453301 0.08103435 -0.03379167 0.06991175 0.09145019 -0.07070515 0.0018117216 -0.15650703
0.00019153688 -0.030538686 0.13440952 0.2415554 -0.05935554 0.08140465 -0.073825404 0.121161275
-0.080019385 0.1294078 -0.05887284 0.14974254 0.1854211 0.02734625 0.039050393 -0.068387575
-0.16204737 0.035573125 0.02083095 0.08618868 -0.12813279 0.03240252 -0.03516034 0.13706815
-0.0201747 0.006909503 -0.0041413917 0.003527404 -0.1711757 -0.16821241 -0.10555487 0.037396103
-0.047774173 0.20162638 0.115572944 -0.115732245 -0.14645639 -0.07804491 0.030876674 -0.011430005
-0.038309295 0.032681543 -0.014567261 -0.06864926 0.041117527 0.05635075 0.004361823 0.064998545
-0.121478826 0.04901748 -0.013784425 -0.0007527352 -0.12832206 -0.059863772 -0.06686753 0.066326335
-0.10214012 0.09656625 -0.0007101057 0.08084931 0.14717466 -0.033083692 -0.002971293 -0.048836656
0.009141946 -0.18078506 -0.041431874 -0.04244802 0.101558656 0.1461851 0.029734042 0.063580334
-0.018530129 0.038000926 0.04394389 -0.0050611454 0.008574453 -0.11612304 -0.14070019 -0.02248901
-0.035480604 -0.15769102 -0.1194025 0.18001546 -0.001743672 -0.10663491 -0.14053649 0.13625555
-0.18299778 -0.13262597 0.069422215 0.106570415 -0.08305371 0.036276553 0.13122942 0.07952329
0.005222608 0.15714197 -0.18260305 -0.14344189 -0.03729418 0.024529442 0.016514484 -0.1254008
-0.16310583 0.061507825 -0.311592 -0.11177184 -0.18912832 -0.0005690766 0.0019198287 -0.25973222
0.11499798 -0.07409849 0.13393709 -0.20550698 -0.042798303 0.021436125 0.101188436 -0.026827399
0.0068084425 0.17314155 -0.12532482 0.06929434 0.2821475 -0.26158464 0.07003476 0.12714282
-0.038707092 -0.13224503 0.06640081 -0.0687983 -0.021326859 -0.019238938 0.16907053 -0.015272387
0.19297881 -0.004125661 0.052162375 0.09083673 0.051400322 0.026097612 0.118712306 -0.089066766
-0.015829714 -0.053643186 0.01694235 -0.15097013 0.12681693 -0.035698384 0.045685705 0.082895055
-0.11768515 0.11505805 -0.043471914 -0.09759212 0.14372645 -0.076568715 0.08020152 -0.06875571
-0.03202726 -0.11756512 -0.13913715 0.18745434 0.09995017 0.07533612 0.0065457444 -0.1019087
0.045044668 -0.060474254 0.007949856 -0.14887293 0.14390753 0.0687124 0.050305363 0.02172261
-0.0778959 0.08209583 0.021806771 0.09275855 -0.071615785 0.0025432536 0.082269296 -0.023660284
-0.07059463 0.02774202 -0.1274147 -0.002514833 0.09314503 -0.13708194 0.086465046 0.07610679
00000000: 1d93 8fba e3bc 6f3d 1a19 f93c 4f88 36be
00000010: 3ca7 e7bd da48 5cbc ab99 09be 636f ff3d
00000020: eff8 093e 1094 b03d ec4e a3bd 8a78 97bd
00000030: 8f75 5fbe 2256 87bd 1962 1bbe b03e dabd
00000040: 9d78 04be 82cf edbd 63fb 08be 3533 b7bc
00000050: aa53 3bbe 6f88 023e 8d49 aabc 742a ec3d
00000060: 3259 973c 2625 4abd 2c40 a93a 0637 e7bd
00000070: 1208 9bbd 37af 823d 9cfc b7bc 988f fdbd
00000080: 3aa2 1d3e 8357 a0bb 8fcb 12be 0889 a9bd
00000090: d7fa 22be 4878 0dbe 9657 4c3e a293 8a3d
000000a0: 29ed 713c e7ec c3bd 2890 3abd b23a 57be
000000b0: a72e d13d bf5e 1abe 5e0c 0ebd 111e 6a3c
000000c0: 6bfe db3d 734c 363d e47f adbd 6e7e 21bd
000000d0: 8e8c 6b3b 72eb e53c 4bc3 3fbe a408 953d
000000e0: 6715 d6bd 56f5 a53d 2269 0abd e42d 8f3d
000000f0: 3d4a bb3d ddcd 90bd 4a77 ed3a 6143 20be
00000100: 4ad7 4839 442c fabc a6a2 093e 4c5a 773e
00000110: cb1e 73bd 7bb7 a63d c631 97bd 6723 f83d
00000120: 34e1 a3bd 7a83 043e a624 71bd 1c56 193e
00000130: 07df 3d3e 3e05 e03c 4ef3 1f3d c90e 8cbd
00000140: bfef 25be 20b5 113d aba5 aa3c b183 b03d
00000150: 3e35 03be 81b8 043d 4a04 10bd 985b 0c3e
00000160: 6a45 a5bc 1d69 e23b 83b4 87bb 052c 673b
00000170: af48 2fbe e03f 2cbe 272d d8bd a82c 193d
00000180: daae 43bd 2577 4e3e 82b1 ec3d 0705 edbd
00000190: aaf8 15be 03d6 9fbd 14f1 fc3c ea44 3bbc
000001a0: 35ea 1cbd 15dd 053d 85ab 6ebc fc97 8cbd
000001b0: da6a 283d 0bd0 663d a0ed 8e3b f51d 853d
000001c0: e4c9 f8bd 8ec6 483d 12d8 61bc 3453 45ba
000001d0: dc66 03be b733 75bd d8f1 88bd 1ad6 873d
000001e0: d72e d1bd 87c4 c53d 6326 3aba 5394 a53d
000001f0: f4b4 163e c482 07bd 06ba 42bb f208 48bd
00000200: 1ac8 153c b81f 39be 78b4 29bd fadd 2dbd
00000210: fcfd cf3d 8cb1 153e ce94 f33c 6836 823d
00000220: 7fcc 97bc dca6 1b3d 82fe 333d f7d7 a5bb
00000230: dd7b 0c3c ebd1 edbd b613 10be df3a b8bc
00000240: 1c54 11bd c179 21be 4c89 f4bd f955 383e
00000250: ec8b e4ba 6763 dabd cce8 0fbe 9386 0b3e
00000260: c563 3bbe 1acf 07be 3c2d 8e3d 9741 da3d
00000270: 1018 aabd b996 143d 0161 063e 1bdd a23d
00000280: 6922 ab3b d3e9 203e 4bfc 3abe 6ee2 12be
00000290: c8c1 18bd f8f1 c83c 6249 873c 1169 00be
000002a0: 3705 27be a1ef 7b3d fd88 9fbe a2e8 e4bd
000002b0: dbaa 41be 162e 15ba c3a2 fb3a 9ffb 84be
000002c0: 1084 eb3d f3c0 97bd ce26 093e 6c70 52be
000002d0: 464d 2fbd d09a af3c e23b cf3d 22c5 dbbc
000002e0: 5b19 df3b 054c 313e 2655 00be 31ea 8d3d
000002f0: a375 903e 6cee 85be 626e 8f3d ba31 023e
00000300: 548b 1ebd 3e6b 07be 26fd 873d 20e6 8cbd
00000310: aab5 aebc fa9a 9dbc d320 2d3e 0939 7abc
00000320: 3d9c 453e 8e30 87bb 37a8 553d 9c08 ba3d
00000330: 2589 523d a9ca d53c 701f f33d a368 b6bd
00000340: 51ad 81bc f5b8 5bbd afca 8a3c ea97 1abe
00000350: 4cdc 013e 7838 12bd ef20 3b3d e2c4 a93d
00000360: e904 f1bd 8ea3 eb3d 9b0f 32bd 61de c7bd
00000370: 072d 133e 0fd0 9cbd b240 a43d cbcf 8cbd
00000380: 042f 03bd fbc5 f0bd f879 0ebe 08f4 3f3e
00000390: adb2 cc3d d349 9a3d af7d d63b 82b5 d0bd
000003a0: c280 383d dab3 77bd 1d40 023c 2572 18be
000003b0: 7f5c 133e 16b9 8c3d ff0c 4e3d 9df3 b13c
000003c0: e387 9fbd dc21 a83d 1da4 b23c 32f8 bd3d
000003d0: 4cab 92bd b7ac 263b ce7c a83d 36d3 c1bc
000003e0: eb93 90bd 3c43 e33c 0079 02be e5cf 24bb
000003f0: d2c2 be3d 355f 0cbe 9614 b13d e0dd 9b3d

net.layer_2.bias f4 [50]
-0.059414055 0.1456673 0.12755054 -0.015289958 0.074669324 0.055998594 0.14389831 0.054269914
0.03767686 -0.027936634 0.03325889 -0.036035515 -0.08136918 0.076792546 0.08953766 -0.05928874
-0.20216566 0.08705746 -0.12809749 0.090188175 -0.17143686 0.13212018 0.12261305 -0.2074429
-0.16510694 -0.058542848 -0.00537685 -0.07488784 -0.09128238 -0.06325648 0.029979317 -0.10805617
0.054355893 -0.10112383 -0.027574765 0.19610344 -0.01679449 0.13510528 0.05260819 -0.050684784
0.06982898 -0.13240205 0.023898583 0.076893196 0.12277858 -0.043237094 -0.09638716 -0.08046489
-0.120784305 0.02410082
00000000: 275c 73bd cf29 153e 9c9c 023e bb82 7abc
00000010: 3bec 983d c85e 653d 145a 133e 214a 5e3d
00000020: 0d53 1a3d 5edb e4bc 793a 083d fa99 13bd
00000030: e2a4 a6bd 6945 9d3d 855f b73d c0d8 72bd
00000040: 8404 4fbe 2e4b b23d fd2b 03be 94b4 b83d
00000050: 258d 2fbe 834a 073e 8d1c fb3d e96b 54be
00000060: cb11 29be a0ca 6fbd 4930 b0bb cc5e 99bd
00000070: 42f2 babd 9d8c 81bd 2f97 f53c 8e4c ddbd
00000080: 49a4 5e3d 031a cfbd 79e4 e1bc 57cf 483e
00000090: 9994 89bc 0a59 0a3e af7b 573d d99a 4fbd
000000a0: 7f02 8f3d 6794 07be f6c6 c33c 2e7a 9d3d
000000b0: 5673 fb3d 6119 31bd a266 c5bd c7ca a4bd
000000c0: c35d f7bd 156f c53c

net.output.weight f4 [1, 50]
-0.15323836 -0.034380738 -0.08466626 -0.103338346 -0.00087852124 -0.10997428 -0.18261509 -0.15865144
-0.10015997 0.104009025 0.0003522344 -0.11911929 0.16024037 0.10685697 0.00035794955 0.027198307
0.20915753 0.00024722423 -0.07747794 0.52728635 0.11179866 -0.049875982 -0.06838386 0.4922237
0.038974863 -0.13295951 0.14593242 0.1936519 0.23422104 0.09842618 -0.01385528 0.2262639
-0.22206306 -0.3382749 0.026968008 -0.10945501 0.18257782 -0.05348512 0.0314497 -0.15193532
0.15786797 -0.1565886 0.04325591 0.15893832 0.22850305 0.25744343 -0.17275116 -0.04685756
-0.085653 0.00068078307
00000000: 84ea 1cbe d1d2 0cbd 8165 adbd 0ea3 d3bd
00000010: 904c 66ba 323a e1bd 73ff 3abe 8675 22be
00000020: ac20 cdbd af02 d53d 1aac b839 d0f4 f3bd
00000030: 0d16 243e d4d7 da3d 2dab bb39 fcce de3c
00000040: 642d 563e e09d 8139 c1ac 9ebd 3dfc 063f
00000050: b2f6 e43d c24a 4cbd d60c 8cbd bf04 fc3e
00000060: 1ba4 1f3d 8a26 08be 4f6f 153e af4c 463e
00000070: a4d7 6f3e aa93 c93d 4201 63bc b9b1 673e
00000080: 8064 63be 5e32 adbe 03ec dc3c f329 e0bd
00000090: aef5 3a3e 3713 5bbd 67d1 003d ef94 1bbe
000000a0: 24a8 213e c358 20be 1c2d 313d bac0 223e
000000b0: b4fc 693e a0cf 833e aee5 30be b6ed 3fbd
000000c0: d76a afbd 9476 323a
