burgers/trained_models/Conv_Anal/u_2_0/Conv_Anal_Final_wpinn_burgers_1_1_15000.pth (torch, 2576 bytes, 3 tensors)

net.layer_0.weight f4 [5, 2]
-2.3272588 5.4767528 2.4503355 -4.30443 0.31532896 -0.9953742 -3.9430192 8.197497
1.0588112 -2.4569578
00000000: cff1 14c0 8f41 af40 4cd2 1c40 e4bd 89c0
00000010: cc72 a13e d8d0 7ebf 6d5a 7cc0 f328 0341
00000020: 2087 873f cc3e 1dc0

net.layer_0.bias f4 [5]
-0.24593033 -0.18752545 0.2494631 -0.07354768 0.09272567
00000000: 29d5 7bbe ac06 40be 4173 7f3e 2ba0 96bd
00000010: f5e6 bd3d

net.output.weight f4 [1, 5]
1.0414691 -0.54996866 -0.17308736 -1.6091301 0.6204441
00000000: dc4e 853f bfca 0cbf d03d 31be faf7 cdbf
00000010: 6dd5 1e3f
