burgers/trained_models/Conv_Anal/u_2_0/Conv_Anal_Final_wpinn_burgers_1_1_250.pth (torch, 2560 bytes, 3 tensors)

net.layer_0.weight f4 [5, 2]
0.617058 0.20446242 0.43999794 -0.78800106 0.30287826 0.08760363 -0.30000773 0.4606993
-0.37002116 -0.8029022
00000000: 83f7 1d3f 995e 513e 6947 e13e 70ba 49bf
00000010: dc12 9b3e 8869 b33d 9d9a 99be c7e0 eb3e
00000020: 6a73 bdbe 008b 4dbf

net.layer_0.bias f4 [5]
-0.4018782 -0.48598278 -0.12161561 0.051420674 0.35740435
00000000: fbc2 cdbe bcd2 f8be 9b11 f9bd 7c9e 523d
00000010: b4fd b63e

net.output.weight f4 [1, 5]
0.23106577 0.10590984 0.13937551 -0.35612214 0.46282262
00000000: 819c 6c3e 42e7 d83d 74b8 0e3e a455 b6be
00000010: 16f7 ec3e
