burgers/trained_models/Conv_Anal/u_2_0/Conv_Anal_Final_wpinn_burgers_1_1_4000.pth (torch, 2568 bytes, 3 tensors)

net.layer_0.weight f4 [5, 2]
0	0x3f0fe110	0.56202793
1	0x3f6777bd	0.9041708
2	0x3f13b7db	0.57702416
3	0xbf284df7	-0.65743965
4	0x3e4ae057	0.19812141
5	0x3e9ec962	0.31013018
6	0xbf23ee9e	-0.64035976
7	0x3fe0ea9e	1.75716
8	0x3e93d3d8	0.2887256
9	0xbf804462	-1.0020869

net.layer_0.bias f4 [5]
0	0xbeb92df4	-0.36167872
1	0xbf0ea2bb	-0.55717057
2	0xbcfbf478	-0.03075622
3	0x3cea2f82	0.028587107
4	0x3e901661	0.28142074

net.output.weight f4 [1, 5]
0	0x3e836bc0	0.25668144
1	0xbec638a2	-0.38715082
2	0x3e015c49	0.1263286
3	0xbf372fb9	-0.71557194
4	0x3ec5dac9	0.38643482
