burgers/trained_models/Conv_Anal/u_2_0/Conv_Anal_Final_wpinn_burgers_1_1_10000.pth (torch, 2576 bytes, 3 tensors)

net.layer_0.weight f4 [5, 2]
000000 9e cf 73 bf 84 7c 49 40 f1 ad 8f 3f b2 28 00 c0
       -0.95238674 3.1482248 1.1224958 -2.0024838
000010 82 f7 05 3f 83 7b 31 bf 02 60 0f c0 af 8a 9e 40
       0.5233079 -0.6932909 -2.2402349 4.954429
000020 28 8b b0 3d 13 2a 77 bf
       0.08620292 -0.96548575

net.layer_0.bias f4 [5]
000000 15 c2 b1 be f7 18 0f be 41 de 08 3e 3b 5e bc bd
       -0.34718385 -0.13974367 0.13366033 -0.091976605
000010 f6 0f 90 3e
       0.28137177

net.output.weight f4 [1, 5]
000000 4a 07 36 3f e4 71 0c bf df 91 7c 3e 3f ad ab bf
       0.7110487 -0.54861283 0.2466502 -1.3412246
000010 07 48 b5 3e
       0.35406515
