burgers/trained_models/Conv_Anal/u_1_3/Conv_Anal_Final_wpinn_burgers_0_4_2000.pth (torch, 24948 bytes, 7 tensors)

net.layer_0.weight f4 [50, 2]
0	0xbf06c816	-0.52649057
1	0x3efd4c0e	0.49472088
2	0x3f067199	0.52517086
3	0xbeafac61	-0.34311202
4	0x3ec60be9	0.38680962
5	0xbefc98f7	-0.49335453
6	0xbee64e91	-0.44981816
7	0x3edb237b	0.42800507
8	0x3f2de3b6	0.67925584
9	0xbf439107	-0.7639317
10	0xbf182b38	-0.59440947
11	0xbeaecfc0	-0.34142876
12	0xbf38b946	-0.72157705
13	0x3f292239	0.66067845
14	0x3d642e1c	0.055708036
15	0x3e5892e1	0.2114978
16	0x3f163765	0.58678275
17	0xbeabaddc	-0.33531082
18	0xbf00317a	-0.50075495
19	0x3defacb7	0.117028646
20	0xbeb57402	-0.3544007
21	0x3f130a02	0.57437146
22	0xbf801a76	-1.0008075
23	0x3d99abb3	0.07503452
24	0xbe8c0b2b	-0.2735227
25	0x3f63a5fe	0.8892516
26	0xbf46cf56	-0.7766012
27	0x3e4a52fb	0.19758217
28	0x3d83eb17	0.06441324
29	0x3f04c3a8	0.5186105
30	0xbf0ee7b0	-0.5582228
31	0xbe99f1f4	-0.30067408
32	0x3de5ccf6	0.11220734
33	0xbed0e175	-0.4079701
34	0xbf3e9c61	-0.74457365
35	0xbeb4de89	-0.3532603
36	0xbe45b267	-0.19306336
37	0x3f1de1d4	0.6167271
38	0x3d3ac83f	0.045601126
39	0xbf30a3d2	-0.6899997
40	0x3d012b40	0.031535387
41	0xbe699b78	-0.22813213
42	0xbe9411db	-0.28919873
43	0x3f0a79ed	0.54092294
44	0xbd201e1a	-0.039091207
45	0xbd8ded49	-0.06930024
46	0xbde35716	-0.11100595
47	0xbf04d193	-0.51882285
48	0xbe026be8	-0.12736475
49	0xbf3b33dd	-0.7312601
50	0x3f3a51b7	0.72780937
51	0xbf1a0178	-0.6015849
52	0xbec43cde	-0.38327688
53	0xbf533be0	-0.82513237
54	0x3f57cbf0	0.8429556
55	0x3eca90e3	0.39563665
56	0xbe827fed	-0.25488225
57	0xbdffc596	-0.124888584
58	0x3e3a1f74	0.18176061
59	0x3e8015b1	0.2501655
60	0x3f2bb4e6	0.67072904
61	0xbf5768c3	-0.8414423
62	0x3f1e3747	0.61803097
63	0xbe952a86	-0.29134005
64	0xbf335d17	-0.7006392
65	0xbeab8042	-0.3349629
66	0x3dd6bc9a	0.10485192
67	0xbeb49136	-0.35267037
68	0x3eb21a64	0.3478576
69	0xbf2f458d	-0.684655
70	0xbf07354b	-0.52815694
71	0xbe34e37b	-0.17664902
72	0x3f2c1231	0.6721526
73	0xbf3564d6	-0.7085699
74	0xbf1f61e6	-0.62258756
75	0x3eabd035	0.33557287
76	0xbeee3afc	-0.46529377
77	0xbd8ad9e8	-0.067798436
78	0x3db63af5	0.08897964
79	0xbf4ae0cd	-0.7924927
80	0x3f1a8b99	0.6036926
81	0x3d6ae403	0.057346355
82	0xbf6b4504	-0.91902184
83	0x3d87f6d2	0.06638874
84	0x3d8f7686	0.070050284
85	0x3e9269cc	0.28596342
86	0x3e9c6acd	0.30550233
87	0xbf476cb0	-0.7790022
88	0xbee09122	-0.43860728
89	0xbe8cb312	-0.2748037
90	0xbf024b3f	-0.50896066
91	0x3f00ab2a	0.50261176
92	0xbec4d3e2	-0.38442904
93	0x3f05cf13	0.52269095
94	0x3ec30ccd	0.38095704
95	0x3efe0a52	0.4961725
96	0xbdae0473	-0.08496942
97	0xbf577bbf	-0.84173197
98	0x3d925163	0.071444295
99	0xbf182894	-0.5943692

net.layer_0.bias f4 [50]
0	0x3f1aa852	0.60413086
1	0x3f197c53	0.5995533
2	0xbf15d007	-0.5852055
3	0x3c22af24	0.009929452
4	0xbc95f6a1	-0.018306078
5	0x3ebeac5a	0.3724087
6	0x3f360ef6	0.7111658
7	0x3e143373	0.14472751
8	0x3cfb633a	0.030686963
9	0xbf0621c6	-0.52395284
10	0x3f288b35	0.65837413
11	0xbe05cfb3	-0.13067512
12	0x3d174ab6	0.036936484
13	0x3f001647	0.5003399
14	0x3e0a1f75	0.13488562
15	0xbf0acc3d	-0.5421789
16	0xbefad531	-0.48990777
17	0x3f119351	0.5686541
18	0xbf0b3af2	-0.5438682
19	0xbf419c5d	-0.75629216
20	0xbe3d5a92	-0.18491581
21	0x3cefb536	0.029261213
22	0x3e980574	0.2969166
23	0x3f1d4374	0.6143105
24	0x3f022cec	0.50849795
25	0xbe816b1f	-0.2527704
26	0xbdc32014	-0.09527603
27	0xbde514c8	-0.11185604
28	0x3bf39eda	0.007434708
29	0xbe57b4e5	-0.210651
30	0xbe10758a	-0.14107338
31	0xbf2504a0	-0.6446018
32	0x3984e8dc	0.00025350496
33	0x3e706d35	0.23479159
34	0xbf337c55	-0.7011159
35	0x3f1df232	0.61697686
36	0xbf1beeb7	-0.60911125
37	0xbf1665e0	-0.587492
38	0xbef5f9a9	-0.48042038
39	0xbea66823	-0.32501325
40	0xbe0b7700	-0.13619614
41	0xbe983031	-0.29724267
42	0xbcd9ecba	-0.026602138
43	0xbf2b8558	-0.6700034
44	0x3ce72fb0	0.028220981
45	0xbd2a0527	-0.04150882
46	0xbeb4b51e	-0.3529443
47	0xbeddc4e3	-0.43314275
48	0x3e7df4d0	0.2480042
49	0xbed33b3e	-0.41256136

net.layer_1.weight f4 [50, 50]
0	0x3c99d83a	0.018779863
1	0xbe0e5d37	-0.13902746
2	0xbdd31d3d	-0.10308311
3	0x3d7ddc75	0.061977822
4	0x3da80a8f	0.08205139
5	0x3ce599e8	0.02802749
6	0x3c905546	0.017618787
7	0x3e090992	0.13382557
8	0xbdf730e9	-0.12069876
9	0x3dfa18ab	0.12211736
10	0xbd6eb3fc	-0.058277115
11	0x3e1ae13a	0.1512498
12	0xbe37a7a2	-0.1793504
13	0x3e14f4c1	0.14546491
14	0xbcd9b0ee	-0.026573624
15	0x3d236882	0.03989459
16	0x3c12880b	0.008943568
17	0x3ce857f0	0.028362244
18	0x3e1ba3c0	0.15199184
19	0xbd99f09d	-0.075165965
20	0xbe15661b	-0.14589731
21	0x3cda6741	0.026660563
22	0xbdfb37ab	-0.12266477
23	0xbceec204	-0.029145248
24	0xbe2f29cc	-0.17105788
25	0x3df06769	0.11738474
26	0xbb99a21a	-0.0046885135
27	0x3dadd2d7	0.0848748
28	0xbdb1146b	-0.086464725
29	0x3c3486ad	0.011018437
30	0x3cf8dc8b	0.0303786
31	0x3dded10d	0.10879717
32	0xbcf400cd	-0.029785538
33	0xbe2ed5a4	-0.17073685
34	0xbb991d1c	-0.0046726596
35	0x3a918326	0.0011101707
36	0xbe0ca111	-0.13733317
37	0xbdc6f82a	-0.09715302
38	0x3b441718	0.0029920992
39	0x3d6b4447	0.05743816
40	0x3c78dcc8	0.015189357
41	0xbdedcf84	-0.11611846
42	0xbb85018a	-0.0040590214
43	0xba9aa954	-0.0011799731
44	0xbe164209	-0.14673628
45	0x3e2daf27	0.16961347
46	0x3cd60637	0.02612601
47	0x3e49c93c	0.19705671
48	0xbc9ad535	-0.018900493
49	0xbd1252a2	-0.035723336
50	0xbc917e2f	-0.017760364
51	0xbcd4e8f7	-0.025989993
52	0xbc963a63	-0.018338388
53	0x3dddbc63	0.108269475
54	0x3bc27866	0.005934763
55	0xbb6d411d	-0.003620214
56	0x3e0cd942	0.13754752
57	0xbca5fe36	-0.020262819
58	0xbe452a30	-0.19254375
59	0xbd429404	-0.04750444
60	0x3d8847b3	0.066543005
61	0xbe14c53c	-0.14528364
62	0xbd901e41	-0.070370205
63	0xbd4f8513	-0.05066402
64	0xbd6eb011	-0.05827338
65	0x3da24fbf	0.079253666
66	0xbdad83a6	-0.084723756
67	0xbbf8c967	-0.0075923684
68	0x3d4d94d4	0.05019076
69	0xbe24c56a	-0.16090932
70	0xbd0fbab5	-0.035090167
71	0x3dac7f30	0.084226966
72	0x3dcb5f7d	0.09930322
73	0xbd5748eb	-0.052559774
74	0xbd9d5de5	-0.076839246
75	0x3dc22eff	0.0948162
76	0x3e036285	0.12830551
77	0x3c8b0e92	0.016974721
78	0xbe885822	-0.2662974
79	0x3d2a547e	0.041584484
80	0x3e04b9db	0.12961523
81	0x3d60b4ae	0.05485981
82	0x3c9d5f66	0.019210529
83	0xbe325d01	-0.1741829
84	0xbda0b097	-0.07846182
85	0xbbbfac20	-0.0058493763
86	0xbd69d739	-0.057090018
87	0x3d649df1	0.055814687
88	0xbdb07275	-0.08615581
89	0x3d554c0e	0.052074485
90	0x3e15df90	0.14636064
91	0xbd2046e4	-0.039130107
92	0x3d6f52c9	0.05842856
93	0x3c37e235	0.011223366
94	0xbd85c11f	-0.065309756
95	0x3db37f8d	0.08764563
96	0xbccd6a17	-0.025075002
97	0x3c28a702	0.010293724
98	0x3cb20c2c	0.02173432
99	0x3d045662	0.032308944
100	0xbd449d94	-0.04800184
101	0xbced9709	-0.029002683
102	0x3db9d528	0.090738595
103	0x3d82b521	0.06382204
104	0xbdc079fa	-0.09398265
105	0xbddf0b56	-0.10890834
106	0x3d424074	0.04742475
107	0xbdabb829	-0.08384735
108	0xbd90055f	-0.070322745
109	0xbddd5ae2	-0.1080835
110	0x3d018190	0.0316177
111	0xbd50c56b	-0.050969522
112	0x3de31b15	0.1108915
113	0xbd9c2248	-0.07623726
114	0x3e14e1ee	0.1453931
115	0xbdcd9468	-0.10038072
116	0x3ce2f15b	0.027702978
117	0xbda68cab	-0.08132299
118	0x3a8cddb4	0.0010747225
119	0x3da97c99	0.08275718
120	0xbe0d4be6	-0.13798484
121	0x3d752e95	0.059858877
122	0xbdda2e71	-0.10653389
123	0xbde15524	-0.110025674
124	0xbdd40389	-0.10352237
125	0x3c7a1bea	0.015265444
126	0x3da0fbca	0.07860525
127	0xbd29a0fa	-0.041413285
128	0x3d8a116b	0.067416035
129	0x3d45e52c	0.04831426
130	0x3e143194	0.14472038
131	0xbd20af6b	-0.03922979
132	0x3dbf3c11	0.09337629
133	0xbc58cb33	-0.01323204
134	0xbd9889c8	-0.07448155
135	0x3d9934fa	0.074808076
136	0xbce84c31	-0.028356643
137	0x3e0cc24f	0.13745998
138	0x3d8dc164	0.06921652
139	0x3dc43d07	0.095819525
140	0xbbdc72d4	-0.0067275558
141	0x3de311af	0.11087357
142	0x3d84a6c5	0.06477121
143	0xbce1a9e5	-0.027546832
144	0xbd08ecf6	-0.03342911
145	0x3e1ab127	0.15106641
146	0x3e171995	0.14755853
147	0xbcd69405	-0.026193628
148	0xbde73b6c	-0.11290631
149	0x3d9bae12	0.07601561
150	0x3e247691	0.16060854
151	0x3d016565	0.031590838
152	0xbdbe9ebc	-0.0930762
153	0x3d2eedc1	0.04270721
154	0x3dea1b19	0.1143095
155	0xbd911129	-0.07083351
156	0x3dd3fff5	0.10351554
157	0x3e08f604	0.13375098
158	0xbe1de99d	-0.15421148
159	0xbe03aa74	-0.12857991
160	0x3c5e3d04	0.013564352
161	0xbbf8da82	-0.0075944075
162	0xbd89129d	-0.06693003
163	0xbd495793	-0.049155783
164	0x3d4d8b21	0.05018151
165	0x3da391c8	0.0798679
166	0x3dd397e2	0.10331704
167	0x3b3cac87	0.0028789358
168	0x3d672b0e	0.056437545
169	0xbb069ea6	-0.002054134
170	0xbd93b54f	-0.07212316
171	0xbd94d151	-0.072664864
172	0xbdee4a89	-0.1163531
173	0xbe34014c	-0.1757862
174	0xbdb750c8	-0.08950955
175	0xbd8eed7a	-0.06978889
176	0x3e352ab3	0.1769207
177	0x3e07fa67	0.13279115
178	0xbdecaea0	-0.115567446
179	0x3db36abe	0.08760594
180	0x3df87e9c	0.12133524
181	0xbde518eb	-0.11186393
182	0x3d98b9df	0.07457327
183	0xbdffb84c	-0.12486324
184	0xbde17111	-0.11007894
185	0xbd7be246	-0.061495088
186	0x3dcd8b8b	0.10036381
187	0xbd8f0403	-0.06983187
188	0x3d9095b8	0.070598066
189	0xbc203d30	-0.009780213
190	0x3df03ed1	0.11730731
191	0xbe01595f	-0.12631749
192	0x3dae9e74	0.08526316
193	0xbd77fa18	-0.060541242
194	0xbe3d148f	-0.18464874
195	0xbc2e30aa	-0.01063172
196	0x3e0b1615	0.13582642
197	0xbcc02f32	-0.023460004
198	0x3e0b4b85	0.13603027
199	0xbe0fa2d2	-0.14026955
200	0xbd8d4194	-0.06897274
201	0x3e5172ef	0.20454
202	0xbd2a1796	-0.0415264
203	0xbe201e86	-0.15636644
204	0x3dcc8a8f	0.099873655
205	0x3ef49bff	0.47775266
206	0xbda8e73a	-0.08247228
207	0xbd82046f	-0.06348502
208	0xbd788786	-0.06067612
209	0xbdd9bdc8	-0.10631901
210	0x3dcb59c2	0.09929229
211	0x3dd5ed53	0.104456566
212	0xbe283a29	-0.16428436
213	0x3e22ecfc	0.15910715
214	0xbe18e84b	-0.14932363
215	0xbdc9f58d	-0.09861288
216	0xbcc048e5	-0.023472259
217	0x3ed8ebc8	0.42367387
218	0xbeb9396e	-0.36176628
219	0xbda9059a	-0.082530215
220	0x3e002826	0.12515315
221	0xbe378244	-0.17920786
222	0x3c0621de	0.0081867855
223	0x3eb2e110	0.34937334
224	0x3f06af1c	0.52610946
225	0x3da24a18	0.079242885
226	0xbc44ef07	-0.012019879
227	0xbeb8d5f2	-0.36100727
228	0x3e27be7c	0.16381258
229	0xbf1cb335	-0.6121095
230	0x3c7b83ef	0.01535128
231	0xbd4ebad4	-0.050471142
232	0x3ea56366	0.32302397
233	0x3f021c7c	0.50824714
234	0xbc893ad6	-0.016751688
235	0x3e4514e2	0.19246247
236	0xbdb44571	-0.088023074
237	0xbe525684	-0.20540816
238	0xbd09872f	-0.033576187
239	0xbc8089d1	-0.015690716
240	0xbda4b487	-0.08042245
241	0xbb36178a	-0.0027785026
242	0xbeab060d	-0.33403054
243	0xbdf67a25	-0.12035016
244	0x3eb8ac21	0.36068824
245	0xbe74a617	-0.23891483
246	0xbe4aa9a9	-0.19791283
247	0xbf1cdf6e	-0.61278427
248	0x3ed20d3f	0.4102573
249	0xbd8d0267	-0.06885224
250	0x3d9d643f	0.07685136
251	0x3c3296f8	0.010900252
252	0xbdead08e	-0.1146556
253	0x3ddcf2a9	0.10788471
254	0x3e115888	0.14193928
255	0xbe1a16f0	-0.15047812

net.layer_1.bias f4 [50]
0	0xbd866615	-0.06562439
1	0x3e0b268f	0.13588928
2	0xbd5a18ae	-0.053246193
3	0x3d57400a	0.052551307
4	0x3d8099f0	0.06279361
5	0xbd9e1ab7	-0.07719939
6	0x3dee8185	0.11645798
7	0xbe05723c	-0.13031858
8	0xbd440e9c	-0.047865495
9	0xbe0c69bd	-0.13712211
10	0x3dd34c4d	0.103172876
11	0x3b54c1bc	0.0032464107
12	0x3d92e14e	0.0717188
13	0x3d60a684	0.0548463
14	0xbc5d6d0b	-0.013514767
15	0xbd71428c	-0.058901355
16	0xbe089643	-0.1333857
17	0xbd84ad2a	-0.06478341
18	0xbdec3452	-0.11533417
19	0x3d6c7762	0.05773104
20	0xbdfab885	-0.122422256
21	0x3e0216ec	0.12704057
22	0xbda007ab	-0.078139625
23	0x3d07e6e9	0.033179197
24	0x3df804ea	0.12110312
25	0xbe0131ad	-0.12616606
26	0x3d26a7fc	0.040687546
27	0xbdfd91db	-0.12381335
28	0xbd2ff002	-0.0429535
29	0x3cca5f9f	0.024703799
30	0xbe01df43	-0.12682824
31	0x3c75d3ee	0.015004141
32	0xbdb6a7a7	-0.08918696
33	0xbd53935f	-0.051654216
34	0xbdc31b95	-0.09526745
35	0xbbd99333	-0.006639862
36	0xbd99e26e	-0.07513891
37	0x3e00ae78	0.12566555
38	0xbe0079b4	-0.12546426
39	0xbdef0c24	-0.116722375
40	0x3e1e1371	0.15437104
41	0x3d989ddd	0.07451985
42	0x3de0b852	0.10972656
43	0x3dea8a68	0.1145218
44	0x3d587abe	0.05285143
45	0xbb41d29f	-0.0029575003
46	0xbd69301e	-0.056930654
47	0x3da3b632	0.079937354
48	0xbd72ca1e	-0.059274785
49	0x3d5fa93d	0.054604758

net.layer_2.weight f4 [50, 50]
0	0xbd849443	-0.06473591
1	0x3e10df64	0.14147717
2	0x3d925c95	0.07146565
3	0x3e4315e2	0.19051316
4	0xbc8091d0	-0.015694529
5	0x3dbec452	0.09314789
6	0x3d3ddea6	0.046354912
7	0xbd89b509	-0.06723983
8	0xbdbc258a	-0.091868475
9	0x3de48d44	0.11159757
10	0x3cb69d28	0.022291735
11	0x3e1b6b93	0.15177755
12	0xbd6b636f	-0.057467874
13	0xbd2c9d19	-0.042142007
14	0xbe1395de	-0.14412639
15	0xbdaf462d	-0.08558307
16	0x3d0f8520	0.035039067
17	0xbd5cdf89	-0.053924117
18	0x3d8d7778	0.069075525
19	0xbd2c03b7	-0.04199573
20	0xbdd00b69	-0.10158426
21	0x3c63234e	0.013863398
22	0x3dd1ad9f	0.10238194
23	0x377ab763	1.4943859e-05
24	0x3cf80a11	0.030278238
25	0x3e036056	0.12829718
26	0xbe4b5c87	-0.19859515
27	0x3d8972fb	0.06711384
28	0x3be7eba8	0.007077653
29	0xbe161642	-0.14656928
30	0xbe433163	-0.19061808
31	0xbe18b070	-0.14911056
32	0xbd5c5a1f	-0.053796884
33	0x3d63ccb5	0.055615146
34	0x3e25c935	0.16190036
35	0x3dd599d8	0.10429734
36	0xbd9dacfd	-0.076990105
37	0xbc057642	-0.008145871
38	0x3da232b9	0.07919831
39	0xbda455fe	-0.08024214
40	0x3ca2b3aa	0.019861061
41	0x3c0db861	0.008649916
42	0x3dc12c47	0.09432273
43	0xbdcc8159	-0.099856086
44	0x3dac1a7a	0.084034875
45	0x3d9f7a3d	0.07786987
46	0xbd382769	-0.04495946
47	0x3d963fc4	0.07336381
48	0x3c6bee05	0.01440001
49	0x3c426f79	0.011867397
50	0x3e396ad0	0.18107152
51	0x3db4bf38	0.088255346
52	0x3d7b50af	0.061356243
53	0x3e277b04	0.1635552
54	0xbe3425fb	-0.17592613
55	0x3e161903	0.14657979
56	0xbdcee11a	-0.101015285
57	0xbdc5e051	-0.096619256
58	0xbe0ac67b	-0.13552277
59	0x3e19145a	0.1494917
60	0xbc9da81b	-0.019245198
61	0x3de465ed	0.11152253
62	0x3dfaeead	0.12252555
63	0x3db6bd4c	0.08922824
64	0xbe6435d7	-0.22286163
65	0x3c4b5805	0.012411122
66	0x3cd663f5	0.02617071
67	0x3b02d771	0.001996484
68	0x3def0985	0.116717376
69	0xbd9ae833	-0.0756382
70	0x3e01d02a	0.12677065
71	0x3dc6f45e	0.09714578
72	0x3dde1cd2	0.10845341
73	0xbdf0ab71	-0.1175145
74	0xbe5e394e	-0.21701548
75	0xbd3a2f60	-0.045455337
76	0xbe8f154c	-0.27945936
77	0x3da200d7	0.079103164
78	0x3da4b55f	0.08042406
79	0xbc3dc099	-0.011581563
80	0xbd9af61b	-0.07566472
81	0xbda1a246	-0.07892279
82	0x3e50577f	0.20345877
83	0x3db8f98f	0.090319745
84	0x3e36222f	0.17786478
85	0xbe2af2f1	-0.16694237
86	0x3e148ded	0.14507265
87	0xbe799d44	-0.24376398
88	0x3c6d2327	0.014473713
89	0x3cdb3408	0.026758209
90	0xbd53a29c	-0.05166875
91	0xbe443e0d	-0.19164295
92	0x3d0c1e12	0.034208365
93	0x3e24373b	0.16036694
94	0x3cecb535	0.028895
95	0x3dc4d6db	0.09611293
96	0x3d249269	0.04017869
97	0xbdd2a475	-0.10285274
98	0xbddf66d3	-0.10908284
99	0xbe3cc459	-0.18434276
100	0xbe21c2aa	-0.15796915
101	0x3bad6e1a	0.005292666
102	0xbe0d5661	-0.13802482
103	0x3d4fe88e	0.05075889
104	0x3e305587	0.17220126
105	0xbc18f389	-0.009335407
106	0xbd7739ec	-0.060357973
107	0x3d98919c	0.07449648
108	0xbdc3f67e	-0.09568499
109	0x3d8b6c31	0.06807745
110	0xbd8a7e83	-0.067624114
111	0x3c31eefd	0.010860202
112	0xbcabbcc9	-0.020964043
113	0xbb237beb	-0.0024945687
114	0x3dc8aef5	0.097989954
115	0x3e1f8f4e	0.1558201
116	0xbaa91d45	-0.00129024
117	0xbd908c71	-0.07058037
118	0xbe437436	-0.190873
119	0x3d09ccdc	0.033642635
120	0x3d1c1386	0.038104557
121	0xbda6be1b	-0.081417285
122	0xbd96a229	-0.07355148
123	0x3e2d7b4d	0.16941567
124	0xbc795f3d	-0.0152204605
125	0xbd11e96f	-0.03562301
126	0x3d5c8bd6	0.053844295
127	0xbdc531c7	-0.09628635
128	0x3ded4922	0.115862146
129	0x3ce4e045	0.027938971
130	0xbcaa6128	-0.02079828
131	0x3c0465ae	0.008080883
132	0x3d3e1c55	0.04641374
133	0x3e262c31	0.16227795
134	0xbd20d21a	-0.03926287
135	0x3c269978	0.010168426
136	0xbe1658d7	-0.14682327
137	0x3dc34966	0.09535484
138	0xbe1910de	-0.1494784
139	0xbdaf94d4	-0.085733086
140	0x38cc70b8	9.7484735e-05
141	0x3d7ecede	0.062209003
142	0xbd5e5f3c	-0.05429004
143	0x3d4a4e3c	0.049391016
144	0xbcd71530	-0.02625522
145	0xbe4789be	-0.19486138
146	0xbda09de2	-0.07842614
147	0x3d442e85	0.047895927
148	0xbc0bec3e	-0.008540211
149	0x3e0a6ef8	0.13518894
150	0x3cbc1f0e	0.022964027
151	0x3afa4fcf	0.0019097271
152	0xbdaa3c99	-0.08312339
153	0xbe4311ef	-0.1904981
154	0x3e01f69f	0.12691735
155	0xbd4271a4	-0.047471657
156	0xbe6a50fe	-0.22882459
157	0xbd44c9d2	-0.048044033
158	0x3d53e731	0.051734153
159	0x3e06cc81	0.1316395
160	0xbd9a404a	-0.075317934
161	0xbd9db9e4	-0.077014714
162	0xbd0a32b2	-0.033739753
163	0xbdecf3e5	-0.11569957
164	0x3d42bcd8	0.047543377
165	0x3e4b4f5c	0.19854492
166	0x3d6bdae1	0.057581786
167	0x3e771a4d	0.24131127
168	0xbe3542e4	-0.17701298
169	0x3e7134f6	0.23555359
170	0x3d8394d8	0.06424874
171	0xbe0eaaf7	-0.13932405
172	0x3d3fe158	0.046845764
173	0x3e89b298	0.2689407
174	0x3e50867d	0.20363803
175	0xbcb4f76f	-0.022090642
176	0x3e0d7bc6	0.13816747
177	0x3d26a002	0.04067994
178	0x3e00dd5e	0.12584445
179	0x3d279ea3	0.040922772
180	0x3e738ebb	0.23784916
181	0x3e36b5ae	0.17842743
182	0xbe12c714	-0.14333755
183	0x3e2a2d94	0.16618949
184	0xbb25c1ed	-0.002529259
185	0xbb0cc757	-0.002148112
186	0xbe2d36f5	-0.16915496
187	0xbdba72c1	-0.09103919
188	0xbe17be44	-0.14818674
189	0xbd83738c	-0.06418523
190	0x3d247f11	0.040160242
191	0x3db7a633	0.08967247
192	0xbd8e2879	-0.06941313
193	0xbd4e101c	-0.05030833
194	0xbe66307d	-0.22479434
195	0xbd853aef	-0.06505381
196	0x3a0a143b	0.0005267297
197	0x3e01c6de	0.12673518
198	0xbdebcb53	-0.115133904
199	0xbd61752e	-0.055043392
200	0xbe2eb704	-0.17062002
201	0xbd42393e	-0.04741787
202	0xbd69ed39	-0.057111
203	0x3cd21a13	0.025647199
204	0xbd7fb419	-0.062427614
205	0x3de04272	0.109501734
206	0xbe2bb219	-0.16767158
207	0x3d87d788	0.06632906
208	0x3e1aced2	0.15117958
209	0xbda97836	-0.082748815
210	0xbd95c44a	-0.0731283
211	0x3d0dad26	0.034588955
212	0xbc6bfe16	-0.0144038405
213	0xbe29450b	-0.16530244
214	0x3dc71764	0.09721258
215	0x3db70adf	0.0893762
216	0xbd400dbe	-0.046888106
217	0xbc5ea1c7	-0.013588375
218	0xbe36ceb2	-0.17852286
219	0x3c5b2e1d	0.0133776935
220	0xbd899da6	-0.06719522
221	0x3d5cb2d4	0.05388148
222	0xbd0bab94	-0.034099177
223	0x3d7fa010	0.062408507
224	0x3db80bc8	0.08986622
225	0x3dd2dba6	0.10295801
226	0x3c68ee42	0.014216961
227	0x3c9e0c8b	0.01929309
228	0x3ddedf31	0.10882414
229	0xbdcda9ba	-0.100421384
230	0xbcf27a8e	-0.029599454
231	0xbdc4a408	-0.09601599
232	0x3cc1ea5a	0.023671318
233	0x3d5876f4	0.052847818
234	0xbdd28917	-0.10280054
235	0xbdc95120	-0.098299265
236	0xbdde648b	-0.10859021
237	0x3dcabb12	0.09898962
238	0x3cfea877	0.03108619
239	0xbe0081ef	-0.12549566
240	0x3e0e5313	0.13898878
241	0xbdd8cfd4	-0.10586515
242	0xbe4b3a6d	-0.19846506
243	0xbc677701	-0.014127494
244	0x3d8765c1	0.06611205
245	0xbe5cfd54	-0.21581012
246	0xbd4d5b31	-0.050135795
247	0x3e2603ad	0.1621234
248	0xbe0ca2e2	-0.1373401
249	0x3d0ee977	0.03489062
250	0x3d2c21ba	0.04202435
251	0xbaa9baa3	-0.0012949299
252	0x3d9a02f8	0.075200975
253	0x3e03170a	0.12801757
254	0xbe12ceca	-0.14336696
255	0x3ce743a9	0.028230505

net.layer_2.bias f4 [50]
0	0x3d92951d	0.07157347
1	0x3d8348fb	0.06410404
2	0xbd896dc9	-0.06710393
3	0x3db9fe86	0.090817496
4	0xbdec5fc2	-0.11541702
5	0x3e076e88	0.13225758
6	0x3caedf04	0.021346577
7	0xbd7fd745	-0.062461156
8	0xbd13bb86	-0.03606751
9	0xbbb3ff69	-0.0054930937
10	0x3de29b06	0.110647246
11	0xbd279790	-0.040916026
12	0x3dd9ea2e	0.10640369
13	0x3e0e5172	0.13898256
14	0xbdd57bbf	-0.10423993
15	0xbc4604c5	-0.012086098
16	0xbd2c581c	-0.042076215
17	0xbc3cf427	-0.01153282
18	0x3d944275	0.07239238
19	0xbdf8c2f9	-0.12146563
20	0xbdacb7de	-0.084335074
21	0xbc98b8fc	-0.018642895
22	0xbdaca3cc	-0.08429679
23	0xbdef2748	-0.11677414
24	0x3c3acaf9	0.0114009315
25	0xbd55566f	-0.052084383
26	0x3cc38253	0.023865854
27	0x3dc067e6	0.09394817
28	0x3bad9e6c	0.0052984264
29	0x3d8729c1	0.06599761
30	0x3dacc5a8	0.084361374
31	0xbdf9cc6c	-0.121971935
32	0x3dd7227a	0.10504623
33	0xbd182c9b	-0.037151914
34	0xbde8c0a2	-0.11364867
35	0xbe0d200b	-0.13781755
36	0xbe154252	-0.1457608
37	0x3d9f1764	0.07768133
38	0xbadf4c32	-0.0017036258
39	0x3d4c3020	0.049850583
40	0xbde8785f	-0.11351084
41	0x3d65afde	0.056075923
42	0x3dc99f50	0.098448396
43	0xbdbfe73b	-0.093702756
44	0x3dee15b4	0.11625233
45	0xbd88eb29	-0.06685478
46	0xbde13cec	-0.10997948
47	0xbd956db3	-0.07296314
48	0xbddd75be	-0.10813473
49	0x3d0f5b2e	0.034999065

net.output.weight f4 [1, 50]
0	0x3e14bb02	0.14524463
1	0x3e0dc6f2	0.13845423
2	0xbe15b3c0	-0.1461935
3	0xbe1a25bb	-0.15053456
4	0xbda5a705	-0.08088497
5	0x3d929f18	0.07159251
6	0x3dd6cf82	0.10488798
7	0xbe0c9be5	-0.13731344
8	0x3df92df7	0.1216697
9	0xbdbfedae	-0.09371506
10	0xbe06217d	-0.13098712
11	0xbdc0cc9a	-0.09414025
12	0xbe161395	-0.14655907
13	0xbe4f11eb	-0.20221679
14	0x3e3648fc	0.17801279
15	0x3df9b6f8	0.12193102
16	0x3e1ae908	0.15127957
17	0xbdf69eec	-0.12042031
18	0xbe348407	-0.1762849
19	0xbd86872d	-0.065687515
20	0x3e09ea26	0.13468227
21	0xbdf23c8d	-0.118279554
22	0xbb56b9f1	-0.0032764638
23	0xbd986663	-0.07441404
24	0x3ccc265a	0.024920631
25	0x3e4c47b5	0.19949229
26	0x3e1458b9	0.1448697
27	0x3da80da6	0.08205728
28	0xbd670bcd	-0.05640774
29	0xbe2a82d1	-0.16651465
30	0x3e166a51	0.14688994
31	0xbe0374ef	-0.12837575
32	0xbdbfd70e	-0.0936719
33	0xbe8216c3	-0.2540799
34	0x3dd37bff	0.10326385
35	0x3e07ef7c	0.1327495
36	0x3d9a7211	0.07541288
37	0x3e8f5802	0.27996832
38	0x3e2ca443	0.16859536
39	0x3e70eaa8	0.23527014
40	0xbdbeaf4b	-0.09310778
41	0x3df2cc42	0.11855365
42	0x3e070bbd	0.13188072
43	0x3e33ac7b	0.17546265
44	0x3ca99b9f	0.020704089
45	0xbe7b0ed3	-0.24517374
46	0xbe1df40a	-0.15425125
47	0x3d9f73e0	0.07785773
48	0x3d6d7eac	0.05798213
49	0x3e323028	0.17401183
