burgers/trained_models/Conv_Anal/u_1_3/Conv_Anal_Final_wpinn_burgers_0_4_15000.pth (torch, 24960 bytes, 7 tensors)

net.layer_0.weight f4 [50, 2]
000000 80 43 0d bf bb 1b 16 3f 7b 0b 7f 3e 08 03 00 bf
       -0.5518112 0.58636063 0.24906723 -0.50004625
000010 8c e9 db 3e ac b4 17 bf eb 82 b0 be 1c 5e 09 3f
       0.4295162 -0.5926006 -0.34474882 0.53659225
000020 01 10 27 3f a5 02 79 bf 66 33 1d bf fb 7b fe be
       0.65258795 -0.9726966 -0.6140655 -0.49703965
000030 71 38 30 bf f1 49 47 3f 60 ef 59 3d 80 76 ea 3e
       -0.6883612 0.778472 0.0532068 0.45793533
000040 85 db 0e 3f 6a 19 cd be cf 2d cf be b1 07 51 3e
       0.5580371 -0.40058452 -0.40464637 0.2041309
000050 80 2d cd be 44 34 2e 3f b7 68 15 c0 95 8d f7 bd
       -0.40073776 0.680485 -2.3345163 -0.120875515
000060 4f 6a 34 be 8a 74 a0 3f de d5 9b bf 7c af b3 3e
       -0.17618679 1.2535565 -1.2174642 0.3509482
000070 9c ad 4f 3d 03 f1 8b 3f 4f 6c 08 bf 08 bb 0b bf
       0.050702676 1.0932926 -0.53290266 -0.5458226
000080 dd a6 28 3e f5 42 2b bf c9 21 3e bf f3 2f 10 bf
       0.16469903 -0.66899043 -0.742703 -0.56323165
000090 b4 4f cb 3d ef 11 3c 3f f9 ec 60 3e 21 75 3b bf
       0.099273115 0.73464864 0.21965398 -0.732256
0000a0 e8 27 cd 3c 6e 4a ae be 59 22 c2 3c ee e5 88 3f
       0.025043443 -0.3404116 0.023698019 1.0695169
0000b0 63 c9 22 bd 53 1d 15 be 77 7c c2 be d9 73 37 bf
       -0.03974284 -0.14561968 -0.37985584 -0.71661144
0000c0 78 a6 01 bf 05 86 6e bf 92 16 2f 3f 60 ea 32 bf
       -0.50644636 -0.9317325 0.68393815 -0.6988888
0000d0 6f 75 c2 be a7 8a 7d bf ca 07 59 3f f2 54 e4 3e
       -0.3798022 -0.9903969 0.8477751 0.44596058
0000e0 33 c6 97 be 81 06 80 be 36 cd 5a 3e 22 5f b6 3e
       -0.29643402 -0.25004962 0.21367344 0.35619456
0000f0 db 36 1d 3f 86 33 8f bf c1 be 26 3f b8 87 b4 be
       0.6141183 -1.1187599 0.6513482 -0.35259795
000100 70 7c f3 bf 1d a0 ea be 3f b4 99 bc 8f 7b f7 be
       -1.902235 -0.45825282 -0.018762706 -0.48336455
000110 91 4a e1 3e 0e 08 45 bf 25 51 34 bf d2 b6 2f bf
       0.44002202 -0.76965415 -0.70436317 -0.68638337
000120 2d 6f 25 3f e6 ac 4b bf 94 2b d9 be 19 13 d2 3e
       0.64622766 -0.795607 -0.4241606 0.41030195
000130 d2 0c df be ad f3 f5 bd 50 57 43 3e b9 63 b9 bf
       -0.4356447 -0.12009368 0.19076276 -1.4483558
000140 03 3a 2c 3f a3 cc 03 3e 05 48 4f c0 48 6f 50 be
       0.6727602 0.12871031 -3.2387707 -0.2035495
000150 64 3d fe 3d a2 db f3 3e a8 dd d1 3e 01 74 54 bf
       0.12414053 0.47628504 0.40989423 -0.8298951
000160 ff 62 f6 be 35 91 bd be b5 a1 78 be ed 32 31 3f
       -0.48122403 -0.37024847 -0.24280436 0.6921833
000170 d3 f4 8b 3e 13 3d 6b 3f 1d 3b f3 3e 13 89 2c 3f
       0.27335224 0.91890067 0.47506037 0.6739666
000180 f9 b3 9a be 6e 51 c1 bf e1 c7 89 3e a8 aa 55 bf
       -0.30215433 -1.5102975 0.26910308 -0.83463526

net.layer_0.bias f4 [50]
000000 5d bd 1d 3f 85 d5 2e 3f a8 30 17 bf 7e b0 8f 3d
       0.6161707 0.68294555 -0.5905862 0.07016085
000010 7e 51 70 bd f0 f8 d7 3e 57 d1 3c 3f 4a 46 3f 3e
       -0.058671467 0.42182112 0.7375693 0.18679157
000020 df a3 bf 39 ee 71 04 bf 86 11 2a 3f 6f ca 5b bc
       0.00036552452 -0.5173634 0.6643299 -0.013414963
000030 8d c3 4e 3d c8 07 65 3e 49 0a 54 3d 6d 66 cc be
       0.05047946 0.2236625 0.05176762 -0.39921895
000040 1f c7 00 bf e1 23 1e 3f 90 a6 12 bf 6b 7c 41 bf
       -0.50303835 0.61773497 -0.57285404 -0.7558047
000050 0f ca 40 be e7 c1 8d bc 05 7a a8 3e c3 04 20 3f
       -0.18827079 -0.017304374 0.32905594 0.62507266
000060 f9 51 16 3f 10 5a a2 be da c3 82 bd 50 7c 47 be
       0.5871883 -0.31709337 -0.06385012 -0.19481015
000070 19 ba 46 3d 21 11 6a be 1b c1 2e be 92 e6 21 bf
       0.04851732 -0.22858097 -0.17065851 -0.6324245
000080 cd 25 44 3e 3e 1c 83 3e 42 f7 36 bf 5b 4f 21 3f
       0.19155045 0.25607485 -0.71471035 0.6301171
000090 9b a6 27 bf 3e 59 25 bf 05 08 f4 be 78 1f 95 be
       -0.65488595 -0.645893 -0.47662368 -0.2912557
0000a0 4e 1c 17 be da 34 14 3e fc a6 93 bd f2 04 31 bf
       -0.14756891 0.14473286 -0.07209584 -0.6914817
0000b0 04 13 d0 3d 3c a4 d7 b9 4a 0e dd be 16 d6 f3 be
       0.10159877 -0.0004113036 -0.43174964 -0.47624272
0000c0 94 13 8b 3e 5f 41 e9 be
       0.27163374 -0.45557687

net.layer_1.weight f4 [50, 50]
000000 43 68 28 bb 86 d7 52 be b8 87 ab bd f6 9b 87 3d
       -0.002569691 -0.20590028 -0.08375496 0.06621544
000010 80 1a f7 3d 54 83 a3 bd 12 07 dd b9 63 7c 0f 3e
       0.12065601 -0.07984033 -0.00042157673 0.14012294
000020 b1 b5 01 be 1f 44 24 3e ec c2 9d bd e6 46 19 3e
       -0.12666966 0.16041611 -0.07703194 0.14968452
000030 ca 79 30 be 68 49 cd 3d ed 4b 04 bb 49 86 89 3d
       -0.17233959 0.10023767 -0.0020186857 0.06715066
000040 87 10 d6 3c ad 2a b9 bd 99 13 8d 3e e5 4d 4d bd
       0.026130928 -0.09041343 0.27554014 -0.050123114
000050 60 8c 13 be 24 61 76 3d 46 fa 3a be a8 b6 26 be
       -0.14409018 0.060151234 -0.18259534 -0.16280615
000060 46 fe 98 be 0f 29 20 3e cc 52 e7 bb f7 a3 0a 3e
       -0.29881495 0.15640663 -0.0070594307 0.1353911
000070 cf f1 14 be e0 07 e9 3d 65 db a3 3d b6 3d 0f 3e
       -0.14545368 0.11378455 0.080008306 0.13988385
000080 42 bd 82 bd 7b 93 88 be dd e5 52 3c 9f 21 e6 bd
       -0.06383754 -0.2667502 0.0128721865 -0.112368815
000090 81 dc f3 bd 14 6f 3e bd 37 b3 ea 3c 14 2f 83 3d
       -0.11907292 -0.04649265 0.02864991 0.06405464
0000a0 8f 26 9a 3d 61 98 b3 bd d2 4f 96 3d b5 69 81 3c
       0.07526886 -0.08769298 0.07339443 0.015797475
0000b0 03 73 52 be 8c ec 3f 3e a7 e5 ee 3d 98 c7 a3 3e
       -0.20551686 0.18742579 0.116648965 0.31988215
0000c0 ee 65 a3 bd de a0 b5 bc 27 97 cb bc 51 62 36 bd
       -0.07978426 -0.022171434 -0.024852348 -0.044527356
0000d0 c0 a4 58 bc 80 bd ed 3d 0b 0c ac 3c 6a 23 0d bd
       -0.013222873 0.1160841 0.021001836 -0.0344576
0000e0 25 e8 0f 3e 95 3b 3e bc 0e 83 48 be 3d 8d 05 bd
       0.140534 -0.011610885 -0.19581243 -0.0326054
0000f0 8e c5 85 3d e8 29 13 be 77 b5 9f bd f1 00 cf bd
       0.06531821 -0.14371455 -0.077982835 -0.101076014
000100 b9 15 39 bd e3 6d a7 3d 76 07 a8 bd ac 0d 1e bd
       -0.045186732 0.08175256 -0.08204548 -0.038587257
000110 23 89 90 3d e2 23 24 be 45 5a 18 bd 33 79 c6 3d
       0.07057407 -0.16029313 -0.037195463 0.09691086
000120 79 7f a2 3d b2 3c a3 bd e9 bf d0 bd 93 e4 d9 3d
       0.0793447 -0.07970561 -0.10192854 0.106393
000130 56 b1 0d 3e ef e1 38 3d 2b 10 9e be b4 55 91 3d
       0.1383718 0.045137342 -0.3087171 0.07096425
000140 2b a4 16 3e 99 4d 99 3d 46 ba db bc ec bc 49 be
       0.14711063 0.07485504 -0.02682222 -0.19700974
000150 39 5a a8 bd fb a7 1b bd 4e dc 7d bd cb 03 94 3d
       -0.082203336 -0.038001996 -0.061977677 0.07227286
000160 20 42 9d bd 20 0c 45 3d f0 7d 4a 3e 71 cb 33 bc
       -0.07678628 0.048107266 0.19774604 -0.010973797
000170 36 a4 b9 3d dc 1a 75 3b 72 09 d2 bd 41 e2 c6 3d
       0.09064524 0.0037400043 -0.10255708 0.09711123
000180 1c ff 96 bb 3b 17 1e 3d 41 7e 90 3c d3 33 f2 3c
       -0.004608048 0.038596373 0.017638328 0.029565727
000190 a4 0c 4a bd e9 12 5f bd a6 5b b5 3d 62 5d 74 3d
       -0.04932846 -0.054461394 0.08855371 0.05965937
0001a0 ca 53 4a bd 56 1f 49 be 07 e3 57 3d 74 ab 69 bd
       -0.049396314 -0.1964086 0.052706745 -0.057048276
0001b0 04 d8 20 bd e4 82 cc bd c6 52 16 3d 63 e3 ad bd
       -0.03926851 -0.09985903 0.036700033 -0.08490636
0001c0 1b c9 10 3e db 84 0c be 1b a2 47 3e e7 2c c2 bd
       0.14139216 -0.13722555 0.19495432 -0.09481221
0001d0 fb 1e b1 3c 6a cd 2d be ca c1 81 3d 6d 3f a8 3d
       0.021621218 -0.1697289 0.063357905 0.082152225
0001e0 80 46 1d be 4b 38 e6 3d da 7c 0e be 99 00 45 be
       -0.15358925 0.11241206 -0.13914815 -0.19238509
0001f0 d0 51 4d be 1d f5 44 3d e3 ae 46 3d d4 84 ae 3c
       -0.2005074 0.04808532 0.04850663 0.021303572
000200 59 7d 23 bc 9c aa 01 3e 6b 36 3d 3e 2b 7f ba bc
       -0.009978616 0.12662739 0.1847779 -0.022765717
000210 de b6 15 3d 74 3b 95 bd 42 ca a9 bd cb 11 ea bb
       0.03655135 -0.072867304 -0.08290531 -0.0071432344
000220 45 d2 0a bd 69 cd 1a 3e 94 66 92 3d 5a 4e 8b 3d
       -0.033891935 0.1511742 0.071484715 0.06802054
000230 ca 1b 8d 3d 1f 44 e0 3d e7 fd 1b 3e a2 09 1d bd
       0.06890066 0.10950493 0.15233575 -0.038339265
000240 7a 71 dd bd 73 66 26 3e 1c fa 58 3e b1 98 8a 3d
       -0.108126596 0.16250019 0.21189159 0.06767405
000250 ea fd 3d be cc 3d 81 3d 55 a3 30 3e 3d 5d 93 3c
       -0.18553892 0.06310615 0.17249806 0.017988795
000260 f5 3b d2 bd 1e c7 6c 3d c1 45 f5 3d d6 c6 a8 bd
       -0.10265342 0.05780708 0.11976195 -0.0824105
000270 48 95 00 3e 1a de 0e 3e 7a 16 2b be ff 88 ec bd
       0.12556946 0.13951913 -0.16707793 -0.115495674
000280 63 42 c8 3c cd 2f 8e 3c 1f 0e 84 bd b2 9b 39 bd
       0.024445718 0.017356778 -0.06448006 -0.0453145
000290 e1 e3 77 3d 86 a1 c3 3d 2d c3 c9 3d 0a 68 40 bc
       0.060520057 0.095522925 0.0985168 -0.011743555
0002a0 2e f0 93 3d 20 f4 b8 bb 74 de 9c bd c0 1d 76 bd
       0.07223545 -0.0056443363 -0.07659617 -0.060086966
0002b0 ef 6f 04 be 79 b2 48 be 3d 61 dd bd f5 bb a7 bd
       -0.12933324 -0.19599332 -0.10809562 -0.08190147
0002c0 d3 22 4a 3e c3 3a f5 3d 49 a2 f2 bd 6a 7f d3 3d
       0.19739847 0.119740985 -0.1184736 0.10327037
0002d0 49 eb 00 3e ec 1b e8 bd 7c a5 c5 3d 77 f7 10 be
       0.12589754 -0.11333451 0.09650704 -0.141569
0002e0 d3 99 ff bd ca 83 a2 bd b4 3f 9d 3d 64 aa 6b bd
       -0.124805115 -0.07935293 0.07678166 -0.057535544
0002f0 92 cd a9 3d 1a 80 b6 bc b5 81 dc 3d 19 7b 9b bd
       0.082911626 -0.02227788 0.10766927 -0.075918384
000300 0a fa d5 3d fd 32 9e bd 3d db 3c be 6d 7e c5 3a
       0.10448082 -0.07724569 -0.18443008 0.0015067585
000310 1f 31 1a 3e dc 7a d2 bb e6 df 05 3e 8c db 1b be
       0.150578 -0.0064233374 0.13073692 -0.15220469
000320 85 3b 7b bd b3 70 4a 3e 92 e8 70 bd f6 bf a2 bd
       -0.06133606 0.19769554 -0.058815546 -0.0794677
000330 fc 84 0e bd f8 87 0a 3f a1 98 d6 bd 0c f6 b3 bc
       -0.034794793 0.5411372 -0.104783304 -0.02196791
000340 3c 83 3e be 01 57 dd bd 7a 41 e3 3d b3 b4 aa 3e
       -0.1860475 -0.1080761 0.11096473 0.33340988
000350 e9 0d e1 bd 83 6a 83 3e 14 a2 dd bd a6 8b f9 bd
       -0.10988981 0.256672 -0.108219296 -0.12184839
000360 b7 bb 6b bd 1c 1e f2 3e 65 76 8c be 0e e1 da bd
       -0.057552066 0.47288597 -0.27434078 -0.10687457
000370 64 a1 a6 3d 1e 8a 02 be de 83 7c 3d f0 04 ca 3e
       0.081362516 -0.12748 0.061649196 0.39456892
000380 e0 25 05 3f a8 67 a3 3c 89 53 30 bd 6b d1 d8 be
       0.5201092 0.019946888 -0.043048415 -0.42347273
000390 81 16 24 3e 1d 55 32 bf 1f 41 8b bd 55 c4 83 bd
       0.1602421 -0.6966112 -0.0679953 -0.06433932
0003a0 49 41 cc 3e 3f eb fb 3e 6b 2b a3 bc 76 91 66 3e
       0.3989356 0.49202916 -0.019918164 0.22516426
0003b0 df df 97 bd 09 de 30 be 5d 20 5c bd 7d 1c 0f bd
       -0.07415747 -0.172722 -0.0537418 -0.034939278
0003c0 b8 7d 22 be c3 46 27 3e fe 0d 9c be c5 00 fa bd
       -0.1586827 0.16335587 -0.30479425 -0.12207178
0003d0 f0 c0 bc 3e f4 72 1c be 45 bd be bd 94 a4 30 bf
       0.3686595 -0.15278226 -0.09313444 -0.69001126
0003e0 b6 b5 af 3e ed fe c2 bd 83 53 93 3d 0e 93 c5 bc
       0.34318322 -0.095212795 0.07193663 -0.024117973
0003f0 aa 40 e3 bd 3a 65 d9 3d f1 51 3e 3e b7 df 67 be
       -0.11096318 0.106150106 0.18585946 -0.22643934

net.layer_1.bias f4 [50]
000000 2c 9e d3 bd 14 9d f3 3d 8f 9c 8e bd 56 9c 23 3d
       -0.10332903 0.11895195 -0.06963455 0.039944015
000010 34 45 e9 3d 04 b9 c7 bd 86 ae 1e 3e 3b cf fe bd
       0.113901526 -0.09752086 0.15496263 -0.1244187
000020 7a ec 39 bd b9 ff 43 be 90 60 9e 3d 9f d4 2d bc
       -0.045391537 -0.19140519 0.077332616 -0.010609775
000030 9d 3e 8b 3d 3f 7a 52 3e d8 a1 c0 3d ba c1 00 be
       0.06799052 0.20554446 0.09405869 -0.12573901
000040 1d d9 dd bd 06 64 d0 bd c2 86 ce bd 0d 43 19 bd
       -0.10832427 -0.10175328 -0.10084297 -0.03741746
000050 62 10 e6 bd e8 e5 f8 3d 2e d5 c2 be c6 9a ae bb
       -0.112335935 0.12153226 -0.38053268 -0.005328509
000060 a7 0b 02 3e 8c 15 02 be 8c 9f 00 3e fb cd fe bd
       0.12699758 -0.12703532 0.12560862 -0.124416314
000070 f2 02 20 bd 99 0a 4e 3d 4a 13 fb bd d6 db 93 bc
       -0.03906531 0.050303075 -0.122595385 -0.018049162
000080 b0 34 c2 bd a4 a6 a4 bd 47 18 c5 bd 9a 08 c3 bc
       -0.094827056 -0.08039597 -0.09623771 -0.023807812
000090 43 54 80 bd 1f 29 13 3e 8f d4 ef bd 2f 2f f0 bd
       -0.06266072 0.14371155 -0.11710464 -0.117277496
0000a0 42 a9 13 3e a1 f0 f9 3d fd 06 e3 3d 46 45 be 3d
       0.14420035 0.122040994 0.11085317 0.092905566
0000b0 f8 6d 96 3d f1 f6 40 bd 28 de 9b bd 70 2f af 3d
       0.073451936 -0.0471105 -0.07610732 0.0855397
0000c0 16 6c 55 bd 4e 47 71 3d
       -0.052105032 0.058905892

net.layer_2.weight f4 [50, 50]
000000 d2 ee 03 bd 38 ca 3e 3e 00 71 c3 3d 85 01 5b 3e
       -0.03221018 0.18631828 0.095430374 0.21387298
000010 78 da 0b bd 70 ab f9 3d 98 cd 9c 3d d5 cc 06 be
       -0.034143895 0.12190902 0.076564014 -0.13164075
000020 7e 75 99 bd c3 ef 16 3e c7 4a 85 3d b3 c8 8b 3d
       -0.07493113 0.147399 0.06508403 0.0682539
000030 66 2c d3 bd 3d 3f 7a bd 03 98 98 be 03 d7 df bd
       -0.10311203 -0.061095465 -0.29803476 -0.10929682
000040 aa 7b b0 bd a6 72 75 3b d3 72 63 3c 51 37 e3 bc
       -0.08617337 0.003745237 0.013882357 -0.027736338
000050 1b b3 5b be 46 bd 5d 3d 49 06 e9 3d 10 15 2c 3d
       -0.21455042 0.054135583 0.11378152 0.042012274
000060 c5 71 b4 3d ec b3 0b 3e b2 70 79 be 92 4b 16 3e
       0.08810762 0.13642853 -0.24359396 0.14677265
000070 ea 07 e3 bc 61 95 51 be ab 95 65 be 64 79 00 be
       -0.027713735 -0.2046714 -0.22420375 -0.12546307
000080 9e 1b 0b be 97 e8 1e 3d ee 05 fb 3d af 31 3b 3e
       -0.13584754 0.038796034 0.122569904 0.18280672
000090 38 f1 d6 bd ba 30 80 3c 90 e0 b3 3b 3c 42 29 be
       -0.104952276 0.015648235 0.0054894164 -0.16529173
0000a0 c9 e0 a8 3d 3b 03 a8 3d 0a e5 a9 3d 80 d3 9c bd
       0.08245999 0.08203741 0.08295639 -0.07657528
0000b0 0e c7 e3 3d f6 da 98 3d 89 94 22 bc 52 7a 8e 3d
       0.11121951 0.074636385 -0.009923109 0.069569245
0000c0 c2 51 b7 3b 48 51 93 3d aa b6 99 3e 66 6d b6 3d
       0.005594463 0.071932375 0.30022174 0.08907585
0000d0 63 0a 1d 3e be 58 37 3e dc 7c a8 be 63 b7 71 3e
       0.15335993 0.17904946 -0.3290776 0.23605113
0000e0 1b 36 77 be 35 8d cc bd ae b2 0c be 02 21 c5 3e
       -0.24141733 -0.099878706 -0.13740036 0.38501745
0000f0 f2 11 b0 bb 5b 8c 8b 3e 03 6a 4d 3e 9a 73 83 3d
       -0.005373233 0.2725552 0.20059972 0.064185336
000100 be e3 b9 be a5 67 06 3e b1 8e 09 3e 0d bb 23 3d
       -0.36306566 0.13125475 0.13433339 0.039973307
000110 ac 00 1c 3e b9 63 21 bd 93 4e 39 3e ca c6 62 3d
       0.15234631 -0.039401744 0.1809638 0.05536536
000120 b2 2a 44 3e 1a 99 96 bd eb 49 89 be 90 cd ac bd
       0.19156912 -0.073534206 -0.26814207 -0.084376454
000130 73 78 d4 be 53 9e a4 3d e8 e7 27 3e 9b 93 69 bd
       -0.41498145 0.080380104 0.16397059 -0.057025533
000140 c3 72 80 bc ed 14 26 bd 11 b3 b0 3e df 04 30 3e
       -0.015679723 -0.0405473 0.34511617 0.17189358
000150 b4 cf 4e 3e 73 9f 57 be 7b 9e 33 3e 33 30 c4 be
       0.2019642 -0.21056919 0.17540924 -0.38318023
000160 aa 4e 0b 3e 48 88 1c 3d 6c 67 24 be 6a 2c ca be
       0.13604227 0.038215905 -0.16055077 -0.3948701
000170 eb e5 6b 3d 38 b3 76 3e 50 95 22 bd 3a dd 82 3d
       0.057592314 0.24091804 -0.039693177 0.06389852
000180 26 af e7 3d 52 00 1a be f5 4a 23 be 5c 07 a3 be
       0.11312704 -0.15039185 -0.15946563 -0.31841552
000190 34 5a 14 be 25 ce 3c 3d b1 60 f8 bd cc 29 ab 3d
       -0.14487535 0.046095032 -0.121278174 0.083575815
0001a0 37 a2 1a 3e 08 3d 00 3c 1b 38 14 bd ba 25 b5 3c
       0.15100943 0.007827051 -0.03618632 0.022112716
0001b0 fa 6d bb bd 0c 9b 97 3d e5 98 10 bc eb 8b 75 3c
       -0.09151836 0.0740262 -0.008825515 0.014986972
0001c0 dc 3e 66 bb ed ee a3 bc 04 d4 c8 3d ce 8b 07 3e
       -0.0035132682 -0.02001139 0.09806064 0.13236925
0001d0 02 05 3b bd a0 c8 8e bd 44 d8 53 be 58 37 2a 3d
       -0.045659073 -0.0697186 -0.20687968 0.041556686
0001e0 0a c9 90 3c 87 76 c4 bc 6d fb 51 bd cd 34 3d 3e
       0.017673988 -0.0239823 -0.05126517 0.18477173
0001f0 3b 12 cd bc 30 c8 40 bc 12 4b 59 3d cd 09 df bd
       -0.025033107 -0.011766478 0.05305011 -0.10890541
000200 63 fd f1 3d c9 20 3a 3c 30 21 83 bd ce d3 4a 3d
       0.11815908 0.011360356 -0.064028144 0.0495184
000210 eb 30 30 3d e8 e9 12 3e a8 b0 28 bd a1 94 e2 3c
       0.0430154 0.1434704 -0.041184098 0.027658762
000220 38 7f 1d be 6f 60 b6 3d 9d cb 19 be 2b 7c 8c bd
       -0.15380561 0.08905112 -0.15019079 -0.06859621
000230 10 b5 cd b9 d5 c8 51 3d c7 83 60 bd ff 75 89 3d
       -0.0003923555 0.05121692 -0.054813173 0.06711959
000240 1e e0 c3 bb 59 97 4a be ba 00 11 bd 81 c8 13 3d
       -0.0059776446 -0.19784297 -0.035401084 0.036079887
000250 ca 52 21 bc 64 91 02 3e a4 c6 2a 3d bd 89 85 bd
       -0.009846399 0.12750775 0.041693345 -0.06520412
000260 2a b1 49 bd c0 c8 88 be 7d db ba 3d cd 2b e8 bc
       -0.049241222 -0.2671566 0.09123895 -0.028341198
000270 31 37 99 be a0 5b 19 3b 82 5b 8d 3d 77 3a 4f 3e
       -0.2992492 0.002340056 0.06902219 0.20237146
000280 36 e7 1d be 2d e1 89 3c c5 8e 0e 3c a2 05 15 be
       -0.15420231 0.016831005 0.008701031 -0.1455293
000290 2a b2 3e 3d bc 0a 8b 3e e0 cc 25 3e 63 bd 8f 3e
       0.04655663 0.27156627 0.16191435 0.28074178
0002a0 4b 2b 35 be 8c 4d 93 3e c0 2e a8 3d 84 ac 36 be
       -0.17692296 0.287701 0.08212042 -0.17839247
0002b0 38 43 62 3d 4a 49 a0 3e 5c 50 38 3e 14 b5 fb bd
       0.055239886 0.31305915 0.17999405 -0.12290397
0002c0 18 4d 46 3e 03 2f 8c 3d 0f 21 23 3e 32 36 b8 bb
       0.19365346 0.06844904 0.1593058 -0.005621695
0002d0 56 14 ab 3e c1 cb 85 3e eb 1a 68 bd fd 1a 74 3e
       0.33413953 0.26132014 -0.056666296 0.2383842
0002e0 34 95 2d bc 0e ed 3b bc 4f 91 38 be b8 2b 11 be
       -0.010594655 -0.011470092 -0.18024181 -0.14176834
0002f0 f8 00 ca bd 22 8c d2 bd 19 d8 11 bd 53 52 30 bc
       -0.09863466 -0.102806345 -0.035606477 -0.010761815
000300 95 80 6e bd 6b ec ae bc be a8 9b be c9 52 17 be
       -0.058228094 -0.021352967 -0.30402178 -0.14777674
000310 14 92 fa 3d b0 06 d3 3d 07 95 3d be bd 8c 02 be
       0.122348934 0.1030401 -0.1851388 -0.12749
000320 fe 54 41 be 2b 6f 11 bd d8 ec 8d bd 9a d8 0c 3d
       -0.18880078 -0.03550641 -0.0692994 0.034386255
000330 3c 7f 64 bd f5 d5 c8 3d 62 da 15 be 2f 93 54 3d
       -0.055785403 0.09806434 -0.14634088 0.051898178
000340 f5 0f 1f 3e 26 4e ac bd 7d 91 4f bd 6f fa 3b 3d
       0.15533431 -0.08413343 -0.050675858 0.04589313
000350 8a a5 77 bc c2 3a 26 be 7b c3 da 3d 78 50 88 3d
       -0.015115151 -0.16233352 0.10681816 0.06655973
000360 0c 7c 8a bd d5 5b 31 bd 28 80 44 be 70 6e 20 bc
       -0.06761941 -0.04330047 -0.19189513 -0.009791955
000370 55 79 9c bd ae a6 bb 3d 3d 8c 1f bb dd 14 47 3d
       -0.0764033 0.09162651 -0.0024345063 0.04860388
000380 0e fd b2 3d 26 7c ef 3d 36 ab 56 bb 7a 95 5f bc
       0.087396726 0.11693601 -0.0032755858 -0.013646478
000390 69 bd cc 3d e9 28 db bd 6d 82 73 bd 23 d6 92 bd
       0.099970646 -0.10701162 -0.059450556 -0.071697496
0003a0 bf 06 e3 3c 85 86 07 3d 0f 5b dc bd 60 d0 ba bd
       0.027713178 0.033087272 -0.107595555 -0.091217756
0003b0 22 77 f3 bd 6b 12 cc 3d 0d 10 0e 3d 09 9a be bd
       -0.11887957 0.099644504 0.034683276 -0.093067236
0003c0 60 bd 08 3e b0 a3 e3 bd 48 64 5a be 64 3c b8 bc
       0.13353491 -0.11115205 -0.21327317 -0.022489734
0003d0 cf a6 ac 3d a7 1d 57 be 84 2c e4 bc 37 36 2f 3e
       0.08430254 -0.21007405 -0.027853258 0.17110525
0003e0 91 11 07 be 75 7e d4 3c af bf 01 3d d3 22 be bc
       -0.13190295 0.025939206 0.031676944 -0.023209965
0003f0 82 74 7b 3d 05 ba f9 3d 9a b0 f7 bd 21 18 81 3c
       0.061390407 0.121936835 -0.12094231 0.015758576

net.layer_2.bias f4 [50]
000000 a5 ba 8f 3d 8c f4 1e 3d bb bf 88 bd 54 ad 82 3d
       0.070180215 0.038807437 -0.06677195 0.06380716
000010 eb 6c e1 bd 6b 73 0d 3e a7 28 aa 3c a9 8b a1 bd
       -0.110071026 0.1381356 0.020771338 -0.07887966
000020 ed 37 f2 bc 7b 05 d7 bb 3f bf fd 3d 40 72 80 bd
       -0.029567683 -0.0065619326 0.12389993 -0.062717915
000030 92 e3 ac 3d cc 16 17 3e 4c 91 b4 bd 12 4c 6a 3c
       0.08441843 0.1475479 -0.08816776 0.014300363
000040 a3 38 8a bd 97 64 66 bc bb 0c ca 3d 7d ad e8 bd
       -0.06749084 -0.014062068 0.098657094 -0.11361215
000050 0c c7 52 bd d4 66 c8 bc c7 e7 ef bd f6 a5 11 be
       -0.051459357 -0.024463095 -0.1171413 -0.14223465
000060 4f af bb bb 4d 60 6b bd ce 7a f8 3c 59 c5 a0 3d
       -0.0057276855 -0.057464886 0.030331995 0.07850141
000070 34 c4 ce 3c 27 0d 7a 3d 3d 60 8a 3d 73 c1 1e be
       0.025240041 0.0610477 0.06756637 -0.15503483
000080 4c 94 bb 3d b2 8b 82 bd 0d 3e d6 bd 55 a4 16 be
       0.09159145 -0.06374301 -0.10461054 -0.14711125
000090 a1 a7 24 be e4 7a 97 3d 46 14 0e 3d 80 49 f4 3c
       -0.1607957 0.073964864 0.034687303 0.029820204
0000a0 b3 a5 ef bd bf a0 ec 3c f0 43 f1 3d 92 02 db bd
       -0.117015265 0.028885243 0.11780536 -0.106938496
0000b0 45 ac 88 3d 2f 48 8a bd 6a 2c f3 bd 7c 88 a5 bd
       0.06673483 -0.06752049 -0.11873706 -0.08082673
0000c0 75 d5 cb bd ec 9e 1e 3d
       -0.09952823 0.03872578

net.output.weight f4 [1, 50]
000000 57 4b 1b 3e 6c 23 41 3e 03 d1 be bb b0 72 26 be
       0.15165459 0.18861169 -0.005823256 -0.16254687
000010 f8 88 58 bc 50 d2 1e 3c d8 7a 96 bc cb e4 c4 bd
       -0.01321625 0.009693697 -0.018369123 -0.09613951
000020 9d 6b 23 bb 9a 1f 9b bd a2 bd f0 bd 7a 27 a8 bd
       -0.0024935969 -0.07574387 -0.117549196 -0.082106546
000030 01 e4 e7 bd 1b 93 0d be 75 f3 1c 3e 42 41 ae 3d
       -0.11322785 -0.13825648 0.15327246 0.08508541
000040 77 5e 0e 3e 78 22 26 bd 1d 88 34 be f1 5a 87 39
       0.13903223 -0.040560216 -0.17630048 0.00025816963
000050 cf 5d 18 3e b2 00 34 bb 51 29 28 3a f5 83 73 bd
       0.14879535 -0.0027466235 0.0006414848 -0.059452016
000060 87 9f 3d bb 19 94 b4 3d 1f 72 23 3e 1e 81 2e bb
       -0.0028934197 0.0881731 0.15961502 -0.0026627253
000070 18 e0 26 3d 02 e0 f3 bc b0 ce cb 3d b3 c9 30 be
       0.040741056 -0.029769901 0.09951532 -0.17264442
000080 15 53 77 bd 41 15 7d bf 20 a4 4f 3d ae 07 fd 3d
       -0.060381968 -0.98860556 0.05069363 0.123549804
000090 20 c7 ec 3d 5f ed 86 3e df b4 35 3e 2f 94 4c 3e
       0.115614176 0.26352975 0.17744778 0.19978403
0000a0 e1 31 df 3b 71 2c 06 3e 80 71 f0 3d 1f 47 4c 3e
       0.006811366 0.1310289 0.117403984 0.19949006
0000b0 23 99 19 bb 9b 4f a0 be 9f 88 9e bd df ce a9 3d
       -0.0023437224 -0.31310734 -0.07740902 0.08291411
0000c0 41 1f 83 3b 1d fa 0b 3c
       0.0040015285 0.008543518
