burgers/trained_models/Conv_Anal/u_1_4/Conv_Anal_Final_wpinn_burgers_0_5_3000.pth (torch, 45118 bytes, 5 tensors)

net.layer_0.weight f4 [100, 2]
0.45039952 -0.11254813 -0.4101643 -0.5789114 0.20557885 0.392604 -0.14247283 0.3934432
-0.308219 -0.88041586 0.13440399 -0.71278054 0.059117038 0.35990965 -0.014443827 -0.35973445
0.20505115 0.39326105 -0.19045785 0.5261266 -0.7790929 -0.19280308 0.4930091 -0.23165031
0.51230985 -0.82887375 -0.7271271 0.45459163 -0.6370719 0.3235677 -0.43737778 0.95760554
-0.044438105 0.77422744 -0.24723463 0.55199426 0.020681882 -0.49245924 -0.30411908 -0.87077427
0.2821111 0.52644217 0.5722787 -0.7316235 0.6379275 0.3195425 0.063395046 0.30608535
0.48037496 -0.09978919 0.12937923 -0.06313331 -0.6592314 0.63807184 -0.15171607 0.53714347
-1.1413422 0.08641572 -0.6150078 -0.41055554 -0.48718318 -0.5609347 -0.3963139 0.68944234
-0.5633098 0.6306097 -0.51290554 0.29103556 0.7013356 0.42263833 0.90001994 0.28258342
1.0947281 -0.24733143 -0.020026159 0.44273928 -0.6956995 0.091572404 0.19253771 0.46772933
0.41252476 0.84501827 -0.4058979 0.5405663 0.5418966 0.296828 -0.9853411 -0.07081127
0.19353533 -0.08891823 0.3206638 -0.5274254 0.3900128 0.526097 0.29347652 -0.80665475
-0.21422529 -0.7586545 0.41817945 -0.75659305 -0.1286466 -0.51104915 0.39179954 -0.7592539
-0.16615048 -0.8107195 0.3457765 0.38817027 -0.58781356 0.7685709 -0.76716185 -0.5865342
-0.36830524 0.9536472 0.46353883 0.4180394 -0.32258755 0.19710241 0.1809834 0.63338506
0.098356254 0.75276345 -0.3611706 -0.53919464 -0.13327548 -0.51221454 0.52392316 0.26034087
0.13452663 -0.27612737 -0.069248125 0.61272776 0.42094117 0.50851744 0.67478883 -0.27808875
-0.67328435 -0.099509604 0.12861677 0.74456054 -0.28551766 0.8247188 -0.18121284 -0.6202352
-0.2922972 -0.74469966 -0.23448311 0.8033231 0.505191 -0.44970146 -0.23591687 -0.06718267
0.31308725 0.7022541 -0.72467333 -0.17756526 0.13056952 -0.21759957 0.5223274 0.48890918
-0.043026026 0.51959985 0.47515455 -0.34165868 0.58058965 0.29487905 0.32759014 -0.5827633
-0.4617759 -0.0245962 0.45970652 0.88048583 -0.27844998 0.60357356 0.0035037 0.22500367
0.31704202 0.4866767 0.22108032 -0.018345563 -0.20771116 0.85132426 -0.8457874 -0.166031
0.04153423 -0.010393182 0.17497331 0.75646996 -0.49208212 0.57062 0.701478 -0.18628044
-0.22623129 -0.72431105 -0.4874882 0.44729355 -0.27862054 0.39764342 0.0042652865 0.7526695
00000000: c49a e63e a27f e6bd 0e01 d2be 8a33 14bf
00000010: 4383 523e 6403 c93e 66e4 11be 6371 c93e
00000020: e1ce 9dbe ef62 61bf 33a1 093e c978 36bf
00000030: b524 723d 1446 b83e cda5 6cbc 1d2f b8be
00000040: eef8 513e 8359 c93e 6207 43be 3cb0 063f
00000050: a272 47bf 2c6e 45be b06b fc3e bd35 6dbe
00000060: bd26 033f 1231 54bf 0025 3abf 3cc0 e83e
00000070: 2517 23bf aaaa a53e fbef dfbe a325 753f
00000080: bb04 36bd c533 463f 132b 7dbe 7f4f 0d3f
00000090: 0d6d a93c 9e23 fcbe 7fb5 9bbe 10eb 5ebf
000000a0: de70 903e eac4 063f db80 123f ad4b 3bbf
000000b0: 374f 233f 139b a33e 43d5 813d 38b7 9c3e
000000c0: b5f3 f53e 465e ccbd fd7b 043e 094c 81bd
000000d0: 64c3 28bf ad58 233f 755b 1bbe 3c82 093f
000000e0: 8017 92bf bafa b03d 2771 1dbf 5634 d2be
000000f0: 1370 f9be 6b99 0fbf a8e9 cabe 4b7f 303f
00000100: 1235 10bf a36f 213f c74d 03bf 9d02 953e
00000110: bb8a 333f 0d64 d83e b567 663f c6ae 903e
00000120: 0d20 8c3f 7344 7dbe e60d a4bc b9ae e23e
00000130: 5d19 32bf 508a bb3d 9b28 453e 387a ef3e
00000140: 7236 d33e 1e53 583f d9d1 cfbe 8e62 0a3f
00000150: bcb9 0a3f d7f9 973e 503f 7cbf 8005 91bd
00000160: 202e 463e c31a b6bd 0c2e a43e 5a05 07bf
00000170: c2af c73e 4bae 063f 8e42 963e ed80 4ebf
00000180: e05d 5bbe 2e37 42bf 9e1b d63e 15b0 41bf
00000190: efbb 03be 1ed4 02bf f399 c83e 775e 42bf
000001a0: 5a23 2abe 508b 4fbf 9e09 b13e 41be c63e
000001b0: f37a 16bf 10c1 443f b864 44bf 1b27 16bf
000001c0: 8192 bcbe 3922 743f f654 ed3e 4309 d63e
000001d0: 322a a5be 37d5 493e b653 393e 8625 223f
000001e0: 016f c93d 1bb5 403f 5aeb b8be a908 0abf
000001f0: 5e79 08be 7e20 03bf d41f 063f 664b 853e
00000200: 59c1 093e 9160 8dbe f6d1 8dbd badb 1c3f
00000210: 9a85 d73e 332e 023f f6be 2c3f a661 8ebe
00000220: 5d5c 2cbf b1cb cbbd 1db4 033e 859b 3e3f
00000230: 5f2f 92be c520 533f dc8f 39be bcc7 1ebf
00000240: fba7 95be a3a4 3ebf 571c 70be 95a6 4d3f
00000250: 3354 013f 453f e6be 3194 71be 1197 89bd
00000260: f94c a03e edc6 333f 3184 39bf abd3 35be
00000270: 04b4 053e 6cd2 5ebe 40b7 053f 4e52 fa3e
00000280: 0f3c 30bd 7f04 053f 7547 f33e e3ed aebe
00000290: 86a1 143f 63fa 963e e5b9 a73e fa2f 15bf
000002a0: e46d ecbe f87d c9bc a75e eb3e 8567 613f
000002b0: ff90 8ebe cc83 1a3f 559e 653b 5d67 663e
000002c0: 5553 a23e b02d f93e e162 623e 6f49 96bc
000002d0: 3cb2 54be 63f0 593f 8685 58bf 0804 2abe
000002e0: cc1f 2a3d 2a48 2abc 342c 333e 04a8 413f
000002f0: 30f2 fbbe 2714 123f 1094 333f 4dc0 3ebe
00000300: 2da9 67be 736c 39bf 0e98 f9be a903 e53e
00000310: 5aa7 8ebe eb97 cb3e d1c3 8b3b f3ae 403f

net.layer_0.bias f4 [100]
-0.010369166 0.45698768 -0.61856246 0.20492464 0.51598865 0.2559175 0.3177961 0.6606247
0.40255448 0.083974145 -0.28897408 0.25137404 -0.66729474 0.1565113 -0.44917375 0.4468896
-0.73299766 -0.4421744 0.0075507173 0.30618235 -0.02328484 -0.37682542 -0.17751311 -0.64246225
0.3375393 -0.58481795 -0.57229507 0.47373554 -0.008284708 0.6197151 -0.2837481 0.2311694
0.51073015 0.6778217 -0.49011976 0.087276824 -0.025759362 0.30516893 0.34532577 -0.32480004
0.2599223 0.3927267 0.14304475 -0.023285082 0.21449226 -0.5600728 -0.37965915 0.5663822
0.19239289 0.5749757 0.3487368 0.0643904 0.34801623 -0.65079707 0.7279477 0.5935436
0.25007436 0.30204186 -0.5889125 0.39089632 -0.66476953 -0.070451215 0.36615562 0.6224014
-0.02267245 -0.14804967 0.17117053 0.457494 0.046364464 0.13441984 0.18076028 0.68224895
0.20887636 0.6727419 -0.20375122 -0.7013287 -0.51743805 -0.49675933 -0.30740577 -0.24654938
0.23012441 -0.24288763 0.59008014 -0.15089631 -0.62662274 -0.11095169 0.6371135 -0.16170871
0.2924552 -0.52435637 -0.15253231 -0.35300118 -0.3445671 -0.37857145 -0.024578586 0.25209427
-0.16489401 0.26726103 -0.22700885 0.5128365
00000000: 6fe3 29bc 4afa e93e 1c5a 1ebf c4d7 513e
00000010: d517 043f 9e07 833e 2cb6 a23e b31e 293f
00000020: 9f1b ce3e a3fa ab3d 69f4 93be 19b4 803e
00000030: d4d3 2abf 8044 203e 1afa e5be b7ce e43e
00000040: bca5 3bbf af64 e2be 026c f73b efc3 9c3e
00000050: d9bf bebc 43ef c0be ffc5 35be 6878 24bf
00000060: f3d1 ac3e a1b6 15bf ee81 12bf 778d f23e
00000070: 95bc 07bc a6a5 1e3f 6e47 91be acb7 6c3e
00000080: 36bf 023f b985 2d3f faf0 fabe 31be b23d
00000090: 4c05 d3bc 1a3f 9c3e 8ace b03e 314c a6be
000000a0: 8914 853e 7913 c93e 537a 123e 5bc0 bebc
000000b0: dca3 5b3e ee60 0fbf af62 c2be 6dfe 103f
000000c0: a402 453e 9c31 133f a18d b23e 1ddf 833d
000000d0: 2f2f b23e a39a 26bf c85a 3a3f 79f2 173f
000000e0: bf09 803e 3ba5 9a3e f8c2 16bf 9023 c83e
000000f0: 562e 2abf ba48 90bd c078 bb3e b355 1f3f
00000100: 93bb b9bc 559a 17be 5447 2f3e a73c ea3e
00000110: aae8 3d3d 5ba5 093e 3919 393e dea7 2e3f
00000120: afe3 553e d038 2c3f 29a4 50be 478a 33bf
00000130: d276 04bf 3d57 febe 4a64 9dbe 7177 7cbe
00000140: bca5 6b3e 89b7 78be 7e0f 173f 9084 1abe
00000150: 596a 20bf a43a e3bd df19 233f f896 25be
00000160: b0bc 953e 383c 06bf 6e31 1cbe 92bc b4be
00000170: 196b b0be 1ed4 c1be 0859 c9bc 8012 813e
00000180: fad9 28be 70d6 883e 0275 68be 4149 033f

net.layer_1.weight f4 [100, 100]
0.30164716 0.028386371 -0.052997556 0.010283966 -0.007568866 -0.07321756 0.02015663 0.009066576
-0.04475978 -0.11384056 -0.00831126 0.09467509 0.036221698 -0.26470605 -0.036365356 0.0034725983
-0.09496234 -0.10198036 0.053403456 -0.038036976 0.049444053 0.17368062 0.09232914 0.014816755
0.025421267 -0.056226708 0.04113225 -0.04828512 -0.12730816 0.023971016 -0.11898876 0.013432355
0.0077763 -0.011017435 0.054496214 0.04724449 0.26484415 0.01779827 -0.14258423 0.03662677
0.04744107 -0.13896431 0.098461255 -0.11063929 -0.018036855 0.11580328 -0.025056913 -0.060121294
0.070414655 0.045258496 0.08704072 -0.08869495 0.030989302 -0.05912788 -0.18062285 -0.051066063
0.01903258 0.104856014 0.015356876 0.038267095 -0.013875559 -0.091724604 0.053823777 -0.035129286
0.1657199 0.06377626 0.010449527 -0.05127179 -0.3612814 -0.044312533 -0.09591113 0.071314506
-0.044817366 -0.031488385 0.19853574 0.033769883 -0.09473929 -0.090478584 0.123236895 0.02911638
-0.065659024 0.1425294 0.11398756 0.15817074 -0.02810602 0.11008979 -0.0296185 0.013979282
0.081620686 -0.06395252 0.105653934 -0.13259327 0.004873485 -0.035472013 0.017698904 0.021248605
-0.102134906 -0.13279803 0.004735381 0.06594562 -0.020966753 0.070495896 0.0070397854 0.023287024
0.019902296 -0.09349371 0.038920905 -0.06282631 -0.021641204 0.0719537 -0.07674047 0.0037686257
0.09894533 -0.019698106 -0.08376314 0.061715536 -0.101620086 -0.015592185 0.08187448 0.07487296
-0.079278134 -0.028334243 -0.049927853 -0.01735072 0.10607106 0.022502296 0.022967324 -0.022074098
-0.10881701 -0.061278746 0.08495769 -0.087816164 -0.0004683264 -0.04862961 -0.11532498 0.03109541
-0.019534713 -0.042366643 -0.0610417 -0.028915962 -0.028582223 -0.071537785 0.08354149 0.06362491
0.07093757 0.09431028 -0.06546589 -0.106460705 -0.031060709 0.0096370755 0.0026048392 0.07478816
-0.07527635 -0.064171135 -0.024708193 0.10905702 0.012089239 0.08939849 0.051013596 -0.045754846
0.013698427 0.06500476 -0.04811619 0.06267122 0.09502935 -0.008866511 0.08012098 0.08636994
0.02178804 -0.061054986 -0.046014436 0.026585393 0.057167776 0.008365013 -0.03809026 -0.06862217
0.024388222 -0.06862021 0.105110005 -0.04782989 0.0029415353 0.1234995 0.034516647 -0.029599903
0.08711295 -0.05012098 -0.025654227 0.054130815 -0.04941415 -0.015433164 -0.010433789 -0.049247287
-0.00354246 -0.07606246 -0.011629789 0.030934462 -0.07955734 -0.100956194 -0.053602275 -0.010461593
-0.110631905 0.0148847895 0.06243649 -0.0057423958 0.03628475 0.057010617 0.052369326 -0.061575506
0.046509523 -0.028343415 0.001659333 -0.10607427 0.0046310606 0.17175697 0.10179187 0.07505433
0.0053883353 -0.08410958 -0.08440264 -0.07042685 0.13414946 -0.14465526 0.14922287 0.07291231
-0.019816298 -0.077350184 -0.054912116 0.08075469 -0.0041822777 -0.049856827 0.08007501 0.11185479
0.11899445 -0.018067393 0.029247826 0.08238552 -0.018345358 -0.0347403 0.047666132 0.02749382
-0.116839275 -0.006715267 0.071143635 -0.038899254 -0.07713276 -0.035764694 0.063458286 -0.07995711
0.04471015 0.00022281085 0.027482176 0.095327124 -0.08805019 -0.018104436 0.12200569 -0.07247313
00000000: 7f71 9a3e 898a e83c f713 59bd 147e 283c
00000010: 4004 f8bb 17f3 95bd 841f a53c fa8b 143c
00000020: 0856 37bd 3d25 e9bd f32b 08bc 03e5 c13d
00000030: 345d 143d 8d87 87be d7f3 14bd 8894 633b
00000040: 9e7b c2bd 14db d0bd 95bd 5a3d a9cc 1bbd
00000050: d985 4a3d 55d9 313e 0f17 bd3d fac1 723c
00000060: 4340 d03c fa4d 66bd 4a7a 283d 9ec6 45bd
00000070: 125d 02be dd5e c43c 61b0 f3bd 6113 5c3c
00000080: 55d0 fe3b 7982 34bc 6c37 5f3d 7083 413d
00000090: a799 873e adcd 913c 9a01 12be f405 163d
000000a0: 9151 423d a94c 0ebe 0ea6 c93d da96 e2bd
000000b0: 07c2 93bc 452a ed3d 2844 cdbc bf41 76bd
000000c0: 8f35 903d f960 393d 6842 b23d b3a5 b5bd
000000d0: 47dd fd3c 1330 72bd 32f5 38be a62a 51bd
000000e0: 37ea 9b3c c0be d63d 689b 7b3c f5bd 1c3d
000000f0: 5056 63bc 1cda bbbd 5276 5c3d bae3 0fbd
00000100: 7ab2 293e 219d 823d 7e34 2b3c 5e02 52bd
00000110: e0f9 b8be 0f81 35bd 0e6d c4bd 570d 923d
00000120: 6a92 37bd f7f9 00bd f44c 4b3e 4a52 0a3d
00000130: ac06 c2bd d64c b9bd a063 fc3d 7985 ee3c
00000140: 3d78 86bd 3af3 113e 4f72 e93d 83f7 213e
00000150: 993e e6bc c176 e13d 7fa2 f2bc 5c09 653c
00000160: bf28 a73d 8af9 82bd 1761 d83d 88c6 07be
00000170: c1b1 9f3b 1a4b 11bd 4bfd 903c 8e11 ae3c
00000180: 1b2c d1bd 35fc 07be 412b 9b3b 7f0e 873d
00000190: 78c2 abbc 2760 903d 00ae e63b 6ec4 be3c
000001a0: 240a a33c a179 bfbd 876b 1f3d 15ab 80bd
000001b0: e548 b1bc 765c 933d 1c2a 9dbd 0cfb 763b
000001c0: d9a3 ca3d ec5d a1bc 028c abbd 6ec9 7c3d
000001d0: 311e d0bd 5d76 7fbc cfad a73d ff56 993d
000001e0: 935c a2bd 371d e8bc 2681 4cbd 1923 8ebc
000001f0: c93b d93d bc56 b83c f825 bc3c bdd4 b4bc
00000200: 74db debd 6cff 7abd 4cfe ad3d f6d8 b3bd
00000210: b589 f5b9 d82f 47bd 812f ecbd cdbb fe3c
00000220: 4307 a0bc a588 2dbd dd06 7abd 2be1 ecbc
00000230: 4425 eabc 6782 92bd cd17 ab3d c74d 823d
00000240: b747 913d c025 c13d fb12 86bd 1208 dabd
00000250: 0773 febc d3e4 1d3c f3b5 2a3b 892a 993d
00000260: 7d2a 9abd 286c 83bd d668 cabc 4959 df3d
00000270: f211 463c 8e16 b73d a2f3 503d 6f69 3bbd
00000280: 5e6f 603c 3721 853d 7b15 45bd c559 803d
00000290: bf9e c23d d844 11bc 7816 a43d b9e2 b03d
000002a0: d57c b23c cb14 7abd a279 3cbd 9cc9 d93c
000002b0: c228 6a3d 680d 093c 8804 1cbd c889 8cbd
000002c0: cfc9 c73c c188 8cbd ea43 d73d 46e9 43bd
000002d0: c6c6 403b 4eed fc3d 5461 0d3d 7f7b f2bc
000002e0: 4668 b23d a84b 4dbd d028 d2bc 46b8 5d3d
000002f0: 7e66 4abd 62db 7cbc 7cf2 2abc 86b7 49bd
00000300: 9e28 68bb a3c6 9bbd df8a 3ebc 456a fd3c
00000310: f5ee a2bd 1fc2 cebd 0f8e 5bbd 1a67 2bbc
00000320: fb92 e2bd 55df 733c 68bd 7f3d b52a bcbb
00000330: 519f 143d f783 693d 3881 563d 9936 7cbd
00000340: c580 3e3d 7330 e8bc fa7d d93a 783d d9bd
00000350: 27c0 973b 0fe1 2f3e 4278 d03d 16b6 993d
00000360: a290 b03b a541 acbd 4bdb acbd f43b 90bd
00000370: 7a5e 093e 8220 14be e1cd 183e 0d53 953d
00000380: ca55 a2bc c669 9ebd 87eb 60bd b762 a53d
00000390: 7d0b 89bb ac36 4cbd 5efe a33d 2014 e53d
000003a0: 5db3 f33d 1202 94bc 2399 ef3c bdb9 a83d
000003b0: 0149 96bc d84b 0ebd 903d 433d b83a e13c
000003c0: 6e49 efbd be0b dcbb c1b3 913d d354 1fbd
000003d0: c8f7 9dbd 007e 12bd 6bf6 813d 8ec0 a3bd
000003e0: fe21 373d 55a2 6939 4d22 e13c de3a c33d
000003f0: a853 b4bd c14f 94bc 1fde f93d cb6c 94bd

net.layer_1.bias f4 [100]
0.098244615 0.019123303 0.074676596 0.030667026 -0.059845533 0.118989706 0.061952766 0.04923705
-0.03310302 0.045584857 0.05007302 -0.09175728 -0.001758309 -0.05037653 0.049765974 -0.03701421
0.03007824 -0.07654745 -0.0686408 -0.087806754 -0.09202587 0.03740524 0.035513952 -0.0037356236
-0.10679079 -0.07967196 0.04728004 -0.05207969 0.09674912 -0.013553151 -0.0030540396 -0.042245254
0.051229823 -0.09112307 -0.068638906 0.053161524 -0.06189155 -0.10002335 -0.053738166 0.023492064
0.028754283 0.0021035194 -0.08254809 -0.024455063 0.111941524 0.001277542 0.00030877822 -0.0037286857
0.02590426 0.017386653 -0.08691382 -0.0011207393 -0.09075756 0.093891144 0.09894476 0.08213032
0.054660235 -0.08331435 0.09265637 -0.07754224 -0.16909908 -0.024137443 0.028723765 0.14429544
0.051373575 0.22806786 -0.056715205 -0.069198444 0.0014606791 -0.027579945 0.0726199 -0.081572846
-0.012147641 0.009801257 0.08594447 -0.02538069 0.17489101 -0.05732835 0.08433941 0.0064705005
-0.0034292196 0.09691734 0.011662727 0.08817657 -0.017586067 -0.054445636 -0.03721482 -0.029388314
-0.08864848 -0.04276797 -0.011662788 -0.09372248 0.0033595013 -0.031385314 0.027082523 0.10866982
0.074754894 0.050199162 -0.0072895875 -0.058842998
00000000: 7934 c93d 79a8 9c3c 0bf0 983d 6a39 fb3c
00000010: 9720 75bd e0b0 f33d 2fc2 7d3d caac 493d
00000020: 0897 07bd 30b7 3a3d 5e19 4d3d 3eeb bbbd
00000030: 0f77 e6ba 9f57 4ebd 68d7 4b3d 369c 17bd
00000040: a466 f63c e9c4 9cbd 8c93 8cbd 07d4 b3bd
00000050: 0f78 bcbd 3d36 193d 1477 113d 5dd1 74bb
00000060: 21b5 dabd 0d2b a3bd b7a8 413d 8351 55bd
00000070: 6724 c63d 090e 5ebc 4826 48bb 5c09 2dbd
00000080: 5dd6 513d bb9e babd 8e92 8cbd e6bf 593d
00000090: fe81 7dbd 0bd9 ccbd 8d1c 5cbd 6e72 c03c
000000a0: 1a8e eb3c 33db 093b f90e a9bd fc55 c8bc
000000b0: 9941 e53d 3273 a73a 83e3 a139 f75c 74bb
000000c0: 2c35 d43c 746e 8e3c dfff b1bd c5e5 92ba
000000d0: 1adf b9bd 004a c03d 8da3 ca3d f133 a83d
000000e0: 69e3 5f3d b7a0 aabd 9fc2 bd3d 77ce 9ebd
000000f0: 4f28 2dbe e3bb c5bc 1a4e eb3c 2fc2 133e
00000100: 196d 523d 9f8a 693e 344e 68bd eab7 8dbd
00000110: 4274 bf3a 56ef e1bc beb9 943d aa0f a7bd
00000120: e606 47bc 7495 203c a703 b03d 2aeb cfbc
00000130: a116 333e 22d1 6abd 24ba ac3d 7e06 d43b
00000140: c2bc 60bb 997c c63d 0615 3f3c eb95 b43d
00000150: a810 90bc 6302 5fbd 916e 18bd c3bf f0bc
00000160: 568d b5bd 782d 2fbd 4715 3fbc 92f1 bfbd
00000170: 142b 5c3b e38d 00bd 2bdc dd3c 488e de3d
00000180: 1819 993d a39d 4d3d 7edd eebb 5b05 71bd

net.output.weight f4 [1, 100]
-0.108865954 -0.011579906 0.09261174 0.014527593 -0.10954798 -0.03396631 -0.08279045 -0.05321411
-0.13895386 -0.11906547 0.06347565 -0.091835804 0.0780729 -0.05716834 0.035834722 -0.07385977
0.12172736 -0.04992833 0.17012112 -0.036211777 0.12132762 -0.0007950544 -0.06965803 0.0006402596
-0.025611186 0.21102394 0.090139985 0.018571116 0.1500311 0.05346296 0.09688409 0.10048584
0.10268082 0.049330212 -0.06961416 0.043614082 -0.035902888 -0.1754111 0.11690602 -0.12445636
0.23496513 -0.11104732 0.048334096 0.109327175 0.18882176 0.22989327 0.08207685 -0.04760998
-0.20504391 0.010121658 0.10206133 0.09761893 -0.05742099 -0.086634465 -0.13516985 0.008383705
-0.09582826 -0.12836465 -0.011559239 -0.024888808 -0.17327154 0.11673124 0.0040875417 0.1913745
0.09654283 -0.1864442 0.11392125 -0.00041058628 -0.17484765 -0.027051918 -0.09493997 -0.039965276
-0.12316584 0.018292848 0.039517753 -0.08912878 -0.26470444 0.10386194 -0.031532545 0.22252633
0.060089614 0.080327705 -0.100878686 -0.0034728674 0.17932262 -0.010334943 -0.10367032 0.13837916
-0.061691433 0.08441555 0.12105569 -0.069504604 0.018174294 0.037976105 0.039631628 -0.10065554
0.06577848 -0.20218852 9.101771e-06 0.1037674
00000000: 1df5 debd a5b9 3dbc 39ab bd3d 2405 6e3c
00000010: b15a e0bd 4220 0bbd 0a8e a9bd 0af7 59bd
00000020: ec49 0ebe 99d8 f3bd 86ff 813d 6914 bcbd
00000030: afe4 9f3d 5929 6abd 6ec7 123d cb43 97bd
00000040: 324c f93d a681 4cbd 3b34 2e3e cd52 14bd
00000050: 9e7a f83d 336b 50ba dfa8 8ebd 18d7 273a
00000060: 8dce d1bc a916 583e 509b b83d 7422 983c
00000070: c1a1 193e fafb 5a3d 2a6b c63d 85cb cd3d
00000080: 524a d23d 7a0e 4a3d de91 8ebd aea4 323d
00000090: e80e 13bd f89e 33be 6c6c ef3d fae2 febd
000000a0: b39a 703e c76c e3bd f9f9 453d ede6 df3d
000000b0: 7e5a 413e 2469 6b3e e817 a83d af02 43bd
000000c0: 08f7 51be 50d5 253c 8805 d13d 6fec c73d
000000d0: 4632 6bbd 696d b1bd f769 0abe cf5b 093c
000000e0: 9b41 c4bd 0672 03be f662 3dbc 9de3 cbbc
000000f0: 186e 31be ca10 ef3d c9f0 853b adf7 433e
00000100: 3fb8 c53d 3aeb 3ebe 8b4f e93d f543 d7b9
00000110: 430b 33be fc9b ddbc e36f c2bd a1b2 23bd
00000120: 5f3e fcbd e2da 953c 5edd 213d 2689 b6bd
00000130: 5787 87be 92b5 d43d 4528 01bd f1dd 633e
00000140: 8720 763d da82 a43d 7c99 cebd 0c99 63bb
00000150: 59a0 373e e553 29bc 1b51 d4bd 44b3 0d3e
00000160: 28b0 7cbd 0fe2 ac3d 0cec f73d 6e58 8ebd
00000170: 42e2 943c d58c 1b3d c654 223d 7e24 cebd
00000180: deb6 863d 820a 4fbe cfb3 1837 0184 d43d
