burgers/trained_models/old_wpinns/wpinn_burgers_inviscid_2.pth (torch, 24780 bytes, 7 tensors)

net.layer_0.weight f4 [50, 2]
00000000: cc87 b43e 77dc 2d3e 65ed 8c3e b0eb 24bf
00000010: a2e8 d63e 9378 363f 6d2c 90be 5fb4 44bf
00000020: aabc 343f 6757 7abf a49c 8fbf 235c 743f
00000030: 073f 2f3f a332 7fbf 227d cdbe 58ea 863f
00000040: 681b 1fbf a41b b53b f55b 2fbe 87a1 4d3f
00000050: c729 7d3f 0457 a3be c8a5 97be c7cf febe
00000060: 3a7e 02be bf09 373f 60ed 073e b0b3 78bf
00000070: dee2 553f d2ce d0bf b73e f0be 6f52 e53e
00000080: 9b40 20bd 1b37 0c3f 9382 a3be 2547 1b3f
00000090: bc7e 21bf 0538 ac3f 3be7 d5be 0965 0b3f
000000a0: 9b00 823e 9caa 153f ce6d 2d3e 59cf 64bf
000000b0: 69db a33e e0c0 7fbf dbe9 523f fcc2 fbbe
000000c0: 2422 26bf c25a 973e 13b2 843e 8ba7 dd3e
000000d0: 70e3 8bbe 4bd2 57bf 9a85 703f a3d5 2bbf
000000e0: df16 7d3e 07a3 19bf 6fec 2cbf 4b58 a63f
000000f0: 7e3a 383f ebdb a1bf 822b 623f 5e6b 60bf
00000100: d08a 5c3e 2f58 033f 57b6 e73d aa48 05bf
00000110: 1e2a 23be 1ca4 6abf 2922 b73c ef80 8bbf
00000120: 937a 053f 4108 fa3e 1938 68be 37a3 24bf
00000130: 6fac 57bd 4473 633e 7c71 c6bc f57d b3be
00000140: 8837 5d3e 55ce 0ebf c707 9abc b236 b8bf
00000150: b4c8 32be e280 1d3f 0a82 59bf 2d62 dd3e
00000160: 589e 6bbe bfc4 063f ab07 e23e b6d9 163e
00000170: 13c4 48bf f6d8 963f 29e4 2bbe d20d de3e
00000180: 7f74 27be 80b5 123f bc85 6cbf 1a5f 9d3f
0.35259855 0.16978632 0.27524868 -0.6442213 0.4197436 0.7127773 -0.28158894 -0.76837724
0.7060038 -0.97789615 -1.1219678 0.9545309 0.6845555 -0.9968664 -0.4013453 1.0540266
-0.62151194 0.0055269767 -0.17124923 0.80324596 0.9889187 -0.31902325 -0.2961867 -0.49767897
-0.12743464 0.71499246 0.13274145 -0.9714918 0.83549297 -1.6313117 -0.46922848 0.44789454
-0.039124113 0.54771584 -0.31935558 0.6065543 -0.63084006 1.3454596 -0.41777977 0.5445104
0.25391087 0.58463454 0.16936418 -0.8937889 0.32003334 -0.9990368 0.82388085 -0.491722
-0.64895844 0.2956143 0.2591711 0.43291888 -0.2732196 -0.84305257 0.9395386 -0.6712286
0.24715756 -0.60014385 -0.6754827 1.2995695 0.7196425 -1.2645239 0.8834764 -0.8766383
0.21537328 0.5130643 0.113140754 -0.52064 -0.15934035 -0.9165666 0.022355156 -1.0898722
0.5214016 0.48834422 -0.2267765 -0.64311546 -0.05265468 0.22211939 -0.024224035 -0.35057035
0.21603215 -0.5578359 -0.018802537 -1.4391692 -0.17459375 0.61524785 -0.8496405 0.43238965
-0.23009622 0.5264396 0.44146475 0.14731488 -0.78424186 1.1784961 -0.16786255 0.4336992
-0.16353033 0.573082 -0.9239156 1.2294648

net.layer_0.bias f4 [50]
00000000: 587b 163f e31d a93e e035 f9be 7a80 b53d
00000010: fab3 193e aa0b 03be 91fe aabe 73dc 80be
00000020: bb48 a6be e09a 833e 5ce7 01be 9aa8 6b3e
00000030: c122 c9be b9e8 a3bd b2f7 d4bc 9b4e 4dbe
00000040: 3fbd 85bd 1c8b dc3e 26ad 8c3e 738a de3e
00000050: b078 213f f4de ab3e c4b0 4b3e 5375 9c3e
00000060: 8d23 263f 8b46 bcbd 31b4 92bd 8702 dbbe
00000070: 6704 d23e 5aa6 353e c7da 0a3e f854 9d3d
00000080: 310d 36bd 06aa cd3e 6a42 79be 6c78 98be
00000090: b67a 32bf c379 843d a252 053f 656e ef3e
000000a0: a398 023f 382f bebe 1e70 a4bd 5e92 d43d
000000b0: ca99 9abe 90d8 4abe 4841 533e 7046 1fbf
000000c0: d82c b3be ab2c 053e
0.5878196 0.33030614 -0.48673916 0.088623956 0.15010062 -0.12797418 -0.33397344 -0.2516819
-0.32477364 0.25704098 -0.12685913 0.23013535 -0.39284328 -0.08003373 -0.025997017 -0.20049517
-0.065302365 0.43074882 0.27475852 0.43465003 0.6307478 0.33568537 0.1989165 0.3055826
0.64897996 -0.091931425 -0.07163275 -0.42775366 0.41018984 0.1773924 0.1356002 0.07682222
-0.044446174 0.4016878 -0.24341741 -0.29779375 -0.6971849 0.06468537 0.5207921 0.46763912
0.51014155 -0.371454 -0.08029197 0.1037948 -0.30195457 -0.19809175 0.20630372 -0.62216854
-0.3499515 0.1300532

net.layer_1.weight f4 [50, 50]
00000000: e0d0 d8bd 731c f0bc 703b c53d 6509 ea3c
00000010: b91f f8bc f3da 8ebc f24f ab3d c3bb af3d
00000020: 6863 b53c e735 2d3d efc1 ce3d 46a8 173e
00000030: d8c5 84bd 2733 76bd bab1 eb3d beaf 7b3c
00000040: 1aa3 30be 2300 9b3d a49d 9dbd 85bd 9fbd
00000050: a036 973d adc4 de3a 19bf df3d 721f 163e
00000060: 0584 083d d34c 0fbe 0c6e 163e 7014 043d
00000070: e53a 2d3e e71d 0dbe de77 003e fadb e33d
00000080: 800c b2bd 86cd 393d 73f5 87bd 9205 f13d
00000090: 8b64 9ebd 6c07 b0bd 3762 95bd 05d8 533c
000000a0: 00bc cbbd 598b 563e dd5e ed38 6ab9 71be
000000b0: 80c7 b23d 83c6 85bd 7da3 2bbe 2ce4 66bd
000000c0: bb42 933d 339d a23c 2458 9fbd 97bf 153d
000000d0: c768 a7bd b2ef 22bc 7fa8 473e bdf9 64be
000000e0: bed7 9dbc 61cc 5e3b c435 ce3d 4e5e 42be
000000f0: be8a 423d e43c a53d c0c0 99bd 0fcf 343e
00000100: 981d 503e e64a 0ebe 9d49 5abe 2621 8b3c
00000110: e38b 3abe 1d3a cb3c 0812 563d 1cc8 733d
00000120: 478f 363e 751c ab3d b9d7 0abe ed4c 3ebd
00000130: 25db c4bc f121 4c3d 7bfa 0abd d543 90be
00000140: 7ddb 0d3e 3132 d93d 8dc3 1abe 25a3 ce3d
00000150: 10d2 1c3c 259f 663c d9ba 04bc 921b 063e
00000160: 1ba3 44be e09b 013e 23a7 a9bd cb2e d5bc
00000170: 3074 7abe bc01 e9bd 24f6 e8bd 3021 223c
00000180: 160c 83be 0e72 27b9 a9c6 8cbd 8b7b 803a
00000190: 1b8f 2dbd eff0 bd3d c96f 1d3e ce93 f6bc
000001a0: 1020 80bd ea16 87bc a17e 11be 3b39 8abd
000001b0: 6757 e93d 17de 3e3e f1d6 12be d267 34ba
000001c0: 3c36 c73d bb0b f3bc 70d9 15be 23dd 883d
000001d0: 7e4e fa3c d889 9c3d c2eb 223e b475 e13d
000001e0: ec0d a6bd ff52 cbbc 5dbc 18bd bed3 18bc
000001f0: 3e5f 163e 3e4e ac3d 9513 92bd 3466 2abe
00000200: 522a a5bd d529 843d 10ce 1cbe 49dc 423c
00000210: f6bf 82bb 043e e93c f09c 493d f75d efbd
00000220: 3c4d 103e a1f9 99bd b09d ad3d 64f7 563b
00000230: 5cea 2dbe 37a4 3439 5782 aabc f72a 0e3c
00000240: 09be d93c bb0f 143e 1720 503e 83eb 833d
00000250: e67e bcbc 54ad 663e 0ff0 c2bc 10f8 fbbc
00000260: 6fea e2bc e593 8b3c 903f 04be 0919 6f3e
00000270: 2b27 70be d5c6 8a3d 1ac8 73bb 397e ef3d
00000280: e778 43be 4e79 06bc 1ce1 0d3e eedd 5cbe
00000290: d47b c1bd af72 013e 8faa 353e 5340 eb3d
000002a0: b96e 01bc 7a06 2dbd c7da 85bd c001 33be
000002b0: 4c48 9abc 8453 0ebe da24 0dbd 4c69 d43d
000002c0: 416e 60bd 8446 83bd 6cd2 943d 4689 4e3e
000002d0: 1602 1ebe 80a5 6abe c2e3 87bc a8fb dbbc
000002e0: 0d91 64be 8dcf 61be 8d5a c33c b651 fbbd
000002f0: 4e7b 0e3c 7624 23be 873d 04be 0e16 23be
00000300: 89c3 50bd 2b7d 563e ddf6 c03b 1b17 8d3d
00000310: e5ee 713d 7517 24bd 9f60 213d 9d10 453e
00000320: 8d08 0b3d 2905 4a3d 88f3 e5bd 701b 84bd
00000330: 6f3d 0f3e 8c9d dfbc a949 d0bc 1452 54bd
00000340: 8c39 19bc 1b2d d7bd 3551 fb3d acca 05be
00000350: 4f8e e6bd 3485 f3bd fbed 93bc 3437 b9bd
00000360: 43df 0f3d 431c ed3d fa0a c33d 809a 00bd
00000370: eb3e ee3d 91ca bf3d e3b6 bdbd eb08 0f3e
00000380: c15f 1e3e a646 52bd 58b2 8fbd f59f 37be
00000390: d85a c53d 87ae 70bd b7aa 85bd a520 123e
000003a0: fc3a a73b cb0c 893d 60e5 cc3c a23c 50bd
000003b0: 35f8 0ebe 5037 afbd e8d8 45bc 0647 023e
000003c0: 878d 513d 7e32 1abd 1872 7bbc 0c38 d13d
000003d0: b82b 2d3b ff25 b6bd 3fb4 883d c34c e7bd
000003e0: a3b1 babd c6e1 5d3d 5740 32be 9d41 da3c
000003f0: 78c7 9f3c 5dc6 a8bc 650f b23e bb7b 94be
-0.10586715 -0.02931044 0.096304774 0.028568933 -0.030288564 -0.017438387 0.08364858 0.085807346
0.022142127 0.042287733 0.10095584 0.14810285 -0.06483048 -0.060107376 0.11508508 0.015361724
-0.17249718 0.075683855 -0.07696083 -0.0779982 0.07383466 0.001699587 0.10925121 0.14660433
0.03332903 -0.1399415 0.14690417 0.032246053 0.16916998 -0.13780938 0.12545726 0.111259416
-0.086937904 0.045362018 -0.066386126 0.117686406 -0.07734021 -0.085951656 -0.072941236 0.012929921
-0.099479675 0.20951594 0.0001131871 -0.23605886 0.08729458 -0.06532004 -0.16761585 -0.056369945
0.07190462 0.019850349 -0.07780483 0.036559667 -0.081742816 -0.009944843 0.1949787 -0.22360893
-0.019267913 0.003399633 0.10068849 -0.18981287 0.047495596 0.080682546 -0.07507467 0.17657112
0.20323789 -0.13895759 -0.21317144 0.01698358 -0.18217425 0.024807984 0.05226329 0.05951701
0.17828093 0.08355037 -0.13558854 -0.04646008 -0.024030278 0.049837057 -0.033930283 -0.28176752
0.1385326 0.106052764 -0.15113659 0.10089711 0.009571567 0.014076029 -0.008101189 0.13096455
-0.19202845 0.12657118 -0.08283832 -0.02602329 -0.24458385 -0.11377284 -0.113750726 0.009895608
-0.25595158 -0.0001596885 -0.06873829 0.0009802444 -0.042372804 0.0927447 0.15374674 -0.030099776
-0.062561154 -0.016490418 -0.14208461 -0.06749197 0.11393624 0.18639408 -0.14339806 -0.00068819255
0.09727141 -0.02966868 -0.14633727 0.066828035 0.030555006 0.07643479 0.15910247 0.11008778
-0.08108124 -0.024819849 -0.037289012 -0.009327827 0.1468477 0.08413361 -0.07132641 -0.1664055
-0.080647126 0.06453291 -0.15312982 0.01189334 -0.0039901687 0.028471954 0.049221933 -0.11687844
0.14091963 -0.07518316 0.08477342 0.0032801265 -0.16983932 0.00017227312 -0.020814104 0.008677236
0.026579874 0.14459126 0.20324741 0.06441405 -0.023009729 0.22527057 -0.02379611 -0.030757934
-0.027699677 0.017038295 -0.12914872 0.23349394 -0.23452441 0.067762055 -0.0037198127 0.11693997
-0.1908909 -0.008207632 0.13855404 -0.21569034 -0.094474465 0.12641405 0.17740844 0.11486878
-0.0078999335 -0.042242505 -0.06535869 -0.17481136 -0.018833302 -0.13899046 -0.034458973 0.10371646
-0.054792646 -0.06409934 0.07266697 0.20169553 -0.15430483 -0.22914696 -0.016588096 -0.026853397
-0.22320957 -0.2205183 0.023846889 -0.122714445 0.00869639 -0.15931877 -0.12914096 -0.15926382
-0.050967727 0.20946185 0.0058888034 0.06889173 0.05906572 -0.040061433 0.039398786 0.19244619
0.0339437 0.049321327 -0.112280905 -0.06450546 0.13988279 -0.027296804 -0.025425749 -0.05183609
-0.009352099 -0.1050665 0.122713484 -0.13065594 -0.11257612 -0.11890641 -0.018057814 -0.09043732
0.03512503 0.11577656 0.09523578 -0.031397343 0.116330944 0.09364808 -0.092633985 0.13968246
0.15466215 -0.051336907 -0.07016438 -0.17932113 0.09636468 -0.058760192 -0.06526702 0.14270265
0.005103467 0.06691893 0.025011718 -0.050839074 -0.13961871 -0.08555472 -0.01207564 0.12722406
0.05116036 -0.03764581 -0.015347026 0.10215768 0.0026423763 -0.08893966 0.06675004 -0.11293938
-0.09115913 0.054170392 -0.17407356 0.026642615 0.019504294 -0.0206024 0.3477737 -0.2900065

net.layer_1.bias f4 [50]
00000000: d0f0 5b3c c45b 95bd 8b8d cd3d bd12 e03d
00000010: d146 b93d e09c c5bd e207 ec3d 3f7e c5bb
00000020: 81fd e2bd 5eca d8bd 066b c0bd b7fc a6bc
00000030: e2c0 1f3d 183e 47bc 2e0c 1f3e 34fb dc3d
00000040: d831 b73d e86f 353d 4195 c1bd 6532 8c3d
00000050: 4615 473d 0555 023e e013 f8bd 932e 87bd
00000060: 28e8 d3bd b3e1 ffbd 48b4 583c 3eea 9b3d
00000070: bbe0 bcb9 7a73 f2bc 5898 b9bd 6861 003e
00000080: f899 283d 9c3d c23d dcca 99bd 6f22 72bd
00000090: 20b1 463c 313a 17bd 539e 52be 168b 9ebd
000000a0: 4f18 c73c 28c3 ab3d 09cb d6bd 7c78 efbc
000000b0: 14db a2bd c092 25bd 947e a9bd 4887 41bd
000000c0: 5365 11be d7d6 a03c
0.013424113 -0.072928935 0.10036763 0.10941074 0.0904671 -0.09649062 0.11524941 -0.0060270126
-0.11083508 -0.105854735 -0.09395413 -0.020384176 0.039002307 -0.0121608 0.1553199 0.10790101
0.08945054 0.044296175 -0.09452296 0.068455495 0.048604272 0.12727745 -0.12113166 -0.0660068
-0.10347015 -0.124942206 0.013226576 0.076130375 -0.00036025592 -0.02959608 -0.090622604 0.12537158
0.04116246 0.09484407 -0.075093955 -0.05911487 0.012127191 -0.03692073 -0.20568208 -0.07741372
0.024303583 0.083868325 -0.10487945 -0.029232256 -0.07951942 -0.040423155 -0.08276096 -0.047248155
-0.14198808 0.019633694

net.layer_2.weight f4 [50, 50]
00000000: 6a1b 6ebd ef32 90bd c278 96bd b455 0c3d
00000010: 5dee bd3b 1af6 f13d 160a ff3b 4516 3f3d
00000020: f2a1 e63d 8016 6dbd c3dc 573c a78f 203c
00000030: c5b6 783d 5f19 e83d cca0 d0bd de8f 0c3d
00000040: ccae ab3d f954 8b3d a645 21be ef37 b43d
00000050: 60d5 0abc 6caa 65bd bd43 ac3d f399 ccbd
00000060: 2fdc abbd b1b1 ea3d 2db4 3a3d c47c 1f3e
00000070: bb5d a0bd 5215 693a fece 153e 24ab d4bd
00000080: e0f8 f1bd c749 efbc b73c 08be e578 53bd
00000090: f43e 0c3d 2305 e1bd 7c47 f03d 0a9a 2fbe
000000a0: 2ad2 6dbd db4b 173e ae8f 20be 9fc8 0ebe
000000b0: 19e9 fc3d 7820 e03d 66db 9f3d 1b24 c6bb
000000c0: 93ff 303e c182 b0bd bb07 50bd 1e22 20bd
000000d0: 1a2f 3abd 428a 1a3e 02c1 1fbe 4c6a 8d3d
000000e0: ed84 3a3c a2d5 a4bd 5c73 b9bd 0359 d6bd
000000f0: 5bf3 863d d2cd c43d bd32 9eb9 cbdb 06bd
00000100: 7b5b dfbc 5c5b 023e 20d7 4d3d d56f 093d
00000110: 0bd3 e4bd 086c 7dbd e645 35bd 9933 eebd
00000120: 5442 273d 8430 ee3d d45f cdbd b565 463d
00000130: d5cf fcbd bb25 473d 729e 82bd 60bb 14bd
00000140: 535f 87bd 8130 bbbc a1b2 9ebd 77d3 d5bd
00000150: 3190 be3c b3e4 263c 22dc 9b3d 2cb5 35bc
00000160: 2a14 8e3d 62eb bdbd b72f 11be 3747 16be
00000170: bbf6 ae3d fbdf e63c 6e23 a1bc fe54 3d3c
00000180: c099 c13d 3396 283c a32e 53bd 0483 99bd
00000190: fd09 3c3d 66e7 a83d cc47 2a3d d512 73bb
000001a0: bd5a 07be 5093 babc c02e 3e3c 4514 a73d
000001b0: 37a0 afbd 0f1b 013e e5e1 963c 849b b23c
000001c0: f8e8 f4bd c727 353d 7989 e6bd f30b b03c
000001d0: 9986 1bbd d997 d03d 92b8 a0bd 573b 673a
000001e0: ed4d b03d c695 723d 0db6 b6bd 9750 e03d
000001f0: 7061 223d 099b 39be cdb2 94bd 6df5 833d
00000200: 4046 0e3e ba73 1f3d d140 c3bb 0c01 f53c
00000210: faf7 a73b 78f9 b9bd 03a8 ce3d 7f24 c63d
00000220: d3dc 1cbd f018 d7bd ab3b 2cbe 6251 c13d
00000230: 5116 7f3d ff92 263e 85d8 e8bd f138 003d
00000240: a2df 3ebd b74f b8bd be64 99bc b566 9b3d
00000250: 0ea3 053e 5666 b13d e0d4 c03d c89b a03d
00000260: d64e f2bd 68d0 7a3d a585 11be 258b 48bd
00000270: 4cc2 a53d 37e4 9ebc 6bfe a4bc 9dc6 533d
00000280: 089e 213d b4c4 efbd 3bce bebd c073 603c
00000290: e170 113c c3eb c9bb 8174 993d 4dad 993d
000002a0: d846 a03d 9717 79bd 5de5 1d3d 54e8 eabc
000002b0: 0620 023d 4376 013e 9e30 f03d 326c e53d
000002c0: 4579 943d fb70 c1bb c663 4f3d 3c15 84bd
000002d0: 3814 d83d ab17 b6bd b97a 35bd 4c37 f13d
000002e0: 8c1e 8abb 18f8 8e3d f7d1 d03c c299 2b3d
000002f0: 2fe6 fe3b 122f 893c 462a bcbd c100 993d
00000300: 2e50 013e 6315 cf3d 0cbd 003e 8a67 923c
00000310: 0dc8 bb3d 1a66 b33d 3108 d43d a874 813d
00000320: fa3c cb3c 0cb5 533e 8c89 7fbd 02ee c03d
00000330: 59f6 92bd 1464 ca3d d8cc 4d3d 7c55 aebd
00000340: 74f1 b53c 4e97 0bbe d0e9 cbbd e9b2 acbd
00000350: 3fa3 0f3c bb12 fdbc dacf d3bd a12a c33d
00000360: 8691 9f3c d9de 083d 399e 0cbe 769f c93d
00000370: cb71 893c 73fa 6ebd c45b 4a3c bcca 1ebb
00000380: 2f97 a83d 9752 3bbc 1261 90bc 202a 7d3d
00000390: 72f1 513b f1f0 0abd 3c94 b63d efca 0b3e
000003a0: 155f 06be 5cbb 893d 4a78 c73d 4009 dc3d
000003b0: 8923 86bd 6673 8d3d eb36 b43d 35f6 063e
000003c0: f281 e63d 73ea 863d 0965 603e 656a e1bd
000003d0: 1c53 7fbb 9c87 943d f4b7 d8bd c9cf cd3d
000003e0: 8b5d 663c 1d0b 69bd e1f9 c1bd 293c e73d
000003f0: 22d1 1d3d b970 04be 39eb 0d3e 25c8 183c
-0.058131613 -0.07040965 -0.073472515 0.03426142 0.0057962374 0.11814518 0.0077831848 0.046652097
0.11261357 -0.057882786 0.013175192 0.009799874 0.060721178 0.11332964 -0.101869196 0.03431689
0.08382949 0.068033166 -0.15749225 0.08799731 -0.008473724 -0.05607073 0.084113576 -0.09990301
-0.08391606 0.11459673 0.045581985 0.15574938 -0.07830378 0.00088914216 0.14629743 -0.10384205
-0.11815047 -0.029209984 -0.13304411 -0.051628966 0.034239724 -0.10987308 0.117323846 -0.17148605
-0.058061756 0.1477503 -0.1567981 -0.13943718 0.12349147 0.10943693 0.07805519 -0.0060467846
0.17284994 -0.08618689 -0.050788622 -0.039095037 -0.045455076 0.15091804 -0.1560097 0.0690504
0.011384231 -0.0804856 -0.09055206 -0.104661964 0.06589385 0.096095696 -0.0003017391 -0.032924455
-0.027265301 0.12730163 0.050253987 0.033553917 -0.11173066 -0.061870605 -0.044256113 -0.11630935
0.04083474 0.11630347 -0.100280434 0.04843684 -0.12344328 0.048619967 -0.06377877 -0.036311507
-0.066099785 -0.022850277 -0.077489145 -0.10440724 0.023262115 0.010186362 0.076103464 -0.011090558
0.0693744 -0.09273411 -0.14178358 -0.14675604 0.08543154 0.028182974 -0.019670215 0.011555908
0.094531536 0.0102897165 -0.051558148 -0.07495692 0.045907963 0.08247261 0.041572377 -0.0037090082
-0.13218208 -0.022775322 0.011607826 0.08158163 -0.085754804 0.12607978 0.018418262 0.021802671
-0.11958498 0.044227388 -0.112566896 0.021490073 -0.03797016 0.10185213 -0.07847704 0.0008820793
0.08608613 0.059224866 -0.08921442 0.10952871 0.039643705 -0.18125547 -0.07260666 0.06443296
0.13893986 0.038928725 -0.0059586545 0.029907726 0.0051259967 -0.090807855 0.100906394 0.0967493
-0.038296532 -0.10502803 -0.16819637 0.09439351 0.062277142 0.16267012 -0.11369423 0.031304304
-0.04659999 -0.089995794 -0.018724795 0.07587949 0.13050482 0.08662097 0.09415603 0.07842213
-0.11831443 0.061233908 -0.14211138 -0.048960824 0.080937 -0.01939593 -0.020140847 0.051703084
0.03945735 -0.1170744 -0.09316679 0.013699472 0.00887701 -0.006162138 0.074929245 0.075037576
0.078260124 -0.060813513 0.038548816 -0.028675236 0.03176882 0.1264277 0.11728023 0.11202277
0.07249693 -0.005903361 0.05063226 -0.06449363 0.105507314 -0.08891233 -0.04430649 0.11778125
-0.0042150673 0.06980914 0.025490744 0.04189468 0.007778905 0.016746078 -0.091877505 0.07470847
0.12628242 0.10111501 0.12572116 0.017871637 0.09169016 0.08759709 0.10353125 0.063210785
0.02480935 0.20674533 -0.062387034 0.094203964 -0.07175893 0.0988237 0.050244182 -0.085123986
0.02220986 -0.13631937 -0.099567056 -0.08432562 0.008766948 -0.03089272 -0.10342379 0.09529615
0.01947857 0.03341565 -0.13732232 0.09844868 0.016777894 -0.058344316 0.01235098 -0.0024229726
0.08231961 -0.011433265 -0.017624412 0.06180775 0.0032034782 -0.033921186 0.08914992 0.13651632
-0.13122208 0.06725189 0.0973974 0.10743952 -0.065497465 0.06906776 0.08799537 0.13179858
0.11255254 0.065876864 0.21913542 -0.11006621 -0.003895945 0.07252428 -0.10581961 0.100493975
0.014060388 -0.056895364 -0.09471489 0.112907715 0.038529523 -0.12933625 0.13859262 0.009325062

net.layer_2.bias f4 [50]
00000000: c032 ce3d f175 4dbe bddd 5e3e a000 ecbd
00000010: 68d0 f2bc 00b7 bcbd 58f1 c33c fe35 e2bc
00000020: 597b 3bbc 8cf5 1c3e 968d 82bd 716c 3abe
00000030: b81e 233c 291a 9cbb dfba 3cbc 1d05 133e
00000040: b119 c43c 6fae 15be 9370 1c3e c13d 393d
00000050: 2f0d 11be e1f2 05be c09d b13d 9be2 0c3e
00000060: a02a e63d 5ca8 1bbd daca 4bbd c4c9 943d
00000070: 9152 29bd 26cc 9b3d 03ce 47be ec8b 0b3e
00000080: 9bef 133e f5e6 48bd 1696 3c3d 39f7 c4bd
00000090: 1343 593b aca6 583e 2363 343d 11ef 16be
000000a0: f1d3 dc3d e356 9d3d fc77 bbbd 2554 91be
000000b0: 8930 efbd b26e 1b3e 3b33 45bc 2d84 29be
000000c0: e4fa d33d e5dd aabd
0.100682735 -0.20064522 0.21764274 -0.11523557 -0.029640391 -0.09214592 0.023918793 -0.027613636
-0.011442983 0.15328044 -0.063746616 -0.1820543 0.009956054 -0.0047638607 -0.011519163 0.1435742
0.023938032 -0.14617322 0.15277319 0.04522491 -0.14165185 -0.13080932 0.086726665 0.13758318
0.11238599 -0.038002357 -0.049754 0.07265046 -0.041338507 0.076072976 -0.19512181 0.13627595
0.14446871 -0.049048383 0.04604157 -0.096174665 0.0033151552 0.2115733 0.044039857 -0.14739634
0.10782612 0.07682588 -0.091537446 -0.2838451 -0.11679179 0.15178946 -0.01203614 -0.16554327
0.10350588 -0.08343104

net.output.weight f4 [1, 50]
00000000: 37f0 113c 9855 b7bc 09a4 7b3d 32c0 d5bd
00000010: 9f80 77bc 43d6 d73c 0417 883d 0865 ddbd
00000020: dab7 9a3a 0495 463d 481a 443e 4642 323e
00000030: 06e8 f53d 7a70 d2bd f188 233d 5ef0 c23e
00000040: 6f5d 7eba 576a 06be 1087 f23d 1eee 4f3d
00000050: 88bb f2bd 07f9 6ebd 7163 2cbb 023c 543d
00000060: f710 be3d 61af 69bd 278e 9f3d c359 abbd
00000070: 8ba8 9ebc 9533 b9bc e02e c0bd c3a9 833e
00000080: a045 d13c ed93 673d 5e0a 2dbd e282 eebd
00000090: 0525 f8bb 551a 173d f7ea e43d a480 b9bd
000000a0: e0a9 5ebe 3684 8b3d dcc7 193c d83d e6bd
000000b0: 1fb2 f23d 95fd 053e 0226 d0bd d507 3ebd
000000c0: 3fb9 c6bd 5c93 ccbd
0.008907369 -0.022379681 0.061435733 -0.10437049 -0.015106349 0.026347285 0.06645015 -0.10810286
0.001180406 0.048481956 0.1915065 0.17408094 0.120071456 -0.102753595 0.03992552 0.3807401
-0.0009703254 -0.13126503 0.118421674 0.050764196 -0.11852175 -0.05834296 -0.002630439 0.05181504
0.092805795 -0.05705202 0.07790785 -0.0836673 -0.019367477 -0.022607604 -0.09383941 0.25715455
0.025545895 0.056537557 -0.042246215 -0.11646058 -0.0075727724 0.036890347 0.111776285 -0.090577394
-0.2174449 0.068123266 0.009386029 -0.112422645 0.1185038 0.13085015 -0.101634994 -0.046394188
-0.09703302 -0.09989044
