burgers/trained_models/Conv_Anal/u_1_1/Conv_Anal_Final_wpinn_burgers_0_2_20000.pth (torch, 5128 bytes, 5 tensors)

net.layer_0.weight f4 [20, 2]
00000000: 2366 803f 440b c63f 4c38 44c0 eec7 86bd
00000010: 1cc0 a4be dae1 e53f 2d22 fd3e 3052 80bf
00000020: 11ce 18be 3e7d 853f 8e3a 8bbe cb96 273d
00000030: 1534 f13f d2fe 6fbf 4162 6dbf fc20 543f
00000040: 3fc8 92be ac83 46c1 1f9d 2bbe d601 27c0
00000050: 8bbe dabe 9ff0 f2be b1db 563c f39c 2b3f
00000060: 0bab 43bf 776e 1ebf 015b 0abf 8a26 473f
00000070: f020 1f3e 6c6f c5bf 2787 89bf 093c 9e3f
00000080: a0d0 f53e c375 bf3e 92d9 a6bd c186 b4bf
00000090: 6837 3ebf c010 773f 8b84 2bbf 2a7d afbf
1.003117 1.5472188 -3.065936 -0.06581102 -0.32177818 1.795955 0.49440137 -1.0025082
-0.14922358 1.0428846 -0.2719311 0.04091529 1.8844019 -0.937482 -0.9272805 0.8286283
-0.286684 -12.407146 -0.16759156 -2.609487 -0.42723498 -0.47449204 0.013113902 0.6703636
-0.76432866 -0.61887306 -0.5404511 0.7779318 0.15539908 -1.5424628 -1.074437 1.2362071
0.4801073 0.37394533 -0.08146967 -1.4103624 -0.74303293 0.96509933 -0.6699912 -1.3710072

net.layer_0.bias f4 [20]
00000000: 2ea4 98bf 2ec1 2c3f 9ab5 b83e 0da3 7ebf
00000010: 1d0f 123c 451e 4fbf 96a6 01bf 2274 7abf
00000020: 6a1c 633e 6f46 233e 40f1 39bf 2b81 44bf
00000030: feae 4ebf 51a9 033f 5710 d4be 99e2 693f
00000040: 196e 5a3e fb9b 49be d451 2c3f ebe4 683f
-1.1925104 0.6748227 0.3607605 -0.99467546 0.008914736 -0.8090556 -0.50644815 -0.97833455
0.22178808 0.15944837 -0.72633743 -0.76759595 -0.80735767 0.5143023 -0.41418716 0.91361386
0.21331061 -0.19688408 0.6731236 0.909743

net.layer_1.weight f4 [20, 20]
00000000: 6c6e debd f3b3 d53d 4087 043e fd8a bc3d
00000010: ae0c 063d e0d8 80bd 93ec 8f3e 5933 b93d
00000020: c864 c23e e8a8 c63d cc3e 8f3e ff90 6e3e
00000030: ad6c aebd 7d3d 093d e3e0 8abe 6bb2 963d
00000040: fcf0 2dbe e292 a5bd a2aa b5be 1bf6 403e
00000050: 6e20 c5be 09bc c53c 2c38 053e 97a7 14be
00000060: 165b dbbd 9c22 90bc fc88 72be d224 95be
00000070: cce1 0bbe 229b 203e 2813 213e e6ac bbba
00000080: 89b6 a63d 6734 05bd e1c4 c4be 63c7 26be
00000090: 4e7c 67be c47f 0cbf 2d4c c6bc 5cfa dc3d
000000a0: 1764 31bf 1e51 11bf 148b 6fbf 96ff 433e
000000b0: baa9 0bc0 684f 69be 0996 cb3e 1b87 95be
000000c0: b39e 7040 7b19 2c40 60f3 50bd 2268 8dbe
000000d0: 6d93 943d c2ba 04bf 65bc 083f 9975 c6be
000000e0: 40ac b6be 974e 613f 3fde 21be b4e6 533f
000000f0: 985d 963e 4da5 af3f e3f7 c03e 685d 7bbf
00000100: 1bd6 e23e 7357 fdbe 2c77 8abf d22e 90be
00000110: 4548 52bf 08e5 2ebf fb43 c4be f6ce 27bf
00000120: 726a 0fbd 837a 2b3e 113d 17bf 9f2f 083f
00000130: a126 5abe b2bc d6be 8a7e c03e 765f f6be
00000140: 9213 373e c609 b93e f48e dd3d ff51 9f3d
00000150: 98d0 92bd 8813 7e3e df19 4ebe bd95 18bc
00000160: 1f05 bfbe c1fa 9ebd b7f7 133e 074e 01be
00000170: f5b6 e23c a7b1 213e be35 1a3d 44df 4fbe
00000180: 9eab 303c 0315 2f3e 2bd4 f73b d179 5d3e
00000190: 3c55 a13e cc32 41be ecb6 99bd 14a4 f83d
000001a0: fc57 203e 43a5 433e 77b1 85be 157f 933e
000001b0: 7dd8 40be d104 b9be 2f25 6cbe f914 06be
000001c0: a504 343e 9a13 593e c0f5 f93d 2e81 f83d
000001d0: a2a7 f4bd 22e2 823e d509 863d f5de 18be
000001e0: eccf 023f 4ec2 c9bf b6fb 0e3f f037 c2bd
000001f0: d90d f83e 8e97 033f 393d 883d 4362 953e
00000200: b99c e9bf e49e 86be 7832 bd3e ba2a af3e
00000210: 24e0 313e 6319 e33c 647a dbbe 7e0d ce3e
00000220: bc74 2cbe 7ca7 c7be 3d2d f03e e105 30bf
00000230: 56c2 893d 4f07 4dbd c977 fcbd 7ebd 49be
00000240: 26f4 ca3e 7f1f fe3d 0495 0cbe 5473 bebc
00000250: ff7f cdbe 397c 16be f36f 8bbe af48 dc3d
00000260: f760 023e 9ddc 9e3e 3d77 8e3e 56bd c73a
00000270: c38b cdbd 4631 033e f1d7 193e 1aaf 1dbe
00000280: ca33 c93e 0960 2fbf 1682 a13e 706c 653c
00000290: 1768 db3e 7de0 ddbd 5709 c63e a9e4 263f
000002a0: 040a 8fbe c5ce e8be b600 e2bc 0e71 953e
000002b0: 4e62 583c 5356 7a3d e452 a0be 4f7e c23d
000002c0: 933c 993e 2706 cdbe a03a 93bd 0970 36bf
000002d0: cd1f cf3e af97 05be 7961 67be 6131 c13f
000002e0: 6c1e 65be 56c5 b33e 0465 d63d c9f0 873e
000002f0: 7292 453e 1740 823e 31dd 543f a877 b93e
00000300: 10f5 313f b939 31bf 7002 143f 43b2 27bf
00000310: 468a 28bf af1e 4a3e 317b 1cbf f1d3 febd
00000320: 7603 aa3f db93 89be d5f6 c33f a1ce a1be
00000330: c4e4 cd3f de2b 3c3e 4d6e 06be c276 36bd
00000340: 20d9 25c0 02cc f2bf 22c5 973d 5171 143f
00000350: c21a 073e 7e2a 4a3f c8ab 96bf a774 553f
00000360: 25bd 593e 7dbc 88bf e957 463f 5f3c c0bf
00000370: c39c 863f 6a5a 883f 7939 903d e80a 40bf
00000380: 8be3 a83e 2f65 73be eeb6 09bf ac68 b3be
00000390: 3ae7 d6bf 7751 4bbf 0987 53be 1920 d1be
000003a0: c94d f93a 782e 2c3f def2 b13e 14ab 583f
000003b0: 03d2 a1bc 632c 1c3f 0e57 3a3f c239 92bf
000003c0: 906a afbd e2f8 b23f 6efd e83d e094 573f
000003d0: 4d3d ddbd 0e12 b33e 1826 5ebe 5305 993c
000003e0: 8676 91be 71e2 5fbe e68b 423f b999 c23e
000003f0: cf9b 433f cc1f 65be 8653 ff3b a7e6 9fbe
-0.10860905 0.10434713 0.12942219 0.092061974 0.032726936 -0.062913656 0.2811018 0.09042997
0.37967515 0.09700185 0.27977598 0.23297499 -0.08516822 0.033505905 -0.271247 0.07358249
-0.1698646 -0.08084656 -0.35481745 0.18843882 -0.38501304 0.024137514 0.13009709 -0.14517055
-0.10710733 -0.017594628 -0.23685068 -0.29129654 -0.13660353 0.15684178 0.15729964 -0.0014318496
0.081402846 -0.032520678 -0.38431457 -0.16286997 -0.22606012 -0.54882455 -0.024206245 0.1078994
-0.6929335 -0.567644 -0.9357159 0.19140467 -2.1822343 -0.22784197 0.39762905 -0.2920464
3.7596862 2.6890552 -0.05101335 -0.2761851 0.07254682 -0.5184747 0.5341247 -0.38761595
-0.3567829 0.88010544 -0.15807436 0.827739 0.2936828 1.3722321 0.37689123 -0.981894
0.44303975 -0.4948078 -1.0817618 -0.2816072 -0.82141525 -0.68318224 -0.38333115 -0.6555017
-0.035013624 0.16745953 -0.59077555 0.53197664 -0.21303798 -0.41940838 0.37596542 -0.48119706
0.17878559 0.3614027 0.10818282 0.077793114 -0.07168692 0.24812138 -0.20127057 -0.009313044
-0.37308595 -0.07762671 0.14449964 -0.12627421 0.027675131 0.15790425 0.03764891 -0.20300013
0.010783104 0.17097859 0.007563134 0.216285 0.3151034 -0.18867034 -0.07505593 0.121406704
0.15658563 0.19106011 -0.26111957 0.28807893 -0.18832584 -0.36136487 -0.2306106 -0.13093938
0.17579897 0.21198884 0.12205076 0.12134014 -0.11946036 0.2556315 0.06544844 -0.14928801
0.51098514 -1.5762422 0.5585283 -0.094833255 0.48448065 0.5140313 0.06652302 0.2917653
-1.8250953 -0.262931 0.36952567 0.34212285 0.17370659 0.027722066 -0.42866814 0.4024467
-0.16841406 -0.38994968 0.46909514 -0.6875897 0.0672652 -0.0500558 -0.12327535 -0.19701192
0.39639395 0.12408351 -0.1372872 -0.023248352 -0.40136716 -0.14695825 -0.27233848 0.10756051
0.12732302 0.3102769 0.27825347 0.0015238922 -0.10036423 0.12811765 0.15023781 -0.15398827
0.39297324 -0.68505913 0.3154456 0.014002904 0.42852852 -0.10833833 0.38679 0.6519266
-0.2793733 -0.45470253 -0.02758823 0.29187816 0.013207031 0.06111748 -0.3131324 0.09496748
0.29929027 -0.40043756 -0.07188916 -0.712647 0.4045395 -0.13046144 -0.22595777 1.5093194
-0.22374886 0.35111493 0.10468486 0.26550892 0.19294146 0.25439522 0.8315001 0.36224103
0.6951456 -0.692287 0.5781622 -0.6550638 -0.6583599 0.19738267 -0.61125475 -0.12442768
1.3282306 -0.26870617 1.5309702 -0.31602958 1.6085439 0.18376109 -0.13128014 -0.04454685
-2.5913773 -1.8968508 0.07410647 0.5798541 0.13193801 0.7897109 -1.1771173 0.8338112
0.21263559 -1.0682522 0.7747789 -1.5018424 1.051659 1.0652592 0.07042212 -0.7501664
0.32986102 -0.23769067 -0.53794754 -0.35040796 -1.6789315 -0.7942118 -0.2065698 -0.408448
0.0019020374 0.67258406 0.34755605 0.84636045 -0.019753462 0.6100523 0.72789085 -1.1423876
-0.08565247 1.3982203 0.11376463 0.8421154 -0.10802708 0.34974712 -0.21694219 0.018679297
-0.2841074 -0.21863724 0.7599472 0.38007906 0.7640962 -0.22375411 0.007791939 -0.3123066

net.layer_1.bias f4 [20]
00000000: 35c4 3e3d c834 10be 4b2e 2d3e 6665 463f
00000010: 0d01 183e a8bd dbba 19ae 89be e8ea 843d
00000020: 94d0 16be 828d adbe 0afd 8d3b 6733 013f
00000030: 0bf0 f7be 7c42 893e c5ca ee3c 220b b4be
00000040: 1dd4 b43e d3f6 c83d 8da8 4dbd 67be 8cbe
0.046573836 -0.14082634 0.1691219 0.7749847 0.14844151 -0.0016764896 -0.26890638 0.06490117
-0.14728004 -0.33897024 0.004333143 0.5046906 -0.48425326 0.26808536 0.029149422 -0.35164744
0.3531808 0.09812703 -0.05020957 -0.27489015

net.output.weight f4 [1, 20]
00000000: 3c72 94be 7ee1 debe 5ef9 0ebf 343a f73d
00000010: ca11 a93d a655 873e 57ba d7be 2e90 6e3e
00000020: fe64 0abf 5ea4 a2be e9ef 58bf 56b2 f7be
00000030: 0cec a3be 177b 983e af25 81be 2923 cabe
00000040: 31fc dc3e 054c c7bd aa08 213f 19f0 e53e
-0.28993404 -0.43531412 -0.55849254 0.12071648 0.08255346 0.26432532 -0.42134354 0.23297188
-0.5406035 -0.31766027 -0.84741074 -0.48378247 -0.32016027 0.2978141 -0.25224063 -0.3947995
0.43161157 -0.097312964 0.62903845 0.44909742
