burgers/trained_models/Conv_Anal/u_1_1/Conv_Anal_Final_wpinn_burgers_0_2_100.pth (torch, 5108 bytes, 5 tensors)

net.layer_0.weight f4 [20, 2]
00000000: 3849 c13e 7c94 cd3e 9acd 37bf 277d 183e
00000010: 16c8 0cbf 85b1 3c3f 9150 05be a111 c7be
00000020: b4b7 f5be edb1 ee3e dfa7 7bbe 785f e3bd
00000030: 1c94 353f 5af1 60be 6a63 08bf 6221 523e
00000040: b1a0 7b3e 060a 1abf 71a3 aa3e 6f52 0cbf
00000050: 0bca b4be 712f f6be d84f 20be ce09 723d
00000060: 3a41 cabe c87f e4be a351 90be 1c78 893e
00000070: e859 f9bc c52c 47bf 7d9d 30bf b11d 0f3f
00000080: 5f21 283e 5a33 b03e ccfc d5bd 55ac 43bf
00000090: 54e3 19bf abf9 ed3e 6acb 1fbe 50be a9be
0.37751174 0.40152347 -0.717981 0.14891492 -0.54992807 0.73708373 -0.13019015 -0.38880637
-0.47991717 0.46620122 -0.24575756 -0.111021936 0.7092912 -0.21967068 -0.53276694 0.20520547
0.24573018 -0.60171545 0.3332782 -0.54813284 -0.35310397 -0.4808307 -0.15655458 0.05909138
-0.3950289 -0.4462874 -0.28187284 0.2684945 -0.030438378 -0.7780269 -0.6899031 0.5590468
0.1641898 0.34414178 -0.10448608 -0.7643483 -0.601125 0.46479544 -0.1560494 -0.3315301

net.layer_0.bias f4 [20]
00000000: 862b 2bbf 19c4 b73e b7a1 3a3d 7bcb ffbe
00000010: 137d b03d 8439 f3be 8067 7abe 1536 b9be
00000020: b515 8dbe ee8e 22be 0fdc 15bf 18d7 ffbe
00000030: 28f7 20bf f5bf df3e 75a6 c3be 3597 1c3f
00000040: 5b0f d23e 9f7a bbbe 6241 d73e e700 c1bc
-0.66863286 0.35891798 0.04556438 -0.4995993 0.08617606 -0.47504818 -0.24453545 -0.36174074
-0.27555624 -0.15874836 -0.5853891 -0.4996879 -0.6287713 0.4370114 -0.38212934 0.61168224
0.4102734 -0.3661699 0.4204207 -0.02356

net.layer_1.weight f4 [20, 20]
00000000: cf8b 6fbc aea3 c53d 533a 3e3e 6435 91bb
00000010: 5296 503e 28b6 00be 5ea7 3b3e 0b99 0f3e
00000020: 80bd 4f3e 99c5 aabb f6a5 4f3e 72f7 463e
00000030: b5b8 17be 9a4f 433e 1a61 32be 5988 3c3e
00000040: 8232 2cbe 4f0c c13c 96df 5dbe e29f 853d
00000050: 2a6c edbd a37b ffbd 7296 6ebd 4f4c 33be
00000060: dc28 71bd 1226 74bd 2291 11be a229 c4bd
00000070: 7c88 88bd 24bf 6b3e 670b ae3d 8037 74ba
00000080: 7b77 a93c 8249 2d3d 7756 413c 372e 1cbe
00000090: b3f4 42be 58ed 1dbe 1aa0 a73c 9f99 37bd
000000a0: bb10 06be 8c52 ba3d a119 1b3e 224f 843d
000000b0: 8938 063e e37f 00be 2a0d 8cbd 6939 d23d
000000c0: 1010 7a3e ba7a 8f3d 1e27 2dbe 5f49 47bc
000000d0: eb0c 5fbd 5cc8 24be a35e 6ebd 1dd8 e3bd
000000e0: f9a2 943c f9f0 a7bc 2e65 263e b572 14be
000000f0: f900 b23c b54f 6f3e b82c bdbc 8226 67be
00000100: 5a42 4d3d 9153 803d 9368 69be f768 c93d
00000110: bf92 46bd 5b8e 3ebe f856 ef3c 024e 06be
00000120: 48d5 5c3e 4dfb 12be a01c 31be 9167 a43d
00000130: 2458 543d a985 55bd f2e3 cab8 1d84 e1bd
00000140: d095 3e3e 3df4 443e ad83 8bbd 9ccc 703c
00000150: 56bb 4dbe 9e38 553e dc9c d7bd dbb7 bdbd
00000160: 6aea e0bd bb54 6a3d 8aa2 a33d f151 30be
00000170: e9d0 47bd e1bc ce3d 38e7 0d3d 6b6f 61be
00000180: a6d4 e43d 4be7 3b3e eece 09bd 7e2a 403e
00000190: 3626 143e 4ca3 0abe 907a dcbd 9d6a 453e
000001a0: 54be 8bbc c58f 423e 10cf 63be d2e3 3a3e
000001b0: 3a62 063d 3f90 62be 1117 47be 0053 34be
000001c0: 7b2a 523e b7f6 bd3d b99d 7d3d 8245 7cbc
000001d0: 494c 52be 7df1 393e e7aa 85bd c774 033c
000001e0: 1947 b83a e061 363e 83d2 293e 2940 b7bb
000001f0: 70e5 813e 6abf 5a3e 086a 41bd 8fcd 6f3e
00000200: f4d8 08be 3f11 77be 4982 433e 38c6 a73c
00000210: 80c4 8bbc 351a 29be 9087 f1bd 3ea8 08be
00000220: 0183 cfbb fac5 5abe 983f ce3d 9692 adbb
00000230: 8379 21bd b446 f1bd 8dcd 77be 7482 eebd
00000240: 6a24 103e 59c3 1c3e 40f9 823d 0d29 fcbd
00000250: 24f7 fdbd b0c6 143d 2f21 61be c824 ea3d
00000260: ec46 253e 802c ec3d 2c93 523e 9fcb 12be
00000270: 80dc 6abd d252 683d 4daf b4bc 01bc 8b3b
00000280: 92ea 333e 6ec6 3bbe 1b38 183e b4fe 2c3d
00000290: aa11 0b3e c579 4bbe aeb3 e83d 5572 503e
000002a0: 87c6 51be 62ff 34be 6d15 7e3d 5206 c83d
000002b0: 3fcc db3d 6203 043d 0ec7 d2bd e9a0 033e
000002c0: fb0e 613d 5695 2cbe 5a2e 15be 96be 56be
000002d0: a404 783d 3f9e b5bc 513c 66bd 39d4 093e
000002e0: 8dad 183c ac7d a33d 0949 d1bd c222 783d
000002f0: 7ac7 b83d d630 943d 08d1 453e f7e9 1d3e
00000300: b683 f5bc 7590 68be ac72 7c3e 7b6c 48be
00000310: 121a 593e 2ce0 d4bc ed99 05be 3c3d 6bbb
00000320: e23a ab3d d036 43be d8ca 7c3e ba4f a63d
00000330: 4830 393e 2560 8bbc 722f 643d 97e5 2ebe
00000340: 06bc 26be 5d1c debd 79b7 a23c de48 773e
00000350: ebf9 983b 7f98 303e a573 44be 992a 42bd
00000360: 3536 273d ef5c 17be 9c6f 463d 3ea9 21bd
00000370: e0f6 11bd 411b d3bd 453b 343e 8a3d 3fbe
00000380: b7d7 f83d a234 2b3e aec1 10bd b234 083e
00000390: 4a35 c6bd 02dd 60be dc7c bd3d b5c8 e2bd
000003a0: e56f 313e c8a2 d53d 2103 aebc d6b2 bcbd
000003b0: f195 f4bd 030f 8fbc a7e4 c73b bf87 3ebe
000003c0: 8333 98bd f652 803d c26f 403d 2bf4 603e
000003d0: 22b3 b2bd 3969 d03c 0143 8fbd 7e81 d4bd
000003e0: b373 5bbe 7f29 b7bd 8a7a ba3d 4e78 1a3e
000003f0: 832f 47bd ca9b 7f3d a8f7 7d3d fe5f 4ebd
-0.014620735 0.0965036 0.18576936 -0.0044314135 0.20369843 -0.12569487 0.18325564 0.14023225
0.20287132 -0.0052115438 0.20278153 0.1943033 -0.14816554 0.19073334 -0.17419854 0.18411388
-0.16816142 0.02356544 -0.21667323 0.06524636 -0.11592896 -0.12474754 -0.058248945 -0.17509578
-0.058876857 -0.05960662 -0.1421552 -0.09578253 -0.06666657 0.23022133 0.084982686 -0.00093161315
0.020686856 0.04230643 0.0118004 -0.15252005 -0.19038658 -0.1542257 0.020462085 -0.04482424
-0.1309232 0.09097776 0.15146495 0.06460406 0.13107504 -0.12548785 -0.06838448 0.10264856
0.2442019 0.0700583 -0.16909453 -0.012163489 -0.05445568 -0.16092056 -0.05819572 -0.11125205
0.018144118 -0.020500647 0.16249534 -0.14496882 0.02172898 0.2337025 -0.023092613 -0.22573283
0.050112106 0.06265939 -0.22793798 0.098344736 -0.04847979 -0.18608992 0.029216275 -0.13115695
0.21565735 -0.14353676 -0.17296076 0.08027566 0.05184187 -0.05212942 -9.674569e-05 -0.11011527
0.18611836 0.19233795 -0.068122245 0.01469722 -0.20090994 0.20822379 -0.105279654 -0.09263583
-0.10982211 0.05720971 0.07989986 -0.17218758 -0.048783217 0.100946195 0.034644336 -0.22015159
0.11173372 0.1834995 -0.03364461 0.1876621 0.14467701 -0.13538855 -0.107655644 0.19278951
-0.017058529 0.19000156 -0.22246957 0.18250969 0.03280852 -0.22125338 -0.19442393 -0.17609787
0.20524018 0.09275573 0.061917994 -0.015397431 -0.20536913 0.18158527 -0.06526738 0.008023447
0.0014059275 0.17810774 0.1658421 -0.0055923653 0.2537036 0.21362081 -0.04722026 0.23418258
-0.13364011 -0.24127673 0.19092669 0.02048026 -0.017061472 -0.16513903 -0.117934346 -0.1334543
-0.0063327556 -0.21364585 0.10070723 -0.0052970154 -0.039422523 -0.11781064 -0.24199505 -0.11645976
0.14076391 0.15308894 0.06395197 -0.12312517 -0.12400654 0.036322296 -0.21985315 0.11432797
0.16140336 0.11531925 0.20563954 -0.14335488 -0.05733919 0.05671961 -0.022056246 0.004264355
0.1756995 -0.18337414 0.14865153 0.04223509 0.13580957 -0.1987067 0.11362396 0.20356114
-0.20485888 -0.17675546 0.062032152 0.097668305 0.10732316 0.03222979 -0.10291873 0.12854351
0.054945927 -0.16853842 -0.14568463 -0.2097114 0.0605513 -0.022170184 -0.056209866 0.13459863
0.0093187215 0.079829544 -0.102190085 0.060580023 0.09022422 0.07235877 0.1931802 0.15421282
-0.029970031 -0.22711356 0.24653119 -0.19572632 0.21201351 -0.0259858 -0.13047 -0.0035894653
0.083608404 -0.19063878 0.24686754 0.081206754 0.18084824 -0.017013619 0.05570931 -0.17079769
-0.16282663 -0.108452536 0.019862877 0.2414889 0.0046684644 0.17245673 -0.1918474 -0.047403906
0.04082318 -0.14781545 0.048446283 -0.039468043 -0.03563583 -0.10307933 0.17600735 -0.18675819
0.12150519 0.16719297 -0.035340957 0.13301352 -0.09678133 -0.21959308 0.09252331 -0.11073438
0.1732784 0.10431439 -0.021241726 -0.09213798 -0.119426616 -0.017463213 0.0061002555 -0.1860647
-0.074317 0.062658235 0.04698158 0.21968143 -0.08725573 0.0254408 -0.06995202 -0.10376261
-0.21430854 -0.089434616 0.09105404 0.15084955 -0.048629295 0.06240443 0.06200376 -0.050384514

net.layer_1.bias f4 [20]
00000000: cdf1 d63d 85b7 adbd 9da5 ca3d 648d 583e
00000010: 1f86 2d3e 1e3b 80bb 507b 963c 6812 ee3c
00000020: eb58 a9bd 0feb b0bd 39e2 143e 2d49 0b3e
00000030: 4a3f 4cbe 29bd 513e 50ee 29be 7148 3cbe
00000040: 39be 6f3e cf83 c4bb c581 0a3e ba96 b7bd
0.104953386 -0.08482269 0.098948695 0.21147686 0.16945694 -0.0039132973 0.018369347 0.029061511
-0.08268913 -0.08638584 0.14539422 0.13602133 -0.19946018 0.20482315 -0.16594815 -0.18387009
0.23412408 -0.005997158 0.13526066 -0.08964296

net.output.weight f4 [1, 20]
00000000: 84d8 1cbe d182 97bd 6165 b8bd 9866 393d
00000010: a595 0fbc ab3c 553e 0074 82be 56b6 4e3d
00000020: 666a 3bbe 7c9b 5dbd e000 54be 9080 0ebd
00000030: d7de 2dbd 0d4f 063e 55d7 48bd 7de8 0fbc
00000040: 4d9b 4b3e c257 2f3d e52b 073e 3cba 8d3c
-0.15316969 -0.07397998 -0.090037115 0.045263857 -0.008763705 0.20823924 -0.25479126 0.050466858
-0.18302307 -0.05410336 -0.20703459 -0.034790576 -0.042448845 0.13116093 -0.04903348 -0.008783457
0.19883461 0.0428083 0.13200338 0.017300718
