burgers/trained_models/Conv_Anal/u_1_0/Conv_Anal_Final_wpinn_burgers_0_1_500.pth (torch, 2560 bytes, 3 tensors)

net.layer_0.weight f4 [5, 2]
0	0xbe4bfdf1	-0.1992109
1	0xbf07d925	-0.5306571
2	0x3f878b60	1.0589409
3	0xbf1b34e8	-0.60627604
4	0xbea45b4d	-0.32100907
5	0x3f151794	0.582391
6	0xbeb141e9	-0.34620598
7	0x3f2c8253	0.6738636
8	0x3f6ebd0b	0.93257207
9	0xbead679a	-0.33868104

net.layer_0.bias f4 [5]
0	0xbe60a9a7	-0.21939717
1	0x3f0a7754	0.5408833
2	0x3f0870f8	0.53297377
3	0x3ef86355	0.48513284
4	0xbf39331c	-0.7234361

net.output.weight f4 [1, 5]
0	0x3e0b0379	0.13575543
1	0x3f072431	0.527896
2	0xbe10443f	-0.14088534
3	0xbdfd7ebf	-0.123776905
4	0xbec3864e	-0.38188404
