burgers/trained_models/Conv_Anal/u_1_0/Conv_Anal_Final_wpinn_burgers_0_1_250.pth (torch, 2560 bytes, 3 tensors)

net.layer_0.weight f4 [5, 2]
-0.0262779 -0.40934065 0.693062 -0.34498742 -0.43700376 0.6141593 -0.4541229 0.6013916
0.8344589 -0.13505653
00000000: c044 d7bc 1995 d1be 836c 313f 31a2 b0be
00000010: f5be dfbe 8b39 1d3f cc82 e8be cdf4 193f
00000020: 199f 553f 424c 0abe

net.layer_0.bias f4 [5]
-0.19372897 0.59627414 0.58255464 0.5407681 -0.72307765
00000000: e360 46be 6ca5 183f 4d22 153f c76f 0a3f
00000010: 9e1b 39bf

net.output.weight f4 [1, 5]
0.11255153 0.46040747 -0.16504642 -0.14687683 -0.35540774
00000000: 6b81 e63d 87ba eb3e ee01 29be e166 16be
00000010: 01f8 b5be
