burgers/trained_models/Conv_Anal/u_2_4/Conv_Anal_Final_wpinn_burgers_1_5_3000.pth (torch, 45118 bytes, 5 tensors)

net.layer_0.weight f4 [100, 2]
-0.17701356 0.42666802 -0.70629126 0.8168446 0.6003762 0.0088721905 -0.78663504 1.1110139
0.24896748 -0.37505728 -0.08905075 0.5134747 -0.5866442 -0.07939536 0.09579773 0.1372241
-0.2947216 -0.678168 -0.69450456 -0.28564712 -0.6101782 0.85550725 -0.6246483 0.10728992
-0.50582963 0.8274033 -0.059740517 0.826366 0.055701055 0.055881504 -0.51110953 0.91937196
0.81261617 -0.951131 -0.5832919 0.758379 -0.24269058 0.92454696 -0.47250894 0.32751048
-0.042964377 0.24680364 0.5578929 -0.7500223 -0.58797264 0.7554677 -0.20366444 -0.17281546
-0.24459743 1.1862056 0.33399022 -0.09491492 -0.4330664 0.50144553 0.09663501 0.45207596
-0.045328718 0.3249892 0.11701253 -0.6020695 0.15614283 -0.14812326 0.15701915 -0.20700131
-0.52839464 0.08851657 0.9599449 -1.6934454 0.12662022 0.9659614 0.3498615 -0.6877831
-0.73735416 0.899683 -0.15565027 -0.6386854 0.78525686 -1.2189294 0.56140125 0.061608333
-0.23828246 -0.4761132 -0.029840864 -0.28669766 -0.3613748 0.9433003 0.16145243 -0.33787745
0.5477972 -0.616439 -0.2801961 -0.632646 0.3812535 -0.856126 -0.25896496 -0.71670896
-0.6271386 -0.5316277 0.17646581 0.21026367 -0.24053955 0.7741666 0.7770645 -0.56058896
-0.009042788 0.24033387 0.13276151 -0.32467154 0.79652977 -0.61536664 0.10201926 -0.73115593
0.51534545 -0.6856926 -0.78716075 0.91037524 -0.070887655 -0.69804704 0.81307536 -1.1649071
-0.4056268 -0.15287745 0.4968549 -0.48227918 -0.032707255 0.64702153 0.19201437 -0.8601443
-0.23729007 0.68782556 -0.035421114 1.0069504 0.6391675 0.017557021 0.49418715 -0.64546704
-0.7635936 0.39331153 0.21125674 0.041539617 0.64372265 -1.0711445 -0.5261825 -0.5341969
-0.622689 0.9674461 0.97203934 -0.89620113 -0.498352 0.8909992 0.07472892 0.7724962
-0.32309106 -0.35130528 0.20433566 -0.36307633 0.17218661 -0.6999013 -1.2065883 0.6436532
-0.619521 -0.12942046 -0.035078544 0.804171 0.06480956 1.2266247 -0.2136475 -0.75492513
0.19605093 1.0117381 0.36629245 -0.34773266 -0.3874561 1.2084327 -0.041593973 0.44257733
-0.7424838 -0.07645881 0.8344665 -0.7251085 -0.89716476 0.92112243 0.5295087 0.32451355
0.22065523 -0.16743246 -0.7081581 0.14074592 0.18464933 -0.6199817 0.29140288 -0.23993655
0.22906445 0.7540086 0.118340634 0.6880339 -0.044742536 -0.74986285 -0.06707207 -0.5747008
00000000: 0b43 35be 3b74 da3e 81cf 34bf ba1c 513f
00000010: 41b2 193f aa5c 113c ea60 49bf b435 8e3f
00000020: 55f1 7e3e 8207 c0be 3d60 b6bd 1473 033f
00000030: 502e 16bf 099a a2bd 9a31 c43d 7984 0c3e
00000040: c0e5 96be 6b9c 2dbf 0dcb 31bf 5740 92be
00000050: a334 1cbf 8602 5b3f f3e8 1fbf d1ba db3d
00000060: 0d7e 01bf b4d0 533f 79b2 74bd b98c 533f
00000070: ca26 643d 01e4 643d 13d8 02bf f65b 6b3f
00000080: 9d07 503f 527d 73bf 9e52 15bf 2025 423f
00000090: e183 78be 1caf 6c3f b1ec f1be 74af a73e
000000a0: 6afb 2fbd 18ba 7c3e 12d2 0e3f 7601 40bf
000000b0: 6085 16bf 5566 413f 698d 50be 89f6 30be
000000c0: c077 7abe 96d5 973f c400 ab3e c162 c2bd
000000d0: e1ba ddbe bc5e 003f 93e8 c53d 8076 e73e
000000e0: 9baa 39bd fc64 a63e 44a4 ef3d 3a21 1abf
000000f0: e8e3 1f3e a0ad 17be a1c9 203e 27f8 53be
00000100: df44 07bf 2d48 b53d f3be 753f d2c2 d8bf
00000110: bba8 013e 3f49 773f 0c21 b33e 8e12 30bf
00000120: 3ec3 3cbf a051 663f c962 1fbe e380 23bf
00000130: 9806 493f e105 9cbf feb7 0f3f 0559 7c3d
00000140: 5100 74be 1cc5 f3be d474 f4bc 09ca 92be
00000150: 1e06 b9be 217c 713f c953 253e 46fe acbe
00000160: 703c 0c3f f2ce 1dbf dd75 8fbe 17f5 21bf
00000170: a933 c33e 132b 5bbf 0e97 84be 3d7a 37bf
00000180: 288c 20bf c118 08bf 74b3 343e 5c4f 573e
00000190: 0050 76be c82f 463f b3ed 463f c282 0fbf
000001a0: 3428 14bc 151a 763e a2f2 073e 593b a6be
000001b0: 60e9 4b3f ab88 1dbf 79ef d03d 092d 3bbf
000001c0: aeed 033f 8d89 2fbf 5e83 49bf 5a0e 693f
000001d0: 8c2d 91bd 36b3 32bf b525 503f ad1b 95bf
000001e0: 51ae cfbe e88b 1cbe c463 fe3e 4ced f6be
000001f0: 0bf8 05bd 34a3 253f 6a9f 443e 6b32 5cbf
00000200: 2bfc 72be 5615 303f bb15 11bd c0e3 803f
00000210: 7ba0 233f bed3 8f3c 1906 fd3e 543d 25bf
00000220: df7a 43bf 2160 c93e b053 583e 7225 2a3d
00000230: 02cb 243f 431b 89bf e5b3 06bf 21c1 08bf
00000240: 8c68 1fbf 8caa 773f 92d7 783f 706d 65bf
00000250: fe27 ffbe 8618 643f 7a0b 993d 50c2 453f
00000260: 316c a5be 49de b3be 5e3d 513e 24e5 b9be
00000270: b051 303e bb2c 33bf 7c71 9abf 75c6 243f
00000280: ee98 1ebf cc86 04be 85ae 0fbd 27de 4d3f
00000290: e0ba 843d 0a02 9d3f 69c6 5abe c642 41bf
000002a0: 93c1 483e a280 813f af8a bb3e 040a b2be
000002b0: a560 c6be ecad 9a3f 715e 2abd 7f99 e23e
000002c0: 6b13 3ebf 7096 9cbd 999f 553f b6a0 39bf
000002d0: 97ac 65bf aece 6b3f e28d 073f a426 a63e
000002e0: 72f3 613e 6a73 2bbe d949 35bf b31f 103e
000002f0: b714 3d3e 1fb7 1ebf c232 953e edb1 75be
00000300: df8f 6a3e b506 413f 935c f23d fd22 303f
00000310: f343 37bd 03f7 3fbf 155d 89bd 971f 13bf

net.layer_0.bias f4 [100]
-0.46162093 -0.01282406 0.1308607 0.16018865 0.4919321 -0.10904467 0.16130546 0.31475675
0.2166221 0.12253773 -0.4270125 -0.25399813 0.0042980267 -0.25977644 -0.26958367 0.08025103
-0.023701442 -0.3025641 -0.25258496 -0.54693633 0.6415791 0.41713607 -0.21754192 0.61917526
-0.072090164 -0.67514414 -0.31867623 0.14899623 0.42133275 -0.22553715 -0.7170233 -0.057892885
0.42273253 0.11827359 -0.41269836 0.008494363 -0.30495024 0.45058188 -0.047894716 -0.48304257
0.45460445 -0.30637988 0.43104473 0.014426546 -0.275721 -0.5653734 0.15448754 0.10245768
-0.3034399 0.46300924 0.47767416 -0.037686363 -0.6899637 0.4027154 0.22807676 0.42375794
0.16472673 -0.1279051 -0.072220735 -0.02015096 -0.17866145 0.038306143 0.2798013 -0.4115432
0.19003649 0.1578832 -0.4807765 -0.028177457 0.21587665 0.027864253 -0.21458888 -0.1566146
-0.18309481 -0.16944924 0.15808763 -0.17582346 -0.18893045 0.4985913 -0.15956524 0.22557788
-0.55609703 -0.020229004 -0.17887767 0.28531417 0.24252617 -0.19507463 0.3051945 0.19541866
-0.312506 -0.316376 -0.0064875106 0.33603418 0.07927603 -0.61799973 0.36739028 0.6829072
0.6178308 -0.33736348 -0.5427606 -0.6635505
00000000: 9459 ecbe 021c 52bc 5900 063e 7e08 243e
00000010: 86de fb3e d052 dfbd 422d 253e cc27 a13e
00000020: 2fd2 5d3e 10f5 fa3d 62a1 dabe 0b0c 82be
00000030: 76d6 8c3b 6b01 85be df06 8abe a75a a43d
00000040: 8729 c2bc afe9 9abe d152 81be 0504 0cbf
00000050: 873e 243f dc92 d53e 4fc3 5ebe 4582 1e3f
00000060: 02a4 93bd 3fd6 2cbf 8829 a3be 7892 183e
00000070: edb8 d73e 36f3 66be d78e 37bf 1721 6dbd
00000080: 6670 d83e 6d39 f23d 334d d3be f12b 0b3c
00000090: 7022 9cbe abb2 e63e 402d 44bd 5b51 f7be
000000a0: eac1 e83e d3dd 9cbe e5b1 dc3e 525d 6c3c
000000b0: 4e2b 8dbe 50bc 10bf fb31 1e3e 55d5 d13d
000000c0: 795c 9bbe 8c0f ed3e b591 f43e 045d 1abd
000000d0: 76a1 30bf b730 ce3e f48c 693e cdf6 d83e
000000e0: 20ae 283e 8ef9 02be 77e8 93bd a013 a5bc
000000f0: 07f3 36be e7e6 1c3d 1e42 8f3e cab5 d2be
00000100: ed98 423e 22ac 213e 5628 f6be 69d4 e6bc
00000110: c50e 5d3e 9343 e43c 30bd 5bbe 945f 20be
00000120: 357d 3bbe 1a84 2dbe b9e1 213e 110b 34be
00000130: fc76 41be 5c47 ff3e 1265 23be e3fd 663e
00000140: 605c 0ebf 4cb7 a5bc b52b 37be b314 923e
00000150: c858 783e a5c1 47be 7442 9c3e d41b 483e
00000160: c900 a0be 09fc a1be 2f95 d4bb ac0c ac3e
00000170: 795b a23d 3b35 1ebf 941a bc3e 02d3 2e3f
00000180: 292a 1e3f e8ba acbe 5cf2 0abf 72de 29bf

net.layer_1.weight f4 [100, 100]
0.058154665 -0.09994251 -0.070360474 -0.102982394 -0.025365619 0.004570217 0.0418311 -0.037038855
-0.0678963 -0.07345395 0.08366772 0.08003185 -0.09033694 -0.06760652 0.047705267 0.03644305
0.08600732 0.030196188 0.005323352 -0.025503308 0.104633555 0.0927224 -0.06791156 0.040195733
-0.09541099 0.036945358 0.06757355 0.09144657 -0.018640008 -0.067548424 0.059007052 0.0013940184
-0.007660156 -0.08799035 -0.011578813 0.01333579 0.04689433 -0.06202873 0.013271134 -0.08793973
0.05222661 -0.05912365 -0.07536387 -0.008227828 -0.037465464 -0.09697147 0.064655945 0.046529073
-0.035105918 0.09633016 0.03225945 -0.00482036 -0.10898975 0.10597573 0.047023628 -0.082846306
0.06314751 0.063019685 0.10200587 -0.0056442646 -0.1114897 0.0026166376 0.0029755628 -0.08856027
0.019878047 0.012621972 -0.0914531 -0.035197705 -0.096918404 0.06696337 -0.07526787 -0.070551716
-0.07438007 -0.04394733 -0.025669016 0.054601785 0.063944966 0.11012019 -0.038387377 0.08470197
0.05395117 -0.061236452 0.024337512 -6.715612e-05 -0.045135982 0.04166156 0.009342905 -0.07699497
-0.030933328 -0.0154834865 0.071564086 -0.044946637 0.008620254 -0.019791828 0.012691212 0.10058654
-0.02638847 0.05523294 -0.03918303 -0.006834056 0.07135591 0.013932439 0.0461704 0.11023351
-0.051053222 -0.024521185 0.054885663 -0.10052346 -0.014670943 0.09140135 -0.094678804 0.09416796
-0.077906586 0.031691637 0.08592603 -0.039316688 -0.08698499 -0.019324563 0.019172098 0.0022176302
-0.049313296 0.080601886 -0.06557026 0.062047493 0.096162625 0.064156815 0.08488846 0.039118227
-0.026029205 -0.020619404 0.084816985 -0.04714383 0.09775704 0.063052036 -0.08859279 0.03534186
0.087335855 0.07535356 -0.05836115 -0.008606331 -0.08285231 -0.06267282 0.09129274 -0.03588942
0.005586868 -0.007964308 -0.024880504 -0.067291066 -0.052936796 0.06531372 -0.068608455 0.047630016
0.050960872 -0.019176807 0.038913757 -0.030599454 -0.051612534 0.112228006 -0.021740241 0.034119256
-0.084058315 0.061700664 0.08917853 0.0100022005 -0.009962555 -0.07938567 -0.066008635 0.039482903
0.014605602 0.082297064 -0.0975474 0.047269955 0.020651974 -0.045046654 0.035797976 0.08418589
-0.057893723 0.066064015 0.07479833 0.039954003 -0.021666275 0.07771832 0.061109282 0.03010125
0.10564318 0.08441879 0.07719108 0.043143447 0.020231953 -0.052493505 0.06432714 0.022027534
-0.049748484 -0.07211928 -0.007839591 -0.09717032 0.020762088 -0.08653148 0.03193664 0.038550626
-0.06545834 -0.080926225 0.051584654 0.025758049 0.09886075 -0.0697174 -0.016616309 -0.026591623
-0.06251264 0.07401091 0.013508823 -0.043536384 0.060793363 0.022796655 -0.07453992 -0.08025218
0.035308745 -0.060945705 0.06995303 -0.08113648 0.06718899 0.036812827 0.05687874 0.026947895
-0.0565987 -0.091730826 0.08451066 0.06331085 0.058591478 -0.07771603 -0.016334442 -0.012097053
0.0656934 0.06084487 0.09938246 -0.08814654 -0.0011765976 0.013663188 0.010409352 0.08099778
-0.039844554 0.07997602 0.05246316 -0.0027978315 -0.04762196 0.07691747 0.04246342 -0.07814476
-0.033058036 0.038926784 0.06831953 -0.06854759 -0.07697991 -0.068226986 -0.04654433 -0.0016373072
00000000: 9633 6e3d a9ae ccbd 2719 90bd 6fe8 d2bd
00000010: 8fcb cfbc c2c1 953b 1657 2b3d 0eb6 17bd
00000020: 370d 8bbd 066f 96bd fb59 ab3d bde7 a33d
00000030: 9302 b9bd 4a75 8abd 9966 433d 4f45 153d
00000040: 9b24 b03d ff5d f73c 836f ae3b 50ec d0bc
00000050: 1e4a d63d 3ee5 bd3d 3715 8bbd 48a4 243d
00000060: d666 c3bd 0454 173d 0064 8a3d 5748 bb3d
00000070: eeb2 98bc d456 8abd 61b1 713d 7fb7 b63a
00000080: 0c02 fbbb 4934 b4bd 10b5 3dbc 5b7e 5a3c
00000090: 4514 403d d611 7ebd 2c6f 593c bf19 b4bd
000000a0: 92eb 553d a42b 72bd 5f58 9abd 03ce 06bc
000000b0: 6375 19bd fa98 c6bd 566a 843d 4595 3e3d
000000c0: 39cb 0fbd bf48 c53d 7c22 043d 1cf4 9dbb
000000d0: 0536 dfbd ce09 d93d d99b 403d 53ab a9bd
000000e0: 7b53 813d 7710 813d 74e8 d03d 86f3 b8bb
000000f0: b654 e4bd e57b 2b3b a901 433b 165f b5bd
00000100: 49d7 a23c 63cc 4e3c c34b bbbd 782b 10bd
00000110: 287d c6bd 1724 893d 0b26 9abd 6b7d 90bd
00000120: 9454 98bd 1e02 34bd d447 d2bc 1fa6 5f3d
00000130: 94f5 823d b286 e13d 153c 1dbd 3a78 ad3d
00000140: e7fb 5c3d 13d3 7abd 765f c73c 2bd6 8cb8
00000150: 82e0 38bd 50a5 2a3d fc12 193c 8aaf 9dbd
00000160: e467 fdbc 73ae 7dbc 3190 923d f719 38bd
00000170: f73b 0d3c 7922 a2bc cdee 4f3c 5100 ce3d
00000180: a22c d8bc ef3b 623d 637e 20bd 38f0 dfbb
00000190: 0c23 923d e244 643c 2c1d 3d3d 1bc2 e13d
000001a0: 2f1d 51bd a7e0 c8bc cacf 603d 3edf cdbd
000001b0: 655e 70bc a230 bb3d f6e6 c1bd 22db c03d
000001c0: 7d8d 9fbd 17cf 013d fdf9 af3d 890a 21bd
000001d0: 3025 b2bd 8c4e 9ebc ce0e 9d3c a955 113b
000001e0: bdfc 49bd 9a12 a53d b349 86bd 8325 7e3d
000001f0: e9f0 c43d a664 833d 00da ad3d 6f3a 203d
00000200: 333b d5bc 06ea a8bc 87b4 ad3d e419 41bd
00000210: d834 c83d 6d21 813d 2370 b5bd a0c2 103d
00000220: 24dd b23d f852 9a3d 1a0c 6fbd 9201 0dbc
00000230: 79ae a9bd 9c5a 80bd b0f7 ba3d c900 13bd
00000240: 0c12 b73b bb7c 02bc 33d2 cbbc e6cf 89bd
00000250: 41d4 58bd 33c3 853d 9782 8cbd b117 433d
00000260: 59bc 503d ae18 9dbc 0864 1f3d b5ab fabc
00000270: aa67 53bd ccd7 e53d 9718 b2bc a2c0 0b3d
00000280: c426 acbd d6b9 7c3d 3ca3 b63d 45e0 233c
00000290: fc39 23bc f494 a2bd 892f 87bd d3b8 213d
000002a0: 564c 6f3c 5d8b a83d eec6 c7bd 249e 413d
000002b0: 542e a93c d782 38bd e6a0 123d a769 ac3d
000002c0: f821 6dbd 924c 873d de2f 993d cfa6 233d
000002d0: 797d b1bc c82a 9f3d ba4d 7a3d e696 f63c
000002e0: 745b d83d c2e3 ac3d 5b16 9e3d 2fb7 303d
000002f0: 7bbd a53c 6e03 57bd f3bd 833d 1673 b43c
00000300: 11c5 4bbd 46b3 93bd a171 00bc 3c01 c7bd
00000310: 4115 aa3c 6b37 b1bd ffcf 023d 43e7 1d3d
00000320: 060f 86bd a6bc a5bd 6e4a 533d 8b02 d33c
00000330: 8177 ca3d ffc7 8ebd ed1e 88bc add6 d9bc
00000340: a106 80bd 0893 973d 1c54 5d3c 3553 32bd
00000350: 7602 793d 0dc0 ba3c 63a8 98bd 415b a4bd
00000360: e79f 103d 34a2 79bd 8943 8f3d e22a a6bd
00000370: 629a 893d 0cc9 163d aff9 683d d5c1 dc3c
00000380: 0ad4 67bd 5fdd bbbd ed13 ad3d 1ea9 813d
00000390: 9efd 6f3d 9529 9fbd cfcf 85bc b832 46bc
000003a0: 438a 863d 7838 793d 0889 cb3d 2c86 b4bd
000003b0: 1038 9aba 90db 5f3c fd8b 2a3c 2ae2 a53d
000003c0: 0b34 23bd 78ca a33d 9ce3 563d d35b 37bb
000003d0: 3f0f 43bd e886 9d3d 20ee 2d3d 5c0a a0bd
000003e0: dd67 07bd b171 1f3d 1ceb 8b3d ae62 8cbd
000003f0: a5a7 9dbd 97ba 8bbd 44a5 3ebd ea9a d6ba

net.layer_1.bias f4 [100]
-0.020130409 -0.03764755 0.10055077 0.027444474 -0.012268974 -0.04064961 -0.00060258945 -0.11094451
-0.10329566 0.061701402 0.01630316 0.017700111 0.04075317 -0.07723205 0.11283936 0.08776804
0.08460376 -0.011270617 0.09276785 -0.0898041 -0.13468486 0.060994945 -0.091172054 0.07702023
-0.081073664 -0.0021181628 -0.092252895 0.07398991 0.06130074 0.09351829 -0.07923427 -0.024715533
-0.05400276 -0.00040727961 0.034276642 0.041551948 -0.06330901 0.050878603 0.08898015 -0.107331775
0.012515564 -0.01749519 -0.099930674 -0.00044703757 -0.069667086 -0.08690878 0.06717725 0.044418234
-0.11136021 0.027971204 0.05920632 -0.08673771 0.059874333 -0.06261369 -0.042011578 -0.062158357
-0.06838506 0.08602778 0.07388224 -0.07207111 0.07517479 -0.049861025 -0.007797183 -0.10218407
0.038130324 -0.065466166 -0.052695017 -0.07897925 -0.0033369348 -0.082375206 0.061119203 -0.10299527
0.066642255 -0.076155834 0.013591692 0.047887966 0.057365466 0.036112353 0.06774451 0.053096958
0.04020312 0.039929572 -0.02866746 0.09385581 0.08682712 -0.0431311 0.078930356 -0.06582146
-0.045593273 0.02707303 -0.06783386 -0.01785349 -0.029354006 -0.023769137 -0.016702658 -0.06926234
-0.048069667 0.08636964 -0.0945194 -0.02043294
00000000: 87e8 a4bc 5134 1abd 90ed cd3d 3cd3 e03c
00000010: cf03 49bc 3580 26bd 18f7 1dba e036 e3bd
00000020: ad8c d3bd 9cba 7c3d 348e 853c d3ff 903c
00000030: ccec 263d d62b 9ebd 5318 e73d bbbf b33d
00000040: bc44 ad3d 65a8 38bc 12fd bd3d 36eb b7bd
00000050: d4ea 09be d6d5 793d 6ab8 babd c8bc 9d3d
00000060: f309 a6bd e0d0 0abb 16ef bcbd 0688 973d
00000070: 7c16 7b3d 8486 bf3d 9445 a2bd 3b78 cabc
00000080: 0032 5dbd 2588 d5b9 aa65 0c3d 6032 2a3d
00000090: 27a8 81bd 1566 503d 3a3b b63d c3d0 dbbd
000000a0: 150e 4d3c 1352 8fbc 74a8 ccbd 5e60 eab9
000000b0: 9ead 8ebd 3bfd b1bd 3a94 893d e5ef 353d
000000c0: d210 e4bd de23 e53c 5482 723d 8aa3 b1bd
000000d0: ca3e 753d 9b3b 80bd 5514 2cbd c399 7ebd
000000e0: 770d 8cbd 552f b03d 924f 973d 059a 93bd
000000f0: 3ef5 993d 133b 4cbd 837f ffbb e245 d1bd
00000100: 8b2e 1c3d 2013 86bd bbd6 57bd dfbf a1bd
00000110: 7ab0 5abb 55b4 a8bd 2158 7a3d 2fef d2bd
00000120: bc7b 883d 97f7 9bbd b0af 5e3c 2c26 443d
00000130: 0df8 6a3d 8cea 133d a2bd 8a3d 327c 593d
00000140: 07ac 243d 318d 233d 05d8 eabc 7a37 c03d
00000150: 6bd2 b13d 3caa 30bd 3da6 a13d 67cd 86bd
00000160: 03c0 3abd 42c8 dd3c 7bec 8abd 7b41 92bc
00000170: d077 f0bc 7eb7 c2bc 03d4 88bc 6ad9 8dbd
00000180: b3e4 44bd 91e2 b03d 6393 c1bd fb62 a7bc

net.output.weight f4 [1, 100]
0.019618316 -0.07655957 0.02293114 0.076823905 -0.19510224 -0.0021733674 0.07967916 -5.0134106e-05
-0.05435883 0.05154069 -0.00013033861 0.05370124 -0.07853584 0.013541926 0.15589176 0.060478397
-0.074625544 0.014114991 0.0064673414 -0.0023751366 -0.36999926 0.062350612 -0.035851296 0.02881672
-0.036088455 -0.04443926 -0.016860109 0.058387347 -0.07290802 0.026404941 0.022165148 -0.0020917912
-0.016266774 -0.08021022 0.0072685336 -0.048264027 -0.04009986 -0.034211878 -0.023088647 -0.036780957
0.07824931 0.054712247 -0.020175168 -0.049793035 -0.005073402 0.014254992 0.010266649 -0.018342199
-0.021741526 0.08779123 -0.06669719 0.0056248563 -0.020849615 -0.08293007 -0.064852014 -0.06508562
-0.008587008 -0.050560698 0.038658388 -0.033312827 -0.07972217 -0.06548945 -0.038464166 -0.06843648
0.008399949 -0.06755895 0.0022029302 0.0074114944 -0.2748788 -0.0018949531 -0.07054032 -0.025760349
-0.072060324 0.033545874 -0.03599085 -0.04086431 -0.055582315 0.34488875 0.01012157 -0.0135692125
-0.0032210238 -0.08292433 -0.05304408 0.024481578 0.04937711 0.07214087 -0.054821845 0.058331665
0.30458325 -0.13838045 -0.057092987 0.0755639 0.0060279374 0.059367917 -0.046884198 -0.06803852
0.0775744 -0.05427184 -0.015120339 -0.023702146
00000000: 97b6 a03c 44cb 9cbd 16da bb3c da55 9d3d
00000010: e2c8 47be 0e6f 0ebb d42e a33d 1647 52b8
00000020: 5da7 5ebd 551c 533d 81ab 08b9 d5f5 5b3d
00000030: 66d7 a0bd f4de 5d3c 17a2 1f3e 32b8 773d
00000040: 47d5 98bd 9042 673c feeb d33b 2ea8 1bbb
00000050: 8b70 bdbe 5b63 7f3d cfd8 12bd 0b11 ec3c
00000060: 7dd1 13bd f105 36bd 361e 8abc 9227 6f3d
00000070: cd50 95bd 2d4f d83c af93 b53c 6f16 09bb
00000080: e641 85bc 4145 a4bd e12c ee3b 80b0 45bd
00000090: c03f 24bd c121 0cbd 6724 bdbc a1a7 16bd
000000a0: 2d41 a03d f319 603d 6546 a5bc c8f3 4bbd
000000b0: c83e a6bb c58d 693c 7235 283c 6142 96bc
000000c0: 491b b2bc e3cb b33d 8998 88bd b750 b83b
000000d0: d0cc aabc 3ed7 a9bd 22d1 84bd 9c4b 85bd
000000e0: 86b0 0cbc bc18 4fbd 4258 1e3d 0873 08bd
000000f0: 6145 a3bd 551f 86bd 9a8c 1dbd 6d28 8cbd
00000100: f19f 093c 595c 8abd 095f 103b 1fdc f23b
00000110: eabc 8cbe 1360 f8ba 7177 90bd 5e07 d3bc
00000120: 5d94 93bd 6667 093d 246b 13bd 5661 27bd
00000130: 48aa 63bd 4295 b03e f1d4 253c 6751 5ebc
00000140: d017 53bb 3bd4 a9bd c044 59bd 978d c83c
00000150: a73f 4a3d 98be 933d df8c 60bd 2fed 6e3d
00000160: 56f2 9b3e 9bb3 0dbe 56da 69bd 3fc1 9a3d
00000170: 0186 c53b c62b 733d a509 40bd c857 8bbd
00000180: 54df 9e3d 264c 5ebd 4cbb 77bc 012b c2bc
