burgers/trained_models/Conv_Anal/u_2_4/Conv_Anal_Final_wpinn_burgers_1_5_4000.pth (torch, 45118 bytes, 5 tensors)

net.layer_0.weight f4 [100, 2]
00000000: b959 60be 6e88 f03e 2085 48bf 1353 7d3f
00000010: 3c86 153f 4a0e 67bc f0ad 58bf fa90 a13f
00000020: fecc 843e 4dec cebe af59 e0bd 95c7 0b3f
00000030: c0cc 0fbf 4213 95bd a8fd b83d 1419 153e
00000040: 284f 4fbe 3735 3abf b161 26bf e4f9 98be
00000050: 8a01 27bf 054a 753f f5b1 20bf ac96 023e
00000060: bc39 19bf c5e6 883f b976 05be 546b 723f
00000070: 1ecd 3a3d 0133 823d 804e 16bf 82d4 863f
00000080: 24e1 563f 8d28 83bf 2354 1bbf a467 543f
00000090: 5b28 87be ab97 793f 9f58 f5be 8a89 b63e
000000a0: 9f61 0fbd 48b9 803e ff96 113f 72f7 48bf
000000b0: ab48 23bf 61a3 653f d8e9 3cbe 978c 3cbe
000000c0: abdf b9be 6f92 ad3f 89ae a63e 9afa c0bd
000000d0: 911f e6be 24c8 0e3f d10f 553d bf38 073f
000000e0: 4880 66bd ecfc ad3e d464 1a3e 10f0 24bf
000000f0: a512 143e dc8a 16be cee2 303e 84d3 8fbe
00000100: 39a8 fcbe 9d41 da3d 4b43 843f 2438 f8bf
00000110: 3e7c 9d3d 766a 843f 063d c43e c4e3 3bbf
00000120: 1a05 47bf b337 833f 3139 b3bd 950d 31bf
00000130: 438e 533f 3ea2 aabf 3530 0a3f 6a75 683d
00000140: bd06 68be 021f fabe b8b4 a1bc 249d 9bbe
00000150: ca18 cbbe 1da3 813f 9c59 663e af9a dcbe
00000160: 998e 0f3f 37d8 39bf 2b5f 81be bc18 28bf
00000170: 482f e73e 758e 7cbf bb0c 49be 670f 42bf
00000180: a2c0 17bf dec7 0fbf af7f 2e3e 4fdf 593e
00000190: 38fb 8ebe 8158 513f e223 503f 3f8a 29bf
000001a0: a87e adbc 72c6 803e e325 133e 13b7 b5be
000001b0: f1de 5b3f 27cd 38bf 0815 e83d 6a56 40bf
000001c0: d953 0a3f 573b 3fbf 39b0 4fbf 10fc 783f
000001d0: c5a8 05bd f013 3dbf 2127 5b3f 9a51 a5bf
000001e0: 6112 b5be 2f9e 25be 8a4b 113f 24b3 1dbf
000001f0: de24 aebd 7edf 343f e957 783e fdd6 74bf
00000200: 0f81 84be 3247 3a3f 8d67 21be 060f 8f3f
00000210: 9dc1 0e3f 17b1 38b9 5288 103f 8832 45bf
00000220: 1193 47bf 1d24 e73e 0cff 293e 0c2a 1d3d
00000230: d802 333f 6d00 98bf 6058 00bf e134 0fbf
00000240: 29b8 31bf e553 923f 5843 843f 08b6 83bf
00000250: 5f6f 04bf 5b72 703f 130d 2a3d cb6a 4f3f
00000260: d0be 93be 2430 bdbe 43a6 653e a2f1 c9be
00000270: 901e 5b3e 8084 40bf b5a1 a1bf 156d 533f
00000280: 461a 1fbf 2196 01be a584 96bd bb5d 5a3f
00000290: 217d 8d3c f0f1 ab3f 623f 0ebe 20e4 50bf
000002a0: 0cec ec3d 9927 8d3f 8926 bb3e dbb9 d3be
000002b0: b66c 03bf 1114 b03f ad9b d9bd 3632 043f
000002c0: 74c0 41bf abf7 88bd 6143 5c3f e1d4 50bf
000002d0: c57c 79bf ee42 873f 87d7 f73e 0ff6 ad3e
000002e0: ffaa 643e 0f2f 5fbe 3097 36bf be13 1c3e
000002f0: 243a 513e 2d25 2cbf 6f9f 963e 68c1 82be
00000300: 4aee 583e 889c 453f 12a9 933d 299e 403f
00000310: 39e6 9cbc d4b3 45bf 71b7 82bd 7cbe 12bf
-0.21909226 0.46979088 -0.7832813 0.98954886 0.5840795 -0.014102528 -0.8464041 1.2622368
0.25937647 -0.40414658 -0.10954606 0.54601413 -0.561718 -0.07279064 0.09032756 0.14560348
-0.2024504 -0.7273745 -0.64992815 -0.2987815 -0.65236723 0.9581607 -0.6277154 0.1275279
-0.5985372 1.0695425 -0.1303357 0.9469502 0.04560577 0.063573845 -0.5871353 1.0533602
0.8393729 -1.024675 -0.6067526 0.82970643 -0.26397976 0.9749705 -0.47919175 0.3565181
-0.035005208 0.25141358 0.56871027 -0.7850257 -0.6378276 0.8970242 -0.1844858 -0.18413006
-0.36303458 1.3560313 0.32555035 -0.094227985 -0.44945958 0.5577414 0.052017037 0.5282096
-0.056274682 0.33982027 0.15077525 -0.64428806 0.14460237 -0.14701408 0.17274019 -0.2809106
-0.49347094 0.10657046 1.0333036 -1.9392133 0.07689713 1.0344989 0.38327807 -0.7339442
-0.7774216 1.0251373 -0.08751143 -0.6916135 0.8263895 -1.3330762 0.5397981 0.0567526
-0.2265882 -0.48851782 -0.019739494 -0.30393326 -0.3966735 1.0127903 0.22495121 -0.43086764
0.5607696 -0.7259554 -0.2526792 -0.6566274 0.4515326 -0.9865487 -0.19633763 -0.7580475
-0.5927831 -0.5616435 0.17040895 0.21276592 -0.2792604 0.8177567 0.8130475 -0.6622657
-0.021178558 0.25151402 0.14369921 -0.35491237 0.85887057 -0.7218804 0.113321364 -0.7513186
0.5403419 -0.7469992 -0.8112827 0.97259617 -0.032631654 -0.7385855 0.8560658 -1.2915528
-0.35365584 -0.16173624 0.5675589 -0.6160147 -0.085031256 0.7065352 0.24252285 -0.95640546
-0.25879714 0.72764885 -0.15762158 1.117646 0.5576418 -0.00017613579 0.5645801 -0.7703023
-0.7795878 0.4514474 0.16601199 0.038370177 0.69926214 -1.187513 -0.5013485 -0.5594006
-0.6942163 1.1431853 1.0333052 -1.0289927 -0.5173244 0.9392449 0.041516375 0.8102233
-0.28856516 -0.3695079 0.22426705 -0.39442164 0.21398377 -0.7520218 -1.2627474 0.8258832
-0.62149465 -0.12654926 -0.07349519 0.8529927 0.01727158 1.3433208 -0.13891366 -0.8159809
0.1156846 1.1027709 0.36552837 -0.41352734 -0.51337755 1.3756124 -0.10625396 0.51639116
-0.75684285 -0.06687864 0.8604031 -0.8157483 -0.9745601 1.05673 0.48406622 0.3397679
0.22330855 -0.21795295 -0.71324444 0.15241906 0.20432335 -0.67244226 0.29418513 -0.25538182
0.2118465 0.7719197 0.07209982 0.75241333 -0.019152747 -0.7722752 -0.06382645 -0.57321906

net.layer_0.bias f4 [100]
00000000: 731d e7be 507f 55bc 2e47 0b3e 099a 153e
00000010: afda f73e 6513 d8bd 479f 1e3e 4a82 9f3e
00000020: cefe 553e 5ba9 e83d 7579 cfbe 8250 81be
00000030: a1e4 8e3b 8901 79be 5598 8bbe e622 963d
00000040: 51ec b5bc ec08 92be 9a83 75be 2162 0abf
00000050: 847b 233f 9b21 ce3e 60e4 50be 4aa8 1d3f
00000060: 1ae3 8abd 433c 2dbf f32d 9dbe 4445 133e
00000070: 23c7 d43e cf09 5dbe 216d 38bf 364e 52bd
00000080: 16b7 d63e 153f c73d acfd c7be c404 273c
00000090: a6f7 8fbe aa29 dd3e 5793 2cbd 7ce1 f6be
000000a0: a566 e63e 9a49 9cbe deda cd3e 7ec2 843c
000000b0: 24de 83be d748 0ebf 06ba 153e 56c7 ca3d
000000c0: fe3b 9bbe 6229 ed3e e22a eb3e 1691 09bd
000000d0: 22a5 30bf 21dd ca3e 2c85 5d3e a7c9 d13e
000000e0: d0e8 203e 05d5 f8bd f776 8dbd 49e1 87bc
000000f0: 3c8f 41be 1a8c 163d 7ab6 883e c1d0 c5be
00000100: 2e27 3a3e 92f7 153e dc15 f5be 46b1 c2bc
00000110: b966 523e d1a7 d53c e841 4cbe 77b6 1fbe
00000120: 24d6 29be 9fde 1ebe 5358 193e 8e66 2ebe
00000130: fa6d 40be 41a0 fa3e 8e22 1abe e500 4e3e
00000140: 0330 0fbf 6670 a3bc 2ed5 23be 0736 8b3e
00000150: f39b 6a3e 179b 3fbe 53c0 8e3e 23c7 3f3e
00000160: 51f3 a0be aa97 98be 1fe8 e7bb fccd ab3e
00000170: c975 a43d 1b4f 1dbf f986 b53e ed9b 2d3f
00000180: 1419 1b3f 6e04 a6be 94f8 07bf 0486 28bf
-0.45139655 -0.013030842 0.13601372 0.14609541 0.4840903 -0.10550574 0.15490447 0.3115409
0.20897982 0.11360427 -0.40522352 -0.25256735 0.004360751 -0.24316992 -0.27264658 0.07330875
-0.022207411 -0.28522432 -0.23975983 -0.5405598 0.63860345 0.40260014 -0.20399618 0.61584914
-0.067815974 -0.6767008 -0.3069912 0.14381891 0.4155818 -0.21585773 -0.7204152 -0.05134412
0.41936558 0.09728829 -0.39060724 0.010194007 -0.28118628 0.4319585 -0.0421327 -0.48218906
0.45000187 -0.30524904 0.40206045 0.016206022 -0.25755417 -0.55579895 0.14621744 0.099013016
-0.30319208 0.46320635 0.45931154 -0.03358563 -0.6900197 0.39621833 0.21632832 0.4097416
0.15713811 -0.12150005 -0.06907456 -0.016586917 -0.18902296 0.036754705 0.2670172 -0.3863583
0.18179008 0.14645222 -0.4786824 -0.023766171 0.20546998 0.026080998 -0.19947016 -0.15596949
-0.16585594 -0.1551461 0.149751 -0.17031309 -0.18791953 0.4895039 -0.15052244 0.20117529
-0.55932635 -0.019951057 -0.1599929 0.27189657 0.22911052 -0.18711506 0.27881107 0.18728308
-0.31435636 -0.2980321 -0.0070772315 0.3355559 0.08030278 -0.6144883 0.35454538 0.6781605
0.6058514 -0.32425255 -0.53113675 -0.6582949

net.layer_1.weight f4 [100, 100]
00000000: 756a 6f3d d888 cbbd 7d85 8dbd fe89 d3bd
00000010: 3178 d0bc 27f5 b53b ffda 2c3d 1ea9 0ebd
00000020: 5c96 8ebd f9a8 99bd 5cfe ae3d d1ed a33d
00000030: 9ccc b6bd 5b0d 87bd 8d2a 3d3d ffbc 153d
00000040: 4fec af3d 951e 023d 95b2 db3b 6a11 d0bc
00000050: 16d9 da3d 5d27 ba3d 402c 88bd 39e2 2b3d
00000060: 2abb c2bd 2cc2 0f3d 46f0 8c3d 462d bc3d
00000070: 2d40 8bbc 854f 88bd ed46 683d 9e8f f43a
00000080: 8c9b e3bb ba0b b1bd 8a8f 1fbc f6d8 533c
00000090: ffaf 443d c2a7 81bd 955a 5c3c d493 b5bd
000000a0: 7dd8 533d 1468 79bd bf5c a0bd 6f84 0cbc
000000b0: bea1 12bd 77ab c5bd 4fe3 813d dfed 373d
000000c0: e6b3 18bd bad8 ca3d a99c f13c 2d11 b4bb
000000d0: 3063 e2bd a27c d93d 69a6 373d f1f0 acbd
000000e0: 5c36 7d3d 0361 823d e42c cf3d f3c9 b1bb
000000f0: 264f e9bd 0ddd 113a 9364 e13a b033 b0bd
00000100: f183 a13c 30e8 523c 62e1 bcbd ad0f 14bd
00000110: edc1 c5bd 3e44 8c3d 485d 99bd 8f61 95bd
00000120: 53be 96bd 2b2b 30bd ce42 d2bc bb8a 653d
00000130: aa56 7c3d cf04 e23d 98ca 1bbd bb31 ab3d
00000140: ed11 553d 35df 76bd 5456 cd3c a3f2 e1ba
00000150: 2077 36bd b6d9 2d3d 928b 133c df4a 9dbd
00000160: 00fb 02bd 5ee3 67bc 631d 923d f956 2ebd
00000170: a61f 0c3c fb1a a7bc a2e7 383c 515e d03d
00000180: 8fe6 e7bc d42e 683d ad97 17bd 02d3 d4bb
00000190: e7e9 923d d207 783c 9a7b 3e3d 589b e23d
000001a0: 6af9 52bd 2243 cbbc a92d 583d 6dca d1bd
000001b0: 3c64 6ebc 8dcd ba3d 306c c1bd 1db7 bf3d
000001c0: 02de 9bbd b36e 033d ed5e b33d 31dd 1ebd
000001d0: 8a79 b3bd 171e 9fbc 2980 9e3c 844a 243b
000001e0: 7282 54bd c4ca a53d e2b4 85bd 7675 753d
000001f0: de06 c83d 566f 883d b7f5 ac3d b33c 203d
00000200: d3b3 e7bc 8277 a9bc c112 b33d 2279 40bd
00000210: fdfc c33d 8df8 743d 7204 b5bd 516c 103d
00000220: f6e9 b43d 380f 9a3d 5a9a 73bd f09c dfbb
00000230: 3394 aabd 3f6c 79bd ff08 bb3d e9da 11bd
00000240: 74ec ba3b 281c f0bb d8cd cfbc 1657 89bd
00000250: 31e3 53bd b6ae 803d 4824 8dbd 04d5 433d
00000260: 191d 583d 6136 a2bc 3992 213d bfb9 f8bc
00000270: 9b46 52bd 7141 e73d e13c b0bc 018c 063d
00000280: 5a5e aabd 7875 813d 64b7 b63d def6 1f3c
00000290: f36b 29bc 0207 a2bd 0e02 83bd 10a3 233d
000002a0: 0ec2 4d3c 217c a93d cbc2 c7bd 0f1a 453d
000002b0: 24d3 b33c a50b 3cbd 47ed 113d 6b45 ac3d
000002c0: 688b 69bd d6c9 853d 5bf1 983d 3fb4 283d
000002d0: 039e a4bc 5c2a 9f3d e867 803d 1b21 f53c
000002e0: c6f5 d63d f596 ae3d ae66 9d3d bfa3 2d3d
000002f0: fc68 a83c e567 53bd ada2 863d 4562 a83c
00000300: fc82 48bd ba6a 92bd 0eec f7bb 28bb c9bd
00000310: 70a5 a83c 32c4 b0bd a426 043d a631 223d
00000320: a1f5 86bd f948 a9bd a7c6 573d dde4 c53c
00000330: 6594 cb3d e65b 90bd 1f6f 85bc 0596 d2bc
00000340: 4aa4 80bd 6adf 953d ae79 673c a22d 33bd
00000350: 6c6b 6d3d e8eb ba3c 4e8d 9bbd 2d50 a8bd
00000360: efdb 143d eac7 77bd b8a8 8f3d 7ccb a6bd
00000370: 9858 8b3d da56 133d e5e5 683d 4a2f eb3c
00000380: 5c2d 6cbd c1e8 bdbd 658d ad3d f67e 713d
00000390: 44d2 6c3d c274 94bd 081b 91bc b3aa fdbb
000003a0: fbc8 853d ca7f 813d bc00 cd3d 0417 b2bd
000003b0: be38 abba 8816 5b3c fe83 3f3c 1069 a53d
000003c0: ce76 22bd ca8b a63d fdac 3f3d ba32 2238
000003d0: d10f 31bd 9f36 a43d 33a8 2f3d 8e0e a0bd
000003e0: 3181 03bd b047 243d 7215 7f3d c77a 89bd
000003f0: daf5 a0bd edd8 89bd 1598 41bd 705d 13bb
0.058451135 -0.0993821 -0.069102265 -0.10329054 -0.025447937 0.005552906 0.04220104 -0.03482925
-0.069622725 -0.07502932 0.08544609 0.08004344 -0.08925745 -0.06594344 0.046183158 0.036557194
0.08589994 0.031767447 0.0067046382 -0.025398929 0.10685937 0.09089539 -0.06649065 0.04196379
-0.09508355 0.035097286 0.06881766 0.09188323 -0.016998375 -0.06655792 0.056708265 0.0018658524
-0.006946033 -0.08644815 -0.009738812 0.0129301455 0.048019405 -0.063308254 0.013449331 -0.088660866
0.05172013 -0.060890272 -0.0783019 -0.0085764965 -0.03579878 -0.09651845 0.06342184 0.044904586
-0.03728094 0.099046186 0.029493647 -0.0054952116 -0.11054075 0.10619475 0.044836435 -0.084443934
0.06181942 0.0636616 0.10115984 -0.0054256856 -0.113920495 0.000556425 0.0017196111 -0.086036086
0.019716235 0.012872741 -0.09222676 -0.036147762 -0.09656129 0.06848954 -0.07488495 -0.072939985
-0.0736052 -0.04300992 -0.02566662 0.056040507 0.061606087 0.110360734 -0.038035005 0.08359095
0.05201905 -0.06027146 0.025065579 -0.0017238449 -0.0445472 0.042443953 0.009005444 -0.07680296
-0.031977654 -0.01415333 0.07134511 -0.042563412 0.008552467 -0.020398607 0.011285694 0.101742394
-0.028308181 0.056685284 -0.037009884 -0.0064948807 0.071735196 0.015138583 0.046504594 0.11064786
-0.05150739 -0.024812285 0.05277792 -0.10243688 -0.014550265 0.09121237 -0.09444463 0.09361098
-0.07610704 0.032087993 0.0875834 -0.038785163 -0.08763416 -0.019423528 0.01934822 0.002506883
-0.051882215 0.08095315 -0.06528641 0.059926473 0.09766935 0.06661861 0.08445304 0.039120387
-0.028283989 -0.020686869 0.087438114 -0.04699052 0.09569738 0.05980735 -0.088387385 0.03525955
0.08833687 0.07522434 -0.059473373 -0.0068241283 -0.08329048 -0.060894247 0.09132575 -0.03560916
0.005704457 -0.0073275752 -0.025366709 -0.067060634 -0.05173034 0.062833235 -0.06891686 0.04781057
0.052762125 -0.01980132 0.03944609 -0.030362008 -0.051336866 0.11291779 -0.021513404 0.032848362
-0.083187774 0.063212335 0.08921698 0.009763448 -0.0103406785 -0.07911493 -0.06396876 0.03995043
0.012558473 0.08275629 -0.09753951 0.048120555 0.021951266 -0.045909543 0.035626676 0.08411678
-0.057017714 0.06532638 0.0746791 0.04118752 -0.020094877 0.07771751 0.062698185 0.029923012
0.10496096 0.085248865 0.076856 0.04239249 0.020557873 -0.051612753 0.06573997 0.020554671
-0.04895304 -0.07149263 -0.0075659817 -0.0985015 0.0205867 -0.08631171 0.032263413 0.03959813
-0.06589819 -0.082658716 0.052679684 0.024156982 0.099404134 -0.07048778 -0.016288338 -0.0257063
-0.06281336 0.073180035 0.014128132 -0.04374469 0.057963774 0.022817567 -0.07595311 -0.08218417
0.036342558 -0.060493387 0.070146024 -0.0814428 0.06804007 0.0359715 0.05685987 0.028709073
-0.057660446 -0.0927291 0.084742345 0.05895897 0.057817712 -0.07248832 -0.017713085 -0.007741296
0.065324746 0.06323202 0.10009906 -0.08695796 -0.0013063175 0.013372071 0.011689184 0.0807668
-0.039664082 0.081321314 0.046795834 3.8671053e-05 -0.043227974 0.08018231 0.042885017 -0.07815276
-0.03210563 0.04010743 0.06227631 -0.06712871 -0.078593925 -0.067308284 -0.047264177 -0.0022486113

net.layer_1.bias f4 [100]
00000000: e634 90bc 5ecf 24bd 0453 d23d 28a6 ee3c
00000010: 7b2b 0fbc 23e8 23bd a518 6a3b 4df3 e2bd
00000020: 7e3d debd aa4f 883d 1960 703c 7398 a53c
00000030: 0b2b 2f3d 9fb6 9bbd 3326 e73d c068 bb3d
00000040: 69cf ab3d d0ae 07bc 9083 c03d 9638 b8bd
00000050: 3d0c 0cbe c09d 8a3d 4c6a bfbd bfd7 a23d
00000060: 8ffd a8bd 3ff7 a2bb fe77 c0bd 6ceb 9b3d
00000070: f157 6f3d a12f c43d 24f1 9ebd 5b9b cfbc
00000080: d3dc 82bd a107 b0bb c141 0d3d eb32 233d
00000090: 89f1 8bbd bb82 473d 82e9 b33d 3282 e9bd
000000a0: 3bd2 5e3c ae3b 72bc 7546 cebd 20c4 eeba
000000b0: 94c8 8ebd 5437 afbd 7fa3 893d a843 323d
000000c0: 19b3 ebbd 2c53 013d c16f 673d ff35 b1bd
000000d0: 6f1d 6c3d dc58 80bd 24ec 33bd 3b75 86bd
000000e0: d9bc 8dbd 9190 ac3d 863b 9e3d 057e 9cbd
000000f0: be7d 963d 8150 4dbd 0875 13bc b45c dbbd
00000100: b490 1d3d 351e 90bd 11c5 56bd 004e a2bd
00000110: 023c 69bb 6bed aabd e19e 603d 135b d8bd
00000120: 9d46 5d3d cd8d 93bd 050d f03b 59b5 393d
00000130: 39b7 533d 01c6 1b3d eaab 903d 959e 583d
00000140: 8c1b 233d a0fb 193d bfe5 05bd 51c6 c33d
00000150: a54a b53d d901 1cbd 1175 9c3d a73a 84bd
00000160: 30f7 37bd ae3a f13c 281b 99bd f3fb 6ebc
00000170: 2d32 ecbc 9800 b9bc c7e0 adbc d183 90bd
00000180: ab24 44bd e899 b53d 7054 c5bd 0d4e aebc
-0.017603349 -0.040236823 0.1026974 0.029131964 -0.008738394 -0.040016305 0.0035720256 -0.11081562
-0.108515725 0.0665582 0.014671349 0.020214295 0.04276566 -0.076031916 0.11286583 0.09150839
0.0838917 -0.008281425 0.094000936 -0.08995168 -0.13676544 0.0676837 -0.093464464 0.079513066
-0.082514875 -0.0049733217 -0.09397887 0.076132625 0.058433477 0.09579397 -0.07760838 -0.025342634
-0.06389775 -0.005372003 0.034486536 0.03984348 -0.068331786 0.04870866 0.087847725 -0.11401786
0.013599928 -0.014784737 -0.10072032 -0.0018216409 -0.06971851 -0.08555475 0.067206375 0.043521553
-0.115087695 0.03157346 0.05650306 -0.08652877 0.057645258 -0.062669486 -0.043926373 -0.06565329
-0.069207855 0.08426011 0.07726197 -0.07641224 0.07348202 -0.050125603 -0.00900007 -0.10711041
0.038468078 -0.070370115 -0.05243403 -0.079250336 -0.0035588746 -0.08346065 0.05483902 -0.10564246
0.05402242 -0.07204781 0.007325771 0.045338962 0.051688407 0.038030628 0.0706404 0.05288561
0.039821193 0.037593484 -0.032689806 0.0955931 0.08852128 -0.0380877 0.07639516 -0.064564995
-0.04491347 0.029446926 -0.07475883 -0.014586437 -0.02883252 -0.022583291 -0.021225346 -0.07056392
-0.04788653 0.08867246 -0.09635246 -0.021277452

net.output.weight f4 [1, 100]
00000000: 8867 593c 467e 92bd 37dc 8d3c 300b 933d
00000010: 8e1d 3dbe 3141 913a 4860 9a3d ca5c acb9
00000020: 50c4 49bd 2e35 453d ba46 1c39 5c2d 403d
00000030: ecab 9ebd 957e 863b b7cc 223e 5dca 633d
00000040: 3ebc 91bd 3f6d 313c af3f 7a3b a0c6 efba
00000050: 40a6 d4be 8618 6f3d 5643 debc d3ce a53c
00000060: 1864 08bd c8fc 13bd 3ebd 1bbc f660 4b3d
00000070: 6513 7cbd 7263 993c 5e8b 8f3c 3871 c0ba
00000080: 137c 80bc cfbb 94bd bcd5 af3b 8bbb 37bd
00000090: 9d90 0dbd fc79 edbc 6d32 4fbc 0221 10bd
000000a0: 0098 973d 908b 363d 59bc 94bc ed99 3bbd
000000b0: e434 5abb 7ce0 2f3c e52f eb3b 907f 37bc
000000c0: 4f97 96bc 8ede a63d 9fe3 70bd 8bb3 7e3b
000000d0: 9aed 52bc 9050 9dbd 150f 6bbd a9ef 6ebd
000000e0: 26b7 abbb ad04 35bd d5c8 0b3d 9d07 00bd
000000f0: a98a 99bd 1841 7bbd f540 0fbd a822 7abd
00000100: f438 933b 72cb 82bd 8d92 d939 83bd 873b
00000110: 089c 9cbe fd69 abba 96d3 8cbd f961 b5bc
00000120: ce71 b9bd bafc f73c 26f4 0abd 08f0 f9bc
00000130: e2d4 5abd e1a3 d03e 51fa 013c a66a 35bc
00000140: c8f5 b1ba 408d a1bd f678 4bbd 552a 9d3c
00000150: 2bee 323d f98c 8a3d e7c4 4cbd 2af6 513d
00000160: d897 a83e 808c 04be aaa9 5ebd 59eb 873d
00000170: bcc9 c73a 60e7 603d e0fd 31bd 1f25 82bd
00000180: 818b 8f3d eaa7 86bd 84cb 2dbc 3d0c 97bc
0.013269313 -0.07152991 0.01731692 0.07179868 -0.18468305 0.0011082051 0.075378954 -0.0003287553
-0.049259484 0.04814642 0.00014903667 0.046918258 -0.07747635 0.004104445 0.15898405 0.05561291
-0.071159825 0.010829269 0.003818493 -0.0018293448 -0.4153309 0.058372997 -0.027131718 0.020240223
-0.03329858 -0.036129743 -0.009505568 0.049653016 -0.061541934 0.018724177 0.01752251 -0.0014682179
-0.015684163 -0.07262384 0.0053660553 -0.04485659 -0.034561742 -0.02898883 -0.0126463 -0.03518773
0.074020386 0.04456669 -0.018156217 -0.045801092 -0.0033295685 0.010734674 0.0071773403 -0.011199847
-0.018382696 0.08147918 -0.058810826 0.003886434 -0.012874031 -0.07681382 -0.05738743 -0.058334026
-0.005240339 -0.044193912 0.034127075 -0.03125726 -0.074971505 -0.061341375 -0.034974057 -0.061068207
0.0044928733 -0.0638646 0.00041498654 0.0041424646 -0.30587792 -0.0013077852 -0.06876294 -0.022141444
-0.0905491 0.030271877 -0.033924244 -0.030509964 -0.053425677 0.4075003 0.007933215 -0.01107279
-0.0013577277 -0.078882694 -0.049675904 0.019185225 0.043684166 0.0676517 -0.04999247 0.05126015
0.32928348 -0.12944221 -0.054361023 0.06636686 0.0015242617 0.054908156 -0.043455005 -0.063547365
0.0700903 -0.06574996 -0.010607604 -0.018438453
