burgers/trained_models/Conv_Anal/u_2_4/Conv_Anal_Final_wpinn_burgers_1_5_1000.pth (torch, 45118 bytes, 5 tensors)

net.layer_0.weight f4 [100, 2]
000000 33 75 dd bd d7 93 a5 3e 95 9e 08 bf 67 42 f5 3e
       -0.108133696 0.32339355 -0.53366977 0.47902223
000010 f4 78 16 3f 69 64 90 3d 5e 55 25 bf 1f 6f 4b 3f
       0.5877831 0.07050402 -0.64583385 0.7946643
000020 6b 31 62 3e 51 d4 89 be 83 76 23 bd 31 79 e2 3e
       0.22089164 -0.26919797 -0.039907943 0.44233087
000030 07 1f 18 bf 5f 32 c4 bd 47 18 e0 3d 17 66 f2 3d
       -0.59422344 -0.0957992 0.109421305 0.11835878
000040 5a 83 e2 be 93 0c 12 bf 35 35 3b bf e8 f4 82 be
       -0.44240838 -0.57050437 -0.7312806 -0.25577474
000050 fc 75 00 bf 4d c9 1f 3f dd 0e 18 bf 8f c2 57 3d
       -0.5018003 0.62416536 -0.5939768 0.05267578
000060 02 63 99 be 12 13 b8 3e be b6 9c 3d 63 f7 0d 3f
       -0.2995835 0.3595205 0.07652043 0.5545561
000070 ca ee a6 3d 99 4b cc 3c 35 ef bc be ad 2b 27 3f
       0.08151014 0.024938392 -0.3690125 0.6530102
000080 8b cd 36 3f 5c c1 4c bf ca 5b 07 bf bd 17 1c 3f
       0.71407384 -0.79982543 -0.52874434 0.6097372
000090 fe bb 4a be b8 d1 50 3f 5d 23 dc be d5 d9 70 3e
       -0.19798276 0.81570005 -0.4299573 0.23520596
0000a0 26 ba 1e bd f4 40 72 3e 0e bf 07 3f ac b1 2a bf
       -0.038751744 0.2365759 0.530259 -0.66677356
0000b0 71 d4 e5 be 73 a0 ee 3e f3 0c 62 be 18 31 11 be
       -0.44888642 0.46606788 -0.22075252 -0.14178884
0000c0 ca 41 74 bc 6a da 5b 3f 36 c9 ae 3e d5 54 c4 bd
       -0.014908263 0.8588015 0.34137887 -0.09586493
0000d0 b2 78 bc be 69 8d bd 3e 36 47 5d 3e 60 11 8c 3e
       -0.36810833 0.3702195 0.21609196 0.27357006
0000e0 fd f7 8e bc 3f 5a 94 3e 5b b5 3d 3d 4a b4 fe be
       -0.017452234 0.28975102 0.046315532 -0.49746925
0000f0 69 6e 2d 3e 76 8e 16 be 78 d3 b3 3d 49 1f 9a bd
       0.1693665 -0.14702782 0.08780569 -0.075254984
000100 6f 96 0a bf 04 e6 79 3d 06 fd 55 3f fa 89 8c bf
       -0.54135793 0.061010376 0.8358921 -1.0979607
000110 e0 8d 4a 3e 82 b7 4f 3f bc 6b 94 3e 96 7d 19 bf
       0.19780684 0.81139386 0.28988445 -0.59957254
000120 16 65 1e bf 41 08 1d 3f cc 92 75 be b5 06 01 bf
       -0.61872995 0.6134072 -0.2398178 -0.5040086
000130 cb d6 28 3f 96 17 7b bf ed 60 15 3f 67 2a 85 3d
       0.6595275 -0.98082864 0.5835102 0.06502228
000140 21 fa 85 be bc b8 df be 6e d6 9f bd 79 5e 74 be
       -0.26167396 -0.4369563 -0.07804571 -0.23864163
000150 6d b7 77 be 92 03 44 3f 15 e3 8b 3d fb 40 40 be
       -0.24191065 0.7656795 0.06830422 -0.18774788
000160 ed e9 e1 3e 09 69 b9 be c5 9e aa be ff 0f 12 bf
       0.44123784 -0.36212948 -0.33324257 -0.5705566
000170 56 da 79 3e 49 db 15 bf b5 e2 bb be 41 0e 22 bf
       0.24399695 -0.5853773 -0.366964 -0.63303
000180 b4 02 2e bf 31 be f0 be 73 ac 51 3e e8 a9 53 3e
       -0.67972875 -0.47020105 0.2047594 0.20670283
000190 06 8a 20 be 8b c9 2b 3f 93 83 2c 3f b3 c7 b3 be
       -0.15677652 0.67104405 0.67388266 -0.35113296
0001a0 47 84 b6 3c 21 3d 10 3e 78 32 a5 3d 47 57 62 be
       0.022279872 0.14085819 0.08066267 -0.22103606
0001b0 b2 55 23 3f e8 dc b9 be 05 d2 a4 3d e0 31 2d bf
       0.63802636 -0.3630135 0.080478705 -0.6765423
0001c0 2a 9c e5 3e c9 9f 0e bf a2 17 37 bf 97 d5 49 3f
       0.44845706 -0.5571256 -0.71520436 0.7884154
0001d0 d5 90 19 be f3 df 1d bf f3 8e 2f 3f 7c a9 67 bf
       -0.14996655 -0.61669844 0.685775 -0.9049299
0001e0 63 a7 f9 be d4 43 16 be 9c b2 93 3e 90 e3 6e be
       -0.48760518 -0.14674312 0.28847206 -0.23328996
0001f0 2c 24 91 3d 8a 23 02 3f ed 94 26 3d ac 34 22 bf
       0.07086977 0.5083548 0.04066937 -0.6336162
000200 60 6c 30 be 9d be 1a 3f b2 2b 4b 3e 46 8e 46 3f
       -0.17228842 0.604471 0.19840887 0.7756084
000210 b6 88 2b 3f 33 1e 0c 3d 0c c2 5e 3e 7f a0 d9 be
       0.6700548 0.034208488 0.2175371 -0.4250526
000220 a7 cf 2f bf 09 94 85 3e 6e 23 7d 3e f9 22 57 3d
       -0.6867623 0.26089504 0.24720547 0.052523587
000230 72 05 04 3f 0b 97 52 bf 74 79 11 bf 59 11 f2 be
       0.5157081 -0.82261723 -0.5682595 -0.4727886
000240 e9 e0 f3 be 66 6b 18 3f 83 72 4b 3f df 69 20 bf
       -0.4763253 0.59538877 0.79471606 -0.62661546
000250 77 d3 de be 54 25 4a 3f fc 68 11 3e 98 3b 32 3f
       -0.4352071 0.7896321 0.14200205 0.6962218
000260 88 6d c2 be 98 46 9d be d8 48 2b 3e 19 04 91 be
       -0.3797419 -0.3071792 0.16727006 -0.2832344
000270 8d b0 cd 3d c3 e4 16 bf 98 c6 7e bf e4 52 87 3e
       0.1004344 -0.5894281 -0.9952178 0.26430428
000280 7c 6e 1d bf 0e 31 1d be 8d be 65 3d aa f5 35 3f
       -0.6149671 -0.15350744 0.056089927 0.7107798
000290 f1 f6 82 3e bf 1f 6e 3f 92 60 bc be d6 9c 1c bf
       0.25579026 0.9301719 -0.36792427 -0.6117681
0002a0 ce f9 da 3e 61 52 4e 3f 2d e0 9c 3e 54 8a 45 be
       0.4276871 0.8059445 0.30639783 -0.19291049
0002b0 73 ba e7 bd 17 fc 58 3f b2 8c 8f 3d 83 68 8f 3e
       -0.11314859 0.8475966 0.070092574 0.28009424
0002c0 df 77 34 bf b2 6a c8 bd 4c 83 34 3f df 8a 08 bf
       -0.7049541 -0.097859755 0.70512843 -0.533369
0002d0 b4 fd 3c bf b1 e6 28 3f 81 39 19 3f 64 ae 95 3e
       -0.7382462 0.6597701 0.5985337 0.29234612
0002e0 bf b7 2a 3e 6d 3a 82 bd ff 8a 31 bf 29 0e 45 3d
       0.16671656 -0.063588 -0.69352716 0.048109207
0002f0 6c 7b 06 3e 55 50 fe be b5 7e 88 3e 06 2d 3c be
       0.13133019 -0.49670663 0.2665917 -0.1837655
000300 15 31 85 3e 92 73 35 3f c1 a4 6a 3e 8b 9d 08 3f
       0.2601401 0.7087947 0.22914411 0.5336539
000310 b1 c6 c0 bd e4 74 32 bf c6 2f ad bd 88 3e 0f bf
       -0.094128974 -0.6970961 -0.08456378 -0.5595479

net.layer_0.bias f4 [100]
000000 19 6e fa be 96 97 28 bc 90 05 fe 3d 61 a8 67 3e
       -0.48912123 -0.010290047 0.12403405 0.22622825
000010 d1 47 05 3f 1b 75 ea bd f4 41 2a 3e cb 21 a2 3e
       0.5206271 -0.11448117 0.16626722 0.31666407
000020 6e 12 7a 3e 4c ec 0d 3e c5 f0 07 bf 62 28 84 be
       0.24421093 0.13859671 -0.5310176 -0.2581206
000030 60 97 77 3c 2a 1f a7 be a3 4a 88 be 61 41 e4 3d
       0.015111774 -0.32640964 -0.26619443 0.111452825
000040 92 1d 04 bd 2a 0a be be 0b 86 97 be 35 ff 12 bf
       -0.032254763 -0.3711713 -0.29594454 -0.57420665
000050 19 83 25 3f 84 b8 ef 3e 2e e0 89 be 67 6b 1f 3f
       0.64653164 0.46820462 -0.26928848 0.6227326
000060 ce 88 b5 bd 1b ce 2c bf b7 4a b6 be 8b 8a 2d 3e
       -0.08863984 -0.6750199 -0.35603878 0.16947381
000070 13 2c de 3e 0c 9a 81 be 86 dd 36 bf 74 2d 91 bd
       0.43393 -0.2531284 -0.7143177 -0.070887476
000080 5a 49 dc 3e 97 39 79 3e 89 11 09 bf cc 32 d0 3b
       0.43024713 0.24338375 -0.5354238 0.0063537117
000090 36 fd d3 be f2 e8 05 3f a0 9e 95 bd cb a9 f9 be
       -0.41404122 0.5230857 -0.07305646 -0.48762354
0000a0 81 92 f0 3e 89 08 a0 be a0 6c 0d 3f 84 77 3a 3c
       0.46986774 -0.31256512 0.55243874 0.011381034
0000b0 71 9e b1 be 4d b2 19 bf 1b 81 41 3e 09 b0 e5 3d
       -0.34691194 -0.6003769 0.18896906 0.11215217
0000c0 09 40 9e be 90 7e eb 3e 30 4d 0b 3f bc 85 46 bd
       -0.3090823 0.45994997 0.54414654 -0.048467383
0000d0 cf 0e 33 bf d3 99 d7 3e c3 61 8f 3e f6 00 ed 3e
       -0.6994447 0.42109546 0.28004274 0.46289796
0000e0 59 fb 46 3e c8 c1 1b be ab 53 ac bd 6b 16 02 bd
       0.19431819 -0.1521064 -0.08414396 -0.03175966
0000f0 53 ab 2d be 35 94 26 3d b4 5d a6 3e d9 19 07 bf
       -0.16959886 0.040668685 0.32493365 -0.52773815
000100 73 51 5f 3e 3f e3 55 3e 22 02 fc be d3 8e 43 bd
       0.21808414 0.20887469 -0.49220377 -0.04774363
000110 4b 01 81 3e ca ad e9 3c 3a c9 93 be 9f a4 28 be
       0.251963 0.028525252 -0.2886446 -0.16469048
000120 8a 6a 86 be ba 72 69 be b5 95 41 3e 46 c3 44 be
       -0.26253158 -0.22797671 0.18904765 -0.19215116
000130 68 f4 47 be 1f b3 05 3f 1c 4b 3d be 30 34 a2 3e
       -0.19526827 0.5222644 -0.18485683 0.3168044
000140 19 29 0d bf 3f 2b 8f bc 04 9a 8b be f9 a0 ac 3e
       -0.55140835 -0.017476676 -0.27265942 0.33716562
000150 12 34 99 3e 5d 09 63 be e0 54 ec 3e 63 f1 5e 3e
       0.2992254 -0.2217154 0.46158504 0.21771769
000160 75 3a a0 be 18 97 cb be fd b4 8e bb f9 6f ae 3e
       -0.312946 -0.39763713 -0.0043550716 0.34069803
000170 3c bc 9c 3d 07 a5 21 bf 57 de d5 3e 86 7c 33 3f
       0.0765309 -0.63142437 0.41771194 0.7011188
000180 f2 50 27 3f 6c 9b c6 be 8b fc 13 bf 56 87 2d bf
       0.6535789 -0.38790452 -0.57807225 -0.6778463

net.layer_1.weight f4 [100, 100]
000000 07 6e 7a 3d 86 95 c6 bd 94 ae 85 bd f5 c2 d5 bd
       0.061140087 -0.09696488 -0.06527439 -0.10437576
000010 4e 9e e8 bc 69 46 e9 3b a1 57 16 3d a0 43 1f bd
       -0.028395798 0.0071189892 0.036704663 -0.03888285
000020 7c 85 90 bd 58 9a 9e bd 08 01 ae 3d 86 a4 a2 3d
       -0.0705671 -0.077442825 0.084962904 0.079415366
000030 e3 f1 9a bd ec f5 85 bd 4c 9e 50 3d b5 3f 16 3d
       -0.075656675 -0.065410465 0.050932214 0.03668185
000040 45 53 b0 3d 73 bb ff 3c df 5a a6 3b 68 a1 c1 bc
       0.086096324 0.031217312 0.0050767506 -0.023636535
000050 23 da d0 3d a0 cd bb 3d 32 07 88 bd a0 26 15 3d
       0.10197856 0.09170079 -0.066419974 0.03641379
000060 71 57 c6 bd 11 1e 22 3d 9c fe 8d 3d e1 f5 c8 3d
       -0.09684647 0.039579455 0.069333285 0.09812523
000070 44 9b 9c bc 62 7c 94 bd 02 3b 7e 3d 98 4c bf ba
       -0.019117005 -0.07250287 0.062067993 -0.001459497
000080 c2 ac 0d bc ba 0f af bd c1 d8 26 bc d3 d8 4a 3c
       -0.008647146 -0.085479215 -0.010183514 0.0123807965
000090 c2 78 45 3d fb 49 85 bd 24 e2 85 3c a6 20 b0 bd
       0.048210867 -0.06508251 0.016343184 -0.08599977
0000a0 9f c8 48 3d 2d b6 76 bd 6b 26 91 bd 20 e2 4a bc
       0.049019452 -0.06023233 -0.07087406 -0.012383014
0000b0 b3 1a 28 bd b7 4b ca bd 61 61 82 3d 2d e6 37 3d
       -0.041041087 -0.09877723 0.0636623 0.044897247
0000c0 59 9c 1e bd 94 19 c1 3d db 93 18 3d d9 a5 01 bc
       -0.038723323 0.09428707 0.03725038 -0.007913076
0000d0 14 5c d7 bd 9f 33 d2 3d 6f a5 3c 3d 9b 93 ac bd
       -0.105156094 0.10263752 0.046056207 -0.08426591
0000e0 d9 2e 7e 3d ff ca 81 3d 34 59 cd 3d ac c7 82 bb
       0.062056396 0.063375466 0.1002678 -0.003991088
0000f0 34 4c eb bd f9 be 7d bb 31 49 0f 3c 83 5d be bd
       -0.11489144 -0.0038718565 0.008745478 -0.0929518
000100 5e f6 af 3c 41 4a 55 3c 33 9a b8 bd 79 d2 19 bd
       0.021479782 0.013018192 -0.09013786 -0.037554238
000110 cc 55 b9 bd 76 f6 8e 3d c4 58 96 bd c8 38 99 bd
       -0.090495676 0.069806024 -0.073411494 -0.07481533
000120 d1 57 96 bd 67 fb 3e bd 63 5b da bc b6 b5 63 3d
       -0.073409684 -0.046626475 -0.026654905 0.055593215
000130 b2 ab 6c 3d d7 31 db 3d 6f 99 25 bd 7d 8c b9 3d
       0.05778093 0.107028656 -0.04042953 0.09059999
000140 a9 a9 5e 3d 0b f1 78 bd d6 95 c0 3c cd da 35 bb
       0.05436102 -0.06077675 0.023508947 -0.0027748824
000150 03 d9 3a bd 3f 1f 1c 3d 1f 29 22 3c 90 88 95 bd
       -0.045617115 0.038115736 0.009897499 -0.07301438
000160 ea 9d 08 bd d3 9c a5 bc fc 75 95 3d 70 95 2f bd
       -0.033353724 -0.020216381 0.07297894 -0.042867124
000170 7c 92 dc 3b 79 d0 9f bc 6d 75 30 3c 25 f8 c7 3d
       0.0067313295 -0.019508587 0.010770184 0.09764127
000180 01 f8 b4 bc 18 a5 6e 3d b5 70 35 bd 93 a8 11 bc
       -0.022090914 0.058262914 -0.04429694 -0.008890289
000190 d0 e7 91 3d 18 79 8e 3c 93 e8 3b 3d c5 58 ee 3d
       0.07124293 0.017391726 0.045876097 0.11638025
0001a0 5c f3 4f bd 46 ae b9 bc 09 64 60 3d 22 92 c9 bd
       -0.050769195 -0.022666108 0.0547829 -0.09842326
0001b0 f2 05 87 bc a0 a8 b8 3d 01 45 c0 bd ea 8e c2 3d
       -0.016482327 0.09016538 -0.093881615 0.09499915
0001c0 8a 08 85 bd b8 7f 09 3d 43 16 ae 3d 44 6d 0c bd
       -0.06495769 0.033569068 0.0850034 -0.03428389
0001d0 68 94 b8 bd cd 28 94 bc cb 74 b4 3c 59 e6 05 3b
       -0.09012681 -0.018085862 0.022028347 0.0020431487
0001e0 a3 77 3f bd d2 e2 a2 3d 5b b5 83 bd 85 7b 81 3d
       -0.046744954 0.07953419 -0.06431075 0.063223876
0001f0 25 fb cd 3d 23 42 80 3d f2 26 af 3d ab 3a 2c 3d
       0.10057668 0.062626146 0.0855235 0.042048138
000200 e9 d9 b9 bc 9b d2 c9 bc e2 8a a9 3d de 95 42 bd
       -0.022686915 -0.024636557 0.08278443 -0.047506206
000210 46 8e c8 3d 50 9e 6e 3d d7 0f b2 bd 4e 86 06 3d
       0.097927615 0.058256447 -0.086944275 0.032842927
000220 c9 8b b4 3d 45 31 99 3d 0c b2 83 bd 8d b3 07 bc
       0.088157244 0.074801005 -0.06430444 -0.008282554
000230 8b 71 aa bd d7 0c 87 bd 63 c9 c5 3d 9a 67 17 bd
       -0.08322438 -0.06594246 0.09657552 -0.036964037
000240 da 77 38 3b be 83 2b bc 26 6c e2 bc d2 4e 8f bd
       0.002814761 -0.0104684215 -0.02763946 -0.06997456
000250 a1 36 68 bd 81 18 8b 3d e5 d6 83 bd e6 08 3f 3d
       -0.056692723 0.06791783 -0.06437472 0.046639346
000260 2c c7 4b 3d f2 03 9b bc 18 af 1b 3d c1 74 03 bd
       0.049750492 -0.01892278 0.03800878 -0.032093767
000270 e1 05 5b bd 71 0a ea 3d 97 d9 cd bc c1 97 f0 3c
       -0.053472403 0.11427773 -0.025128169 0.029369237
000280 2e 14 af bd f7 e6 6f 3d cf 39 bf 3d f7 9a d7 3b
       -0.08548771 0.058569875 0.09337198 0.0065797525
000290 8e 17 c5 bb c1 69 97 bd 37 e4 85 bd fb 04 15 3d
       -0.006014771 -0.07393218 -0.06537669 0.036381703
0002a0 c0 54 7b 3c fc a5 aa 3d 5f 82 d5 bd df 4e 30 3d
       0.01534003 0.0833244 -0.10425257 0.043043967
0002b0 b8 a4 ba 3c fd 75 42 bd d9 ec 26 3d d8 9f b1 3d
       0.022783622 -0.047475804 0.04075322 0.08673066
0002c0 d8 74 79 bd 56 2d 88 3d 77 32 92 3d 08 7d 14 3d
       -0.060902447 0.06649272 0.07138532 0.03625205
0002d0 b8 95 b5 bc 14 1a a6 3d 09 80 84 3d 19 b4 e9 3c
       -0.022166118 0.08110443 0.06469733 0.02852826
0002e0 47 c1 e5 3d 8c ef a8 3d b4 9e ae 3d 44 3d 3f 3d
       0.11218505 0.08248815 0.08526364 0.046689287
0002f0 a6 48 ad 3c 01 db 67 bd a8 51 87 3d f7 b7 c3 3c
       0.021152806 -0.056605343 0.066073716 0.023891432
000300 c4 dd 4d bd 54 14 93 bd 1e ba 11 bc e2 14 c5 bd
       -0.05026032 -0.07181612 -0.008894471 -0.09623124
000310 e1 c2 bf 3c ba f8 ae bd d1 cf e9 3c 96 df 13 3d
       0.023408355 -0.085435346 0.028541477 0.0361019
000320 6f 05 80 bd ea ed a3 bd a4 f4 63 3d 79 8e b4 3c
       -0.062510364 -0.08004363 0.05565323 0.022040593
000330 7d 60 c4 3d 5f c9 89 bd 26 e6 b0 bc a0 d7 e7 bc
       0.09588716 -0.067278616 -0.021594118 -0.02830106
000340 2c a4 84 bd ec 6a 91 3d db ca 67 3c 31 db 34 bd
       -0.06476626 0.07100472 0.014147486 -0.04415435
000350 60 b4 8b 3d 3d 27 ca 3c 0f b1 91 bd 9c 9b a6 bd
       0.06821513 0.024676913 -0.07113849 -0.08135149
000360 61 37 18 3d d3 92 78 bd cb f1 8c 3d 25 68 a2 bd
       0.03716219 -0.060686897 0.06882056 -0.0793002
000370 9f 9e 84 3d 1d 8d 15 3d 89 60 6c 3d aa 2b bc 3c
       0.06475567 0.03651153 0.05770925 0.02297004
000380 76 41 72 bd 71 39 b6 bd df 1d b0 3d db 65 90 3d
       -0.05914446 -0.08897675 0.085994475 0.070506774
000390 28 6f 6f 3d 57 d4 a9 bd 8a 0c 5a bc 43 01 81 bc
       0.058455616 -0.08292454 -0.013308654 -0.015747672
0003a0 1a bd 83 3d d5 ab 85 3d 2f 24 cd 3d 73 50 b5 bd
       0.06432553 0.06526915 0.10016667 -0.08853235
0003b0 fa d5 47 ba d7 68 2f 3c 6d 6a 81 3c 95 43 aa 3d
       -0.00076231326 0.010706148 0.015797818 0.083136715
0003c0 fa 1c 30 bd 67 00 a1 3d b3 d1 69 3d 6c c9 f7 bb
       -0.042996384 0.07861405 0.05708475 -0.007561853
0003d0 de 99 4e bd 31 0a 98 3d fe f2 2c 3d 12 5b a2 bd
       -0.050439708 0.07423819 0.042223923 -0.079275265
0003e0 5a 27 11 bd 14 c4 17 3d 8c 48 97 3d bc 5e 8f bd
       -0.03543792 0.03705223 0.07386884 -0.07000491
0003f0 c6 8b 95 bd 16 b7 92 bd 98 ef 3f bd d7 ca 26 bb
       -0.0730205 -0.07163827 -0.046859354 -0.0025450492

net.layer_1.bias f4 [100]
000000 70 fc c2 bc 5d 9d 12 bd 55 3e c6 3d 1e 56 d3 3c
       -0.023802012 -0.035794605 0.09679858 0.0257979
000010 52 39 88 bc c6 26 24 bd ea 16 8a bb 60 ec e1 bd
       -0.016628895 -0.04007604 -0.0042141574 -0.11031413
000020 81 41 ca bd 7e bb 69 3d 9e b8 91 3c 89 b1 78 3c
       -0.09875775 0.057063572 0.017788228 0.015179046
000030 3b 7a 12 3d 4d 4c a2 bd be 66 dd 3d cc e9 b0 3d
       0.0357611 -0.079247095 0.10810612 0.08638343
000040 15 6f b1 3d fb 5a 78 bc 1f 54 bb 3d d3 9d b6 bd
       0.08663765 -0.01515841 0.09146904 -0.08916821
000050 1b aa f8 bd de 8c 63 3d bd 95 b5 bd 2c c2 97 3d
       -0.1214182 0.055554263 -0.08866451 0.07410082
000060 83 d2 a8 bd 09 13 b8 3a 84 74 b5 bd 89 3e 93 3d
       -0.08243277 0.0014043759 -0.08860114 0.07189662
000070 33 55 84 3d 99 a9 b9 3d b7 3e a2 bd 18 08 c5 bc
       0.06461563 0.09065551 -0.07922118 -0.024051711
000080 a9 90 2c bd ef cf 67 3b 16 26 09 3d 06 f7 2f 3d
       -0.042130146 0.003537174 0.033483587 0.04296019
000090 ac 0c 72 bd 5a 49 5b 3d 57 68 b9 3d 73 4b d0 bd
       -0.059094116 0.05353675 0.09053104 -0.10170641
0000a0 ed 5b 43 3c bf dc a8 bc 55 4a c9 bd 4a 92 88 3a
       0.011923772 -0.020613072 -0.09828631 0.0010419574
0000b0 2c ef 8a bd 02 73 b6 bd fa d5 86 3d bf 81 3c 3d
       -0.067839 -0.08908655 0.065837815 0.046022173
0000c0 75 5e db bd 36 d0 ca 3c 64 68 7d 3d 62 89 b2 bd
       -0.107113756 0.024757486 0.061867133 -0.0871761
0000d0 d1 59 80 3d f4 7c 7c bd 84 8c 20 bd 3e 51 70 bd
       0.06267131 -0.061642602 -0.039196506 -0.05867123
0000e0 89 dc 89 bd ef a3 b5 3d 0b 86 8f 3d c1 ae 8a bd
       -0.06731517 0.088691585 0.070079885 -0.06771613
0000f0 5c 2e 9e 3d 76 4c 4c bd cb 41 ba bb 9e b7 c8 bd
       0.07723686 -0.049877606 -0.0056841127 -0.09800647
000100 9b ce 18 3d 66 b2 7b bd c4 13 6c bd 76 86 a2 bd
       0.03730641 -0.06144943 -0.057636037 -0.07935803
000110 29 c9 97 bb d5 0d a6 bd ce 44 87 3d 3f e3 cd bd
       -0.0046321345 -0.08108107 0.0660492 -0.100531094
000120 f5 44 98 3d e9 ce 96 bd d8 f5 9c 3c 1b 69 50 3d
       0.074350275 -0.07363684 0.019160196 0.050881486
000130 85 d0 7c 3d a6 9e d0 3c 11 b9 83 3d d8 c0 62 3d
       0.061722297 0.025466274 0.06431783 0.05535969
000140 a2 15 2a 3d 12 8b 27 3d a3 26 d1 bc 73 85 bb 3d
       0.041524537 0.040904112 -0.025531119 0.09156313
000150 77 6c ac 3d bc c5 41 bd 41 68 a8 3d 7b 94 8c bd
       0.084191255 -0.047307715 0.0822301 -0.06864258
000160 59 25 67 bd ac 07 df 3c 3d 2f 7e bd f2 25 a8 bc
       -0.056432102 0.027225338 -0.06205677 -0.020525906
000170 09 92 00 bd df ec d1 bc dc a2 4e bc a5 6d 8b bd
       -0.03138927 -0.025625644 -0.012612071 -0.068080224
000180 61 ab 4a bd 1e 2d 8a 3d ff 03 bc bd d8 81 98 bc
       -0.049479846 0.06746887 -0.0918045 -0.018616602

net.output.weight f4 [1, 100]
000000 dd 21 d4 3c 72 18 a7 bd 60 af 03 3d f6 0c a1 3d
       0.025895054 -0.081589594 0.032149673 0.078638
000010 dc e6 3e be 74 58 b1 bb f7 b2 ad 3d 79 fa 0c 3b
       -0.18642753 -0.0054121558 0.084814005 0.0021511598
000020 5a 8f 6c bd f7 94 62 3d bf 7e 56 ba fd bf 80 3d
       -0.0577539 0.055317845 -0.0008182339 0.06286619
000030 43 8a a8 bd 30 93 a9 3c 04 fd f1 3d e6 15 74 3d
       -0.08229496 0.020700067 0.11815837 0.059591196
000040 c2 96 9b bd 13 a6 8e 3c 6f 67 e2 3b 4c f4 33 b9
       -0.07597114 0.017413175 0.006909303 -0.00017161778
000050 cc a3 66 be 5e 85 85 3d 66 9b 27 bd dd 5d 13 3d
       -0.22523421 0.065195784 -0.040919684 0.035978187
000060 2a d5 29 bd ed 8e 60 bd 09 78 a0 bc cb e2 86 3d
       -0.041463055 -0.054823805 -0.019588487 0.06586226
000070 70 44 a1 bd a8 98 05 3d 24 da ec 3c 63 44 2b ba
       -0.078743815 0.032616287 0.028912611 -0.0006533323
000080 95 c7 90 bc 98 81 a5 bd 74 7a d9 3b 41 10 55 bd
       -0.017673293 -0.08081359 0.006636912 -0.052017454
000090 78 02 2c bd 8d b4 35 bd 2d c4 00 bd 66 0f 1c bd
       -0.041994542 -0.04436164 -0.031437088 -0.038100623
0000a0 2e 8f a7 3d e7 b5 7d 3d c8 9f bc bc bc ff 59 bd
       0.08181606 0.061941054 -0.023025408 -0.053222403
0000b0 6e 6b ac bb ba 41 93 3c 9a 4c 7a 3c 02 9b d0 bc
       -0.00526183 0.017975677 0.015277052 -0.025464538
0000c0 55 5e d5 bc 99 8b bc 3d 72 ee 8e bd 57 fd f0 3b
       -0.026045958 0.09206314 -0.069790736 0.007354419
0000d0 b3 df d8 bc be 71 bc bd d4 29 90 bd 58 9c 94 bd
       -0.026473856 -0.09201382 -0.07039228 -0.07256383
0000e0 28 53 14 bc 9a 8c 65 bd 8e 98 28 3d b6 16 17 bd
       -0.009053029 -0.05604229 0.041161112 -0.036886893
0000f0 aa 4a a8 bd 03 c6 90 bd e4 64 2e bd f0 b1 95 bd
       -0.08217366 -0.07069018 -0.042576686 -0.073093295
000100 4d fc 1e 3c 0e 3c 8a bd 11 c2 db 3b 98 b8 36 3c
       0.009703708 -0.06749736 0.006706484 0.011152409
000110 5c 6f 11 be 64 f3 ba bb 36 3b 90 bd 52 47 e0 bc
       -0.14202636 -0.005705284 -0.070425436 -0.027377758
000120 4e e7 7e bd c9 56 35 3d 7e 83 1b bd 3c 4b 49 bd
       -0.062232308 0.044272218 -0.037967198 -0.049144015
000130 24 90 70 bd c4 cc 2e 3e b9 2c 2c 3c 0f f6 84 bc
       -0.058731213 0.170703 0.01050871 -0.016230611
000140 36 dd d5 bb 27 4c b5 bd 06 0a 60 bd 12 20 10 3d
       -0.0065266145 -0.088524155 -0.05469706 0.035186835
000150 d5 6d 50 3d 6f 32 99 3d 65 d8 6f bd 49 63 7c 3d
       0.050885994 0.074803226 -0.05855598 0.061618123
000160 cc b1 4e 3e b7 f5 fd bd 6c 00 6f bd 0a 93 a4 3d
       0.20185012 -0.12400382 -0.05835001 0.08035858
000170 7a 8e 2f 3c 7e 34 81 3d ea 20 4c bd 8e 0a 94 bd
       0.010715121 0.0630884 -0.049836077 -0.07228576
000180 55 f6 af 3d 7f 55 b8 bc d3 ba a6 bc 5a c9 c1 bc
       0.08591906 -0.022501705 -0.020352757 -0.023655582
