burgers/trained_models/Conv_Anal/u_1_2/Conv_Anal_Final_wpinn_burgers_0_3_100.pth (torch, 14132 bytes, 5 tensors)

net.layer_0.weight f4 [50, 2]
0	0x3ebbfe80	0.36717606
1	0x3eefc6a9	0.46831253
2	0x3f3bc309	0.73344475
3	0x3ddb19d0	0.10698283
4	0x3da4f720	0.08054948
5	0xbe799543	-0.24373345
6	0x3e8e2ed9	0.27770117
7	0x3e7b762d	0.24556799
8	0xbe7e8b39	-0.24857797
9	0x3e30149d	0.17195363
10	0xbdf67e0b	-0.120357595
11	0xbef0642b	-0.46951422
12	0x3ea544fb	0.3227919
13	0x3ebbd7d8	0.36688113
14	0xbec21727	-0.3790829
15	0xbead49e6	-0.33845443
16	0x3edfd586	0.43717593
17	0x3e7d98ad	0.24765272
18	0xbedc6e50	-0.43052912
19	0xbdbef8dc	-0.0932481
20	0x3f049643	0.5179178
21	0xbf178db6	-0.5920061
22	0xbbdf693c	-0.006817965
23	0xbf12f4c0	-0.5740471
24	0x3f3ba14c	0.73292994
25	0xbede8619	-0.43461683
26	0xbe5cb754	-0.21554309
27	0xbf25aac2	-0.6471368
28	0xbeea34a1	-0.45743278
29	0x3ed47300	0.41493988
30	0x3ecff78a	0.40618545
31	0xbebdf34b	-0.3709968
32	0x3e3fea7c	0.18741792
33	0xbed45edf	-0.4147863
34	0x3f07a84a	0.52991164
35	0xbf3e5367	-0.7434601
36	0xbf357fde	-0.70898235
37	0xbf117e4e	-0.5683335
38	0xbeb0c747	-0.34527037
39	0xbf19be87	-0.60056347
40	0xbe9d37d6	-0.30706662
41	0xbf268151	-0.6504107
42	0xbe58aa2c	-0.21158665
43	0x3f3e3c5f	0.7431087
44	0xbee01b97	-0.4377105
45	0xbf2dedca	-0.6794096
46	0xbec2b5f1	-0.38029435
47	0xbd4474b0	-0.047962844
48	0xbeafba1e	-0.34321684
49	0x3f3fbd7d	0.7489851
50	0x3f22f7ca	0.63659346
51	0xbf2ab2ee	-0.66679275
52	0xbe90f039	-0.28308275
53	0x3edd7b01	0.43257907
54	0x3ee6dc68	0.45090032
55	0x3ec53f71	0.38524964
56	0x3f0c5b2a	0.54826605
57	0xbf0eefe2	-0.5583478
58	0x3e0db10d	0.13837071
59	0x3eeafafe	0.45894617
60	0x3e01d1fb	0.12677757
61	0xbf15917f	-0.58425134
62	0x3f301753	0.6878559
63	0xbe83c185	-0.2573358
64	0xbe161fd3	-0.14660577
65	0x3eef5170	0.4674182
66	0x3f3e4500	0.74324036
67	0xbf06c213	-0.52639884
68	0xbf2a1fde	-0.66454875
69	0x3efcb235	0.4935471
70	0xbf0b6367	-0.5444855
71	0x3e745c9d	0.23863454
72	0x3e8d1bb4	0.27560198
73	0x3ef6bbe1	0.48190215
74	0xbf40bc95	-0.75287753
75	0x3edb2f25	0.42809406
76	0x3ee70da5	0.45127597
77	0xbf49d29b	-0.78836983
78	0x3ea9e07a	0.33179075
79	0x3f234ad1	0.63786036
80	0x3e939869	0.28827217
81	0xbea0cc9d	-0.31406108
82	0x3ef6c747	0.48198912
83	0x3f5225f5	0.8208917
84	0xbf13030a	-0.5742651
85	0x3eda70a3	0.4266406
86	0xbe9bb98c	-0.30415
87	0xbe97d9a8	-0.29658246
88	0xbf0f4705	-0.5596774
89	0xbf2455cf	-0.64193434
90	0xbf307ee4	-0.6894362
91	0x3e025b7e	0.12730214
92	0x3f4370a9	0.7634378
93	0xbea24b27	-0.31697962
94	0x3e901aa5	0.28145328
95	0x3e652ad8	0.22379625
96	0x3eaff523	0.34366712
97	0x3efda110	0.49536943
98	0xbe998c36	-0.29989785
99	0x3eece29a	0.46266633

net.layer_0.bias f4 [50]
0	0x3f095332	0.5364257
1	0x3eedc4dd	0.46439257
2	0x3e355bb9	0.1771077
3	0xbec1eb77	-0.37874958
4	0x3cd32966	0.025776576
5	0x3edb04b8	0.42777038
6	0xbe9c9ac0	-0.30586815
7	0xbe8afc50	-0.27145624
8	0x3ea2cce5	0.31796947
9	0x3f09644c	0.53668666
10	0xbea2b4a7	-0.31778452
11	0x3ecc6a64	0.3992492
12	0x3f06c3c1	0.52642447
13	0x3f27f309	0.6560522
14	0x3f0feb6b	0.56218594
15	0xbf284b1f	-0.65739626
16	0x3d980711	0.07423223
17	0xbed6b64c	-0.41935956
18	0xbf250c3f	-0.6447181
19	0x3f26f902	0.65223706
20	0xbe868950	-0.26276636
21	0xbecad266	-0.39613646
22	0xbe1079f3	-0.1410902
23	0x3db6c5ae	0.08924423
24	0xbf090961	-0.53529936
25	0x3ec016ae	0.37517303
26	0x3f26db44	0.6517832
27	0xbdaf27d6	-0.0855252
28	0x3c4f1b2c	0.012640756
29	0xbf22d4a7	-0.6360573
30	0xbf1d90d0	-0.6154909
31	0xbf2d84f5	-0.67781
32	0x3f266e0a	0.65011656
33	0x3dcdf026	0.1005557
34	0xbe9d26d2	-0.3069368
35	0x3e9a710b	0.3016437
36	0xbf267f9f	-0.65038484
37	0x3e043986	0.12912568
38	0x3e4ec133	0.20190887
39	0x3f1d042f	0.6133451
40	0xbea1320d	-0.31483498
41	0x3ea59181	0.32337573
42	0xbf0bd08e	-0.54615104
43	0x3ea15abb	0.31514534
44	0x3f341da9	0.7035776
45	0xbe77c5b7	-0.24196516
46	0xbf1993ed	-0.5999134
47	0xbdf73647	-0.120708995
48	0x3f287381	0.65801245
49	0xbe8468c6	-0.25861186

net.layer_1.weight f4 [50, 50]
0	0x3d5512d7	0.05201992
1	0xbcb6360c	-0.022242568
2	0xbe277419	-0.16352881
3	0x3dc0aaa7	0.09407549
4	0x3e3865de	0.18007609
5	0x3d80b661	0.06284786
6	0x3ca53420	0.020166457
7	0x3d78a1b7	0.0607011
8	0xbc78faae	-0.015196485
9	0xbdfa8644	-0.122326404
10	0xbd95f4be	-0.073220715
11	0xbe0adb18	-0.1356014
12	0x3e13d36c	0.1443612
13	0xbe01cc57	-0.12675606
14	0x3cad0c7b	0.021124115
15	0xbcb4573f	-0.022014258
16	0xbd67ec5e	-0.0566219
17	0xbdd0de26	-0.101986215
18	0x3e43d0ba	0.19122592
19	0xbe3fcf66	-0.1873146
20	0xbd694b78	-0.05695674
21	0x39155582	0.00014241601
22	0x3c245794	0.010030646
23	0x3d705f9b	0.058684926
24	0x3d9022d4	0.07037893
25	0x3e02cf5e	0.12774417
26	0x3cd53e58	0.026030704
27	0x3d95409e	0.072877154
28	0x3d8772b1	0.066136725
29	0xbda41b08	-0.08012968
30	0xbda791b0	-0.081820846
31	0xbe2766fd	-0.1634788
32	0xbd375ee5	-0.044768233
33	0x3db22255	0.086979546
34	0xbd530d9c	-0.05152665
35	0x3b10e068	0.0022106413
36	0xbda7aeae	-0.081876144
37	0xbda582df	-0.08081602
38	0x3c678e3e	0.014133034
39	0xbdd7c6d6	-0.10535972
40	0xbe089fac	-0.1334216
41	0xbdc10554	-0.094248444
42	0xbcff8bcc	-0.03119459
43	0xbbecacb7	-0.0072227377
44	0xbcb342f2	-0.021882508
45	0x3cd25873	0.025676941
46	0xbc3bb4d9	-0.011456692
47	0x3e4305bf	0.1904516
48	0xbd0cb617	-0.034353342
49	0x3df4be9b	0.119504176
50	0x3dec3bb9	0.11534829
51	0x3df303af	0.11865937
52	0x3cd7c6af	0.026339857
53	0xbd2ae415	-0.041721422
54	0xbda21983	-0.07915022
55	0x3d068334	0.03283997
56	0x3be36cc1	0.0069404547
57	0xbc697e67	-0.014251328
58	0x3e16b7b3	0.14718513
59	0x3d929577	0.071574144
60	0x3dd3cc0d	0.10341654
61	0x3c9413c5	0.018075833
62	0x3d93a4e3	0.07209184
63	0xbd735a36	-0.059412204
64	0xbdcb898d	-0.09938345
65	0xbcca0b5e	-0.024663623
66	0xbdef59f1	-0.11687077
67	0xbc0d0c73	-0.008608925
68	0x3db90b78	0.090353906
69	0x38d1a828	9.997218e-05
70	0xbd4e3be4	-0.050350085
71	0xbdf01cf4	-0.11724272
72	0x3df04772	0.11732377
73	0xbcd56b78	-0.026052222
74	0xbdfa1704	-0.12211421
75	0x3e053356	0.13007864
76	0x3c11c77e	0.00889766
77	0x3d9031c9	0.07040746
78	0x3d0a6d6a	0.03379575
79	0xbdd551f0	-0.10416019
80	0x3e0130e8	0.12616313
81	0xbcf1d741	-0.029521586
82	0xbd899798	-0.06718367
83	0x3e0eb0fd	0.13934703
84	0x3d535dab	0.051603
85	0x3d612b24	0.054972783
86	0xbbe1ba3d	-0.0068886564
87	0xbdc0bc49	-0.094109125
88	0x3dc678fd	0.096910454
89	0x39f2f290	0.0004633856
90	0xbe067046	-0.13128766
91	0x3c35aa4c	0.011087965
92	0x3d17a6d3	0.03702433
93	0x3d524550	0.051335633
94	0xbe0f46f3	-0.13991909
95	0x3c8c044b	0.01709189
96	0xbd8c2986	-0.068438575
97	0x3d20c5b8	0.03925106
98	0xbcdd3fd0	-0.027007967
99	0xbdc089e6	-0.09401302
100	0xbd815c78	-0.06316465
101	0x3d9c4b45	0.07631544
102	0xbb503dfd	-0.003177523
103	0x3d173925	0.03691973
104	0x3d4814d2	0.04884798
105	0x3e09d71b	0.13460962
106	0xbded8630	-0.1159786
107	0x3d808c81	0.06276799
108	0x3d8e1ae6	0.06938724
109	0xbd1c411f	-0.03814804
110	0xbd39e7e2	-0.045387156
111	0x3dcc9470	0.0998925
112	0x3ce1e3b8	0.027574405
113	0x3caca76b	0.021075925
114	0x3d48c850	0.049019158
115	0x3cfa0d67	0.030523969
116	0x3ddbbd38	0.1072945
117	0x3c8375dd	0.016047413
118	0x3d2cd8c3	0.042198908
119	0x3dd6f083	0.10495093
120	0xbde11e26	-0.109920785
121	0x3e044259	0.12915935
122	0x3ddc0ac0	0.10744238
123	0x3dbd997e	0.09257792
124	0x3d7102e8	0.058840662
125	0x3d8d04bd	0.068856694
126	0xbd96df50	-0.07366812
127	0x3d952dc6	0.07284121
128	0xbdf51247	-0.11966377
129	0xbe296085	-0.16540726
130	0x3c212cd7	0.009837351
131	0xbd91e715	-0.071241535
132	0x3c9c2751	0.019061716
133	0x39f1b983	0.0004610532
134	0x3d8b31a4	0.067965776
135	0x3dc5088b	0.0962077
136	0xbdc096ff	-0.094038
137	0x3e001123	0.12506537
138	0x3d51856b	0.051152628
139	0xbddb6578	-0.10712713
140	0xbd09eef5	-0.033675153
141	0xbd403297	-0.046923246
142	0x3d933e9f	0.071896784
143	0x3e09cf09	0.13457884
144	0xbd08efe3	-0.0334319
145	0xbd669be3	-0.05630101
146	0xbddb4c06	-0.1070786
147	0xbe3c5f4d	-0.1839573
148	0xbd4aec4a	-0.04954175
149	0x3b62476e	0.0034527439
150	0xbdc9553c	-0.0983071
151	0x3d94b7b6	0.072616026
152	0x3db64008	0.08898932
153	0xbd254676	-0.0403504
154	0x3e0c66a9	0.13711037
155	0x3e07250f	0.1319773
156	0xbcd7f2d4	-0.026360907
157	0xbbfc6ec4	-0.007703634
158	0x3c6a985b	0.014318551
159	0xbdc6321d	-0.09677527
160	0xbda24854	-0.07923952
161	0xbdd2d328	-0.10294181
162	0xbe29bea8	-0.16576636
163	0x3bd9e2e0	0.00664936
164	0xbc21c012	-0.009872453
165	0xbd0524c4	-0.032505766
166	0x3db89c47	0.090141825
167	0x3d7a1c11	0.061061922
168	0xbd84f3a7	-0.064917855
169	0xbda7fbe0	-0.08202338
170	0xbe1f1bd6	-0.15537962
171	0xbdc357d2	-0.09538235
172	0xbd75ed7e	-0.060040943
173	0x3d90bf0e	0.07067691
174	0x3de8da7e	0.11369799
175	0x3d144eb0	0.036207855
176	0x3cbc63a4	0.022996731
177	0x3d76eb8c	0.06028323
178	0xbe194cfb	-0.14970772
179	0xbbcce478	-0.0062528215
180	0xbd07ea90	-0.03318268
181	0xbc4980c7	-0.012298769
182	0x3dc842cb	0.09778365
183	0xbb6477c0	-0.0034861416
184	0xbcd423e2	-0.025896017
185	0xbccff7d6	-0.025386732
186	0xbdb7c459	-0.08972997
187	0xbdad2b14	-0.08455482
188	0xbe117149	-0.14203371
189	0xbd9c9217	-0.07645052
190	0x3deb3165	0.11484031
191	0x3e0909f0	0.13382697
192	0xbca60e5a	-0.020270515
193	0xbcda535a	-0.026651073
194	0xbd922cff	-0.071374886
195	0xbd6e96e4	-0.05824937
196	0x3d6ebbad	0.05828445
197	0xbdd07f85	-0.101805724
198	0x3d8859d3	0.066577576
199	0xbd1e2eef	-0.038618978
200	0xbe1e04c1	-0.15431501
201	0x3cd1564b	0.025553843
202	0x3d1a56f7	0.037680592
203	0x3d44f16b	0.048081797
204	0xbdc1905e	-0.09451364
205	0xbd12ff4b	-0.035887998
206	0x3e0ad05c	0.13556045
207	0x3cd64add	0.026158744
208	0xbd011b23	-0.03152002
209	0x3d4b27c7	0.04959848
210	0x3de4436b	0.111456715
211	0x3dfd5f64	0.1237171
212	0x3d81de31	0.06341208
213	0x3df9641e	0.12177299
214	0xbd0a55f5	-0.03377338
215	0x3ab9e0b4	0.0014181347
216	0x3da23e58	0.079220474
217	0xbe1f0d9b	-0.15532534
218	0xbdcca81e	-0.09993003
219	0xbe012f95	-0.12615807
220	0xbddeccb4	-0.10878888
221	0x3c62d02b	0.013843576
222	0x3d016ac3	0.031595957
223	0xbca4b2fa	-0.020104874
224	0xbd95606e	-0.07293783
225	0xbdcb660d	-0.09931574
226	0xbd48e094	-0.0490423
227	0x3e059058	0.13043344
228	0xbd1eca21	-0.038766984
229	0x3c80ee5a	0.015738655
230	0xbda588b6	-0.08082716
231	0xbdcac348	-0.09900528
232	0x3e021117	0.12701832
233	0xbc9d44a7	-0.019197775
234	0xbc16d4ed	-0.009206039
235	0x3df812e8	0.12112981
236	0xbc778f3c	-0.015109833
237	0x3d519950	0.0511716
238	0xbd85a9df	-0.06526541
239	0x3d9d1b42	0.07671215
240	0xbd0ca733	-0.03433914
241	0x3d3e5bf6	0.04647442
242	0xbe126380	-0.14295769
243	0x3c565a54	0.013083059
244	0x3c3d042f	0.011536642
245	0xbdc53362	-0.09628941
246	0x3d888548	0.066660464
247	0xbda0e6bc	-0.07856509
248	0xbd84c49e	-0.06482814
249	0x3da6f542	0.08152248
250	0xbda8e32d	-0.08246455
251	0x3da3135f	0.07962679
252	0x3d66674d	0.05625086
253	0x3d024d5d	0.03181206
254	0x3db76d01	0.08956338
255	0xbe08ebbe	-0.13371179

net.layer_1.bias f4 [50]
0	0x3dee5f0f	0.11639225
1	0xbd94dd0d	-0.072687246
2	0xbc7eb294	-0.015545506
3	0xbddb11a5	-0.10696725
4	0x3e0812e4	0.13288456
5	0xbb3764fe	-0.002798378
6	0xbdd1c139	-0.102419324
7	0x3dbb9f65	0.091612615
8	0x3dcda81c	0.1004183
9	0x3db84b7c	0.089987725
10	0x3da46d79	0.08028693
11	0xbdb09902	-0.08622934
12	0xbd807086	-0.06271462
13	0xbd831080	-0.063996315
14	0xbdab35ba	-0.08359857
15	0x3dad2244	0.08453801
16	0x3ca3a57c	0.01997637
17	0x3c107e13	0.008819121
18	0x3d79067a	0.060797192
19	0xbdc10a78	-0.09425825
20	0xbdc2e50f	-0.09516346
21	0x3d457779	0.04820964
22	0xbdce2239	-0.10065121
23	0x3d09c245	0.033632535
24	0x3dd2e49c	0.1029751
25	0xbdde2643	-0.108471416
26	0xbc87b5b7	-0.01656614
27	0xbd99ac1e	-0.07503532
28	0xbcd49c62	-0.025953475
29	0x3dd51dc4	0.10406068
30	0xbdf25467	-0.11832505
31	0xbd31c593	-0.043401312
32	0x3dacde41	0.08440829
33	0xbd486ecb	-0.048933785
34	0x3e058b32	0.1304138
35	0xbb7bd799	-0.0038428067
36	0xbcce1d11	-0.025160344
37	0xbd3f73b5	-0.046741206
38	0xbda9824c	-0.08276805
39	0x3d5ef75a	0.05443511
40	0x3d6a3e62	0.0571884
41	0x3d2f05e2	0.04273022
42	0x3cf73212	0.030175243
43	0x3d9dc57d	0.077036835
44	0xbd4e7ccf	-0.050411996
45	0x3cf5ff00	0.03002882
46	0x3dba507c	0.090973824
47	0x3e09aa22	0.13443807
48	0x3dc15501	0.09440041
49	0xbaf1d1e7	-0.0018449397

net.output.weight f4 [1, 50]
0	0x3dbe26ea	0.09284766
1	0x3dddbe03	0.108272575
2	0xbde8ca79	-0.113667436
3	0xbe044b64	-0.12919384
4	0x3c4a7e7e	0.01235926
5	0x3d042d66	0.032269858
6	0xbdaac97d	-0.08339212
7	0xbd92acd0	-0.071618676
8	0xbcf7d8e5	-0.03025479
9	0x3e07c1ed	0.1325757
10	0xbe2a6416	-0.16639742
11	0x3dfce340	0.12348032
12	0x3e302f5c	0.17205566
13	0xbe3e3821	-0.18576099
14	0xbde4d844	-0.11174062
15	0xbda91ce3	-0.08257463
16	0xbbe77952	-0.007064023
17	0x3cc146b2	0.02359328
18	0xbe48066f	-0.19533704
19	0x3ca369e1	0.019947948
20	0xbe532ace	-0.20621797
21	0xbe070867	-0.13186799
22	0xbd506dae	-0.05088585
23	0xbde4a118	-0.11163539
24	0x3e29ae3b	0.1657037
25	0xbe2d8ee8	-0.16949046
26	0xbe07e453	-0.13270693
27	0xbe02676e	-0.12734768
28	0x3da2e8ee	0.07954584
29	0x3d8f9704	0.07011226
30	0x3d1cba85	0.038263816
31	0x3d84f42d	0.06491885
32	0xbd7c7f53	-0.061644863
33	0x3e290912	0.16507366
34	0xbd4fae68	-0.050703436
35	0x3e352c4b	0.17692678
36	0xbda05006	-0.07827763
37	0xbdd0e5e6	-0.102001
38	0xbe1ad21a	-0.1511921
39	0xbe129ed6	-0.14318404
40	0x3dc03452	0.09384979
41	0x3d98361e	0.07432197
42	0xbc837d5f	-0.016050993
43	0xbdcefa73	-0.10106363
44	0xbdda33af	-0.10654389
45	0xbe31dd65	-0.17369612
46	0xbdfc4868	-0.12318498
47	0x3e2ed2bb	0.17072575
48	0x3e08118b	0.13287942
49	0x3dd3d84b	0.10343989
