burgers/trained_models/Conv_Anal/u_1_2/Conv_Anal_Final_wpinn_burgers_0_3_20000.pth (torch, 14152 bytes, 5 tensors)

net.layer_0.weight f4 [50, 2]
00000000: e83a 073e ef60 193f eb78 2840 77bf 13bf
00000010: 926f 663e 1f97 05bf 20a8 bf3e 8977 503f
00000020: 3379 95be d491 063f 2bf9 d9be 8f3b 6cbf
00000030: 3f8a a83e a4b5 953f 4e8f a5be 129f 06bf
00000040: b7ff a53e 0c44 013f 0905 3abf 2353 68bf
00000050: 94f9 5d3f efd3 42c0 9ac4 3abf da2e b9bf
00000060: f78f 0e3f cff6 14bf 0568 16bf b815 81bf
00000070: f6c1 25bf 67ec 7b3f ddca f53e 6cbd 56bf
00000080: 280b cfbc d195 96bf b74c 8f3f 6060 2bc0
00000090: a9ca 07bf 1836 1bbf b988 24bf 6204 88bf
000000a0: 12c1 cebd e8d4 debf 05b8 7d3e 1ae0 0240
000000b0: f1f6 34be 7840 4ec0 7314 40c0 1428 7c3c
000000c0: 407b a2bc 598f 9f3f caba 873e a5eb 8abf
000000d0: d672 c8be 04f8 4c3f 3837 ec3e 89b7 623f
000000e0: 41c8 0a3f d3d2 afc0 370a 093e 41f4 2f3f
000000f0: 0b5d 203f c8e3 88bf e1d7 383f f732 38bf
00000100: ce25 fdbe 51ee 643f 5d17 703d fc20 a3c0
00000110: 68a5 64bf b0bc ff3e e461 50bf 031a e33e
00000120: 3865 043f 84e6 5b3f 3f6c 3cbf 6fcf 353f
00000130: d71d 7d3e e889 99bf d63f f9bc b152 3d3f
00000140: 3b69 983e f1d7 6abf 79b9 d13e 24a5 b73f
00000150: fcbd e0be 05c4 073f 4689 a4be af24 36bf
00000160: a0be 40bf 07a7 8dbf a3b5 abbf a30f 5f3e
00000170: a959 453f b8c5 47bf bf76 9e3e 6078 373f
00000180: 8f6a 0b3e 583d 2a3f a817 a23d 754a 2540
0.13206065 0.59913534 2.6323802 -0.5771403 0.22503498 -0.5218372 0.37432957 0.81432396
-0.2919403 0.52566266 -0.42572913 -0.9227838 0.32917973 1.1696057 -0.32335895 -0.5258647
0.32421657 0.50494456 -0.72663933 -0.90751857 0.8670895 -3.0441854 -0.7295624 -1.4467423
0.5568842 -0.581891 -0.5875247 -1.0084753 -0.64749086 0.98407596 0.48006335 -0.83882785
-0.025273874 -1.176447 1.1195287 -2.6777573 -0.5304361 -0.60629416 -0.6427112 -1.0626338
-0.10095419 -1.7408724 0.24777229 2.044928 -0.17672326 -3.2226849 -3.0012481 0.015390415
-0.01983416 1.2465621 0.26509696 -1.0853163 -0.39150113 0.8006594 0.4613588 0.885613
0.54211813 -5.4944854 0.13382803 0.68732077 0.6264197 -1.0694513 0.72204405 -0.71952766
-0.49442905 0.8942614 0.05861603 -5.0977764 -0.8931489 0.49948645 -0.8139937 0.44355783
0.5171695 0.85898614 -0.7360267 0.71019644 0.24718414 -1.1995211 -0.030425947 0.739543
0.29767784 -0.9173575 0.40961817 1.4347272 -0.43894947 0.5303348 -0.3213598 -0.71149725
-0.7529087 -1.1066598 -1.3414806 0.21783309 0.77089936 -0.7803607 0.3094997 0.7166805
0.13614868 0.66499853 0.07914668 2.5826695

net.layer_0.bias f4 [50]
00000000: e2fb 113f 213c 61be 32f9 543e 42ca cbbe
00000010: 66ff ef3c 9683 023f 6530 9abe 23ba 85be
00000020: cc22 903e 15db 0b3f b0ec 1dbf d67d 0e3f
00000030: 4063 423f 6ae6 2c3f 947b 143f ec5a 2bbf
00000040: 6286 ab3d cac4 60bf 2ad9 47bf 4cbc 253f
00000050: 09f4 04be 3a3e 7dbe 3e7e 3d3d 313a bc3e
00000060: 9302 f3be cd99 883e c85d 223f 89ec 2fbe
00000070: 0f12 b7be 282c 2abf ea90 2abf 7780 18bf
00000080: a4c4 293f c653 f6bc 5035 dbbe 4ef2 5f3e
00000090: 02c0 20bf b2ef 413e 3442 c83d a40e 2a3f
000000a0: d3ce a2be 4730 473e cbd2 27bf ef80 9f3e
000000b0: a768 3c3f 6d98 86be e25a 0dbf 3811 02be
000000c0: e8ed 383f a3ef 88bd
0.5702497 -0.21995594 0.20798185 -0.39802748 0.029296588 0.50982034 -0.30115047 -0.26118574
0.28151548 0.5463117 -0.6168928 0.5566076 0.75932693 0.67539084 0.58001065 -0.6693561
0.08375241 -0.87800276 -0.7806574 0.64740443 -0.12983717 -0.24730769 0.046262972 0.36763147
-0.474629 0.2667984 0.6342435 -0.17180075 -0.35755965 -0.6647363 -0.6662737 -0.5957102
0.66315675 -0.030069243 -0.42814112 0.21869776 -0.6279298 0.18939093 0.09778252 0.6642859
-0.3179842 0.1945201 -0.6555602 0.31153056 0.73597187 -0.26288167 -0.552168 -0.12701881
0.72238016 -0.06686332

net.layer_1.weight f4 [50, 50]
00000000: b455 6b3e 87b0 cfbe 942f b4be 1e1a a03e
00000010: 7ac3 073f 4a1e 25be a21d c13e 8a1c 3ebe
00000020: fa9d 513e fd9f 93be af27 aabe d73a e7be
00000030: 63a5 f93d 8a68 9dbe a9ea 2f3e 3aff 1bbe
00000040: 06ed 5bbf ee91 88be 6be2 613d 9167 ccbe
00000050: f280 1ebf e327 263f 5bc8 8fbf 02d5 8d3e
00000060: 8ffe 7a3e 654c 1cbe 300e 353e 9046 1b3f
00000070: a0df ebbe cd6e 65bc a90b 7cbe 6b3a 7cbe
00000080: 5973 dd3d 2554 a3bf b290 4c3d ab96 2f3e
00000090: 1afb 933d f7c6 6a3e 6749 0dbf 20b0 8b3d
000000a0: e468 d2be 532c 883e 30eb 02bc 2f58 8cbe
000000b0: f1a4 7ebe edbc 163e 2626 f4bd 13bd 3f3f
000000c0: afa3 023e 130a 963f ac5e d63c 5bd9 8f3e
000000d0: 84d8 0e3e 6afe d73c a469 03bf cf91 9cbc
000000e0: 634a b13d 7418 373d 6f04 cb3d 03c6 2dbc
000000f0: 88db 9a3e 307f 683b 8217 9c3d 7f5f f0bd
00000100: f627 acbe 8fee 053e 04c3 09bb 1019 4e3e
00000110: 2ee3 273e f66e 95bd 96fd c23c b9ef e1bd
00000120: 0521 433e 407f d4be 28e4 0fbe 2720 603e
00000130: ef10 0fbe af24 e63d 1b52 b43e 999f 9dbd
00000140: 2590 af3e 493e 443e 138f 6abe 9122 f13e
00000150: a3e8 da3b 0912 5ebe 95e8 7a3d 1716 00bf
00000160: bf36 7f3e e2d7 e3bd 90e5 de3d 6f3c 27bd
00000170: 221a a13c 3975 a4bc 315f 62be 57ab 53bd
00000180: 2b61 333e 6da4 e23d e789 e5bd 7773 12be
00000190: fb98 8cbd 3198 c33c 0a88 89bc 2867 b33d
000001a0: 0a59 293d 4711 d43d 17a3 3ebd e0c0 973d
000001b0: d721 3f3d 0ccd d8bd d8ca cfbd 9e9b 7d3d
000001c0: 3c60 173d d2aa 6a3c 57fe 653d 30ae eb3c
000001d0: 8de1 423d 894b 7bbd 3bda 863d 334d b03d
000001e0: 9114 36be c34c 303e f814 003d 2473 9b3d
000001f0: 9326 823d ddb8 793d 3377 8dbd 5669 0d3e
00000200: 87ec 10be bbc8 21be b6a3 90bb 6542 78bd
00000210: 0c61 af3c e4e4 78bc 7d44 553d 2e1a 2b3d
00000220: 183a 8fbd a665 c73d 2fb1 49ba c39c c7bd
00000230: 7ff3 50bd 3c47 723d da73 823d cd60 a03d
00000240: 6c24 54bd 08f7 2bbd 24cf d5bd 6c7a e0bd
00000250: 1ce0 60bd db12 653d d62b 2b3e 5605 c3be
00000260: 6d04 263e 2ca1 7e3b 9888 53bd ddc4 cb3d
00000270: fb2b 913d 647c 01bf 4fa5 df3e 9580 29be
00000280: 641e 92bd 5045 2fbe 3a61 a3bd 9a57 36bc
00000290: a63c f5bc 4488 8ebd fa2c 6b3d 8a9c 4b3d
000002a0: 0bfc 84be 66fd e9bd e1da e4be 0ae4 3ebd
000002b0: 2bd1 b1be 1001 2e3f 9daf 8e3d 8236 b23d
000002c0: 411a bd3d 8715 c83e a79c 12bf 5407 70bd
000002d0: 1ece 74bd 8295 7b3d fbc0 1b3e f7f7 17be
000002e0: d581 83bd 0c62 40be 8471 8ebd 1573 6ebe
000002f0: 6521 08be f6cf 263e 0c18 133e 9787 1f3f
00000300: d078 e3bd 6dd1 d4bd dc10 fcbd 8e9b f33c
00000310: 6838 123e a0cf 153e b6cc 983e cae1 56bc
00000320: c699 abbc b2ba c93d 44cc e53d 0b15 533c
00000330: fb4e 26be 3890 0f3c da00 d93d 590e e7bd
00000340: b649 dc3d c7a5 913d 7ea5 0a3e 72ca 293e
00000350: 3953 f63d 3770 1f3e 8adf 0abb 3f53 5dbd
00000360: 5d90 173e 3b2a 0ebe d27e 77be f022 c5bd
00000370: 252c bfbd 040d 83bd 231b a73d 4bfe 94bd
00000380: 7455 27be 4e42 27bc fd6d ab3c 565f 343e
00000390: c355 b5bc 5334 4fbd 8e1f 24be 660f dcbd
000003a0: 48b6 5b3e 10cf aa3c 45e3 82bd 8705 d83d
000003b0: e7c7 62bd 3ce0 053d 1587 1c3d 8529 533e
000003c0: 777a 72bd 8b19 d939 1559 53be 438e 213d
000003d0: ac82 f83c cfed 20be 50a4 833d 648b eebc
000003e0: 90b7 8f3d ecd6 ce3b 2f06 64bd ceae 943d
000003f0: 113c 803d ff00 f43c 65d6 db3d c0a8 10be
0.22981912 -0.40564367 -0.3519255 0.31269926 0.5303265 -0.16124836 0.3771792 -0.18565574
0.2047042 -0.28833 -0.332334 -0.4516208 0.12189748 -0.3074382 0.1717936 -0.1523408
-0.85908544 -0.26673836 0.05514757 -0.39922765 -0.61915505 0.6490461 -1.1233019 0.27701575
0.24511169 -0.15263517 0.17681193 0.60654545 -0.4606905 -0.014003468 -0.24613823 -0.2463166
0.108130164 -1.2760054 0.04994268 0.17147319 0.07225628 0.22927462 -0.5519013 0.068207026
-0.4109565 0.26596317 -0.007990643 -0.2741103 -0.24867608 0.14720507 -0.11921339 0.7489788
0.12757753 1.1721824 0.02616819 0.28095517 0.13949782 0.026366431 -0.5133307 -0.019112496
0.08656766 0.044701055 0.09912955 -0.010606292 0.30245614 0.00354762 0.07621671 -0.117369644
-0.33624238 0.13079284 -0.002102078 0.20126748 0.16395256 -0.07296555 0.02380256 -0.110320516
0.19055565 -0.41503334 -0.14051878 0.21887265 -0.13971303 0.112374656 0.35218892 -0.076964565
0.3428966 0.19164385 -0.22906141 0.47096685 0.0066805645 -0.21686567 0.061256964 -0.50033706
0.24923228 -0.11125161 0.10883629 -0.04082912 0.019665781 -0.020075427 -0.22106625 -0.051677074
0.17517535 0.11066518 -0.112079434 -0.14301859 -0.06865116 0.023876281 -0.016788501 0.0875991
0.04134468 0.10354858 -0.046542253 0.07409835 0.04666313 -0.105859846 -0.10146111 0.061915986
0.03695701 0.014322953 0.05615076 0.028769583 0.047578383 -0.061351333 0.06584593 0.086084746
-0.17781283 0.17216782 0.031269997 0.07590321 0.06355014 0.060967315 -0.06907501 0.13809714
-0.14152728 -0.15799229 -0.004414047 -0.060610194 0.02140858 -0.0151912905 0.05206727 0.041773014
-0.069935024 0.09736185 -0.0007693944 -0.09746697 -0.051013466 0.059149966 0.06369753 0.07830963
-0.051792547 -0.041983634 -0.104398996 -0.1096085 -0.054901227 0.055926185 0.16715941 -0.38090008
0.16212626 0.003885339 -0.051643938 0.09949658 0.07088467 -0.5058043 0.43680808 -0.16552956
-0.07134703 -0.17116284 -0.07977529 -0.011129284 -0.029936146 -0.06959584 0.05741594 0.049709834
-0.25973544 -0.11425285 -0.4469824 -0.046604194 -0.34729895 0.6797037 0.06967089 0.08701803
0.09233523 0.39078924 -0.5727028 -0.05860074 -0.05976688 0.06142188 0.15210335 -0.14840685
-0.06421248 -0.18787402 -0.06955245 -0.23286088 -0.13293989 0.16290268 0.14364642 0.6231627
-0.111070275 -0.10391507 -0.12307903 0.02973726 0.1427933 0.14629984 0.29843682 -0.013115356
-0.020947348 0.098500624 0.11220601 0.012883435 -0.16241066 0.008762412 0.105958655 -0.112820335
0.10756247 0.07111698 0.13539693 0.16581133 0.12027592 0.1557015 -0.0021190369 -0.054034468
0.14801164 -0.13883297 -0.24169472 -0.096258044 -0.09334592 -0.06398967 0.08159473 -0.07275065
-0.16341192 -0.010208679 0.02092647 0.17614493 -0.022135621 -0.05058701 -0.16027662 -0.107451245
0.21456254 0.020850688 -0.063910045 0.10547929 -0.055366423 0.03268455 0.03821476 0.20621307
-0.059198823 0.00041408496 -0.20639451 0.039442312 0.030335747 -0.15715717 0.064278245 -0.029119201
0.07017434 0.006312242 -0.05566996 0.07259904 0.06261457 0.029785631 0.10734252 -0.14126873

net.layer_1.bias f4 [50]
00000000: 151a 3a3e 9790 e4bd 7ef8 37bd c1b6 12bc
00000010: 2a24 553e b21d 963c 6474 b8bd c91f ba3d
00000020: 2e2d 833d 6197 cabd caf4 6a3d fa1b a1bd
00000030: 6955 13bd 2b6a 6ebe 8977 3dbe d29a 353d
00000040: a4d5 8c3c 706f 043d 5db2 08ba 8c42 de3c
00000050: 52b2 f1bd f9b0 1a3e 161c 51be ef9c c33c
00000060: 5dd8 613d edc4 cfbd 4ebd 89bc 981c 28be
00000070: e378 d5bc 3bd2 483d 5ab5 c5bd a552 62bd
00000080: 80e8 f93d 6d94 113c 4e09 b83e 92f3 96bb
00000090: 5583 84bc 2e94 26bd 6a0d 8ebe d0dc 483d
000000a0: 68f9 893d 27a5 4c3d d6b8 82be c6f1 7c3e
000000b0: d68b 9a3d 35cf 433d da75 e9ba eb4e a73d
000000c0: 0224 033e 8744 443c
0.18174012 -0.11160391 -0.044914715 -0.008954705 0.20814577 0.018324707 -0.09006575 0.09088094
0.06405102 -0.098921545 0.057362355 -0.07866664 -0.035970125 -0.23282687 -0.1850263 0.0443371
0.017191716 0.032332838 -0.00052145665 0.027131341 -0.1180159 0.15106572 -0.2042087 0.023878543
0.05513798 -0.101449825 -0.0168139 -0.16417158 -0.02605862 0.049028616 -0.09653731 -0.055254597
0.12202549 0.008885485 0.359446 -0.0046066726 -0.016175905 -0.04066866 -0.2774461 0.04903871
0.067370236 0.04996219 -0.25531644 0.24701604 0.07546203 0.04780503 -0.0017811612 0.08169349
0.12806705 0.011979229

net.output.weight f4 [1, 50]
00000000: e4f4 bc3e d7a7 8e3e d09b cbbb d86d 81be
00000010: 4346 163d 955d fc39 0bfb 4abd a8b2 c1bc
00000020: a64d 4fba 0029 8a3e 43cb a4be 5cf8 e73d
00000030: 33ac 683e 7316 5cbe 8af6 a9be 1799 01ba
00000040: b89a 6cb9 51ff a83d b48f ddbe 8173 ae3e
00000050: 28b7 a6be c2dc 70be 00c1 ebbd 7054 8dbd
00000060: 81a2 483e ae2d 0abe c175 b8ba 4bee 5cbe
00000070: 3c78 f53c b644 fd3d 3170 533a 7490 ea3d
00000080: 392d b5bd 1b09 bb3e e914 2dbe 1d3c ad3e
00000090: 028e 13bd d129 05bc f3a2 d2be e2ae 96bd
000000a0: c795 4c3e 6b69 593d b863 7abe 0c3c b0be
000000b0: 2d23 9ebe 64cf 90be 7ccd 58be 7f10 203e
000000c0: 5f5a 3b3e c52c b93d
0.36905587 0.27862427 -0.0062136427 -0.25279117 0.0366881 0.0004813491 -0.04955582 -0.02364476
-0.0007907994 0.26984406 -0.32186326 0.11326668 0.22721939 -0.21492939 -0.33195907 -0.00049437716
-0.00022564351 0.08251823 -0.432737 0.34072497 -0.32561612 -0.23521712 -0.11511421 -0.06900871
0.1959324 -0.13493988 -0.0014073179 -0.21575277 0.029964559 0.12366621 0.0008065729 0.114533335
-0.08846516 0.36530384 -0.16902508 0.33834925 -0.0360241 -0.008127646 -0.41139945 -0.07357575
0.1997901 0.05307905 -0.24452102 -0.34420812 -0.30886212 -0.28283226 -0.21172136 0.15631293
0.18296193 0.09041742
