burgers/trained_models/Conv_Anal/u_2_3/Conv_Anal_Final_wpinn_burgers_1_4_15000.pth (torch, 24960 bytes, 7 tensors)

net.layer_0.weight f4 [50, 2]
0	0x3f5dfa6a	0.86710227
1	0xbf84451f	-1.0333594
2	0xbed60156	-0.41797894
3	0x3ea6ae50	0.32554865
4	0xbf700ff7	-0.9377436
5	0x3fc2d849	1.5222255
6	0xbe3a5617	-0.18196903
7	0x3c87e206	0.016587269
8	0x3f6a9ded	0.91647226
9	0xbfb6001a	-1.4218781
10	0x3eb1d414	0.34732115
11	0x3f657ab0	0.8964033
12	0xbe2d1ac1	-0.16904737
13	0xbf28629d	-0.6577547
14	0xbe880aa5	-0.2657062
15	0x3f6650f2	0.8996726
16	0x3d6cc2b9	0.05780289
17	0x3e13fb57	0.14451347
18	0x3e323455	0.17402776
19	0x3f6925e2	0.9107343
20	0xbf15c5c9	-0.5850492
21	0x3f94c31e	1.1622045
22	0xbeadef60	-0.3397169
23	0x3ee7eafc	0.45296466
24	0x3eaf41be	0.34229845
25	0x3e2720ca	0.16321102
26	0x3efe0584	0.49613583
27	0x3ec49660	0.38395977
28	0xbf0d8cc8	-0.5529294
29	0x3f6d9ada	0.9281441
30	0x3e7ff793	0.24996786
31	0xbf74025b	-0.95316094
32	0xbef188a6	-0.47174567
33	0x3f4cdbbf	0.80022806
34	0x3d3eebb0	0.046611488
35	0xbfac1e6e	-1.3446786
36	0x3e4c99a4	0.19980484
37	0xbebf3762	-0.3734694
38	0x3f0f54bc	0.5598867
39	0xbf6d58f0	-0.9271383
40	0xbc202a61	-0.009775729
41	0x3e32e7fd	0.17471309
42	0xbecb2849	-0.39679173
43	0xbf176a82	-0.59146893
44	0xbcb9965d	-0.022654707
45	0xbd9a6ac2	-0.07539894
46	0xbd326854	-0.043556526
47	0xbf97dca1	-1.1864206
48	0x3f439156	0.7639364
49	0xbfd3bbc5	-1.6541678
50	0xbea0f7f1	-0.31439164
51	0xbef20b0e	-0.4727406
52	0xbeddc3c4	-0.4331342
53	0x3f382b6f	0.71941274
54	0xbd8c5a48	-0.06853157
55	0x3eb2d71b	0.34929737
56	0xbcc7c0f2	-0.024383996
57	0xbf3289b8	-0.6974139
58	0x3ea4d0de	0.32190603
59	0xbf489596	-0.7835325
60	0xbf30aa10	-0.69009495
61	0x3fb4b66f	1.4118174
62	0xbf3572bb	-0.7087819
63	0x3f30156e	0.687827
64	0xbec5748a	-0.38565475
65	0x3fb10129	1.3828479
66	0xbea647ad	-0.3247656
67	0x3f923bb1	1.1424466
68	0x3f729a06	0.9476627
69	0xbf6cc074	-0.9248116
70	0x3cf990e6	0.0304646
71	0x3d879ba5	0.06621484
72	0xbf683936	-0.90712297
73	0x3fc83c03	1.5643314
74	0xbe57c265	-0.2107025
75	0xbea83137	-0.32850048
76	0xbfb8bba8	-1.4432268
77	0x3ff3032a	1.898534
78	0x3f487e88	0.7831807
79	0xbf2443d4	-0.64166
80	0xbedd7ea6	-0.43260688
81	0x3fc3e605	1.5304571
82	0x3f34eec1	0.7067681
83	0x3f8e7cf4	1.1131883
84	0xbf5cde8d	-0.86277086
85	0x3f96100e	1.172365
86	0x3e367401	0.1781769
87	0x3f585a3a	0.84512675
88	0x3d8fd19c	0.07022402
89	0xbf55c390	-0.8350153
90	0x3e98e8e8	0.29865193
91	0x3f141cbb	0.5785634
92	0xbec493a3	-0.38393888
93	0x3f899cba	1.0750954
94	0x3e8b7e80	0.2724495
95	0xbf219f59	-0.6313377
96	0xbed4e270	-0.41579008
97	0xbf82b53e	-1.0211561
98	0x3eb32ccc	0.34995115
99	0x3edf8689	0.4365733

net.layer_0.bias f4 [50]
0	0xbdf79e0f	-0.12090694
1	0xbdcb73fd	-0.099342324
2	0x3e94c6b6	0.29057854
3	0x3e0c0b95	0.13676293
4	0xbe9d9af0	-0.3078227
5	0xbdb15bbe	-0.086600766
6	0x3ecfae70	0.40562773
7	0x3dbeb515	0.093118824
8	0x3ec7a3b2	0.38992077
9	0xbf0a4fed	-0.5402821
10	0xbe073d21	-0.13206913
11	0xbefdbc85	-0.4955789
12	0xbf14ce31	-0.58127123
13	0xbf2c6fad	-0.67357904
14	0x3dd859db	0.105640136
15	0x3dff5ac2	0.124684826
16	0xbed638a1	-0.4184008
17	0xbce384a8	-0.027773216
18	0xbda716a5	-0.08158616
19	0x3eb49d4c	0.35276258
20	0x3e9e849c	0.30960548
21	0xbec38b9d	-0.38192454
22	0xbe19e957	-0.15030418
23	0x3da65030	0.08120763
24	0x3def8ef4	0.11697188
25	0xbe31e098	-0.17370832
26	0xbef60b06	-0.48055285
27	0x3ece0f9b	0.4024628
28	0x3e5070ca	0.20355526
29	0x3dc58695	0.0964481
30	0xbe31a6fc	-0.17348856
31	0xbe5389ba	-0.20658007
32	0x3ec05a30	0.37568808
33	0x3e6f88ad	0.23391981
34	0xbbd96788	-0.0066346563
35	0x3ee363ed	0.44412175
36	0x3cddf562	0.027094547
37	0x3eab4e74	0.33458292
38	0x3be8b5a8	0.0071017332
39	0x3ef97b4d	0.48726884
40	0x3d1c3c18	0.038143247
41	0x3edfceff	0.43712613
42	0x3e3d4a8c	0.18485469
43	0xbebf5793	-0.373715
44	0x3eee78a5	0.4657642
45	0xbf05725c	-0.52127624
46	0xbe741c25	-0.23838861
47	0x3de5086a	0.111832455
48	0xbf18834b	-0.5957534
49	0x3e37fdd2	0.17967919

net.layer_1.weight f4 [50, 50]
0	0xbda62f48	-0.08114487
1	0xbd10be42	-0.035337694
2	0xbd77c9a3	-0.06049503
3	0xbd5cf957	-0.053948727
4	0x3e1a820f	0.15088676
5	0xbda480b2	-0.08032359
6	0x3d5e214f	0.054230984
7	0xbd5e64fa	-0.054295518
8	0xbd826c49	-0.0636831
9	0xbdd1530f	-0.1022092
10	0x3d37f5cf	0.044912156
11	0xbd1e3271	-0.038622323
12	0xbe00c2b5	-0.12574275
13	0x3de2dbb3	0.110770606
14	0x3e0a4f2e	0.13506767
15	0xbb04d9ef	-0.00202715
16	0xbdf514eb	-0.119668804
17	0x3c10ad64	0.008830402
18	0xbc226a0c	-0.009912979
19	0xbd8b67d6	-0.068069145
20	0x3e22b45c	0.15889114
21	0xbd7034cb	-0.058644097
22	0x3d2bd6f9	0.04195306
23	0x3dca754d	0.098856546
24	0x3d4d253a	0.05008433
25	0xbd9f6a3f	-0.07783937
26	0xbd48666c	-0.048925802
27	0x3e2c1752	0.16805771
28	0xbd68afd3	-0.056808304
29	0x3dab42bd	0.08362339
30	0x3d3fc490	0.046818316
31	0xbcfa33f6	-0.030542355
32	0x3db6868f	0.08912384
33	0x3c5bd57c	0.013417598
34	0xbd601292	-0.05470521
35	0x3e2a0997	0.1660522
36	0x3d83e5ef	0.06440341
37	0xbe0cf9b2	-0.13767126
38	0xbde39deb	-0.11114105
39	0xbbb83dcb	-0.0056226007
40	0xbdeb9471	-0.11502922
41	0xbb2f191e	-0.0026717852
42	0x3dda9877	0.106736116
43	0x3d1d656b	0.038426798
44	0x3d12ce3f	0.035841223
45	0xbda67ea6	-0.08129625
46	0x3d6a2dcb	0.057172578
47	0xbd68ce2a	-0.05683724
48	0x3e23a842	0.15982154
49	0xbca987a5	-0.020694563
50	0x3c8ce463	0.017198747
51	0x3dca07b0	0.098647475
52	0x3d4a4c98	0.04938945
53	0xbccb0922	-0.024784628
54	0x3d0bd754	0.0341409
55	0x3d89496a	0.06703456
56	0x3c86c7a9	0.016452627
57	0x3ce25834	0.02762995
58	0x3d5c9c9d	0.053860296
59	0x3d98fe4a	0.07470377
60	0x3d4b61d1	0.049653832
61	0x3df537ae	0.11973511
62	0xbd5cfb8e	-0.05395084
63	0xbd801e2c	-0.06255755
64	0x3dd8a488	0.10578257
65	0x3d329e52	0.043608017
66	0xbda5423a	-0.08069272
67	0xbdec726e	-0.11545263
68	0x3d6e4653	0.058172535
69	0xbd88e6cc	-0.06684646
70	0x3d79c0c9	0.06097487
71	0x3dc40848	0.09571892
72	0xbe00d094	-0.12579566
73	0xbd920854	-0.07130495
74	0x3d5065fd	0.050878514
75	0xbe19083c	-0.14944547
76	0xbcde439e	-0.027131852
77	0xbd504276	-0.050844632
78	0x3b47a432	0.0030462858
79	0x3d932ef3	0.07186689
80	0x3dd37ab3	0.103261374
81	0xbdc04e89	-0.093899794
82	0x3b864954	0.004098097
83	0xbd7246b6	-0.059149466
84	0xbd932cd1	-0.071862824
85	0xbde6fc6b	-0.11278614
86	0xbd8bf4c8	-0.06833798
87	0xbdf0433b	-0.11731573
88	0xbc4ed71a	-0.012624526
89	0xbb216eec	-0.0024632765
90	0x3d6f8a54	0.05848153
91	0x3bdbdeec	0.006709924
92	0x3ca2b8c4	0.019863494
93	0x3d59d460	0.053181052
94	0x3de61a16	0.11235444
95	0xbd1b04da	-0.037846424
96	0x3d9bbbc6	0.07604174
97	0xbdb2646d	-0.08710561
98	0x3e078470	0.13234115
99	0x3d167615	0.036733706
100	0xbd738de4	-0.05946149
101	0x3c75baaa	0.014998117
102	0x3d618f4f	0.05506831
103	0xbe101080	-0.14068794
104	0xbc34254f	-0.010995223
105	0xbcaa62a3	-0.020798987
106	0xbdf9f3cb	-0.12204703
107	0xbd52b211	-0.05143935
108	0xbe12011f	-0.1425824
109	0xbce86619	-0.028368996
110	0x3df0239c	0.11725542
111	0x3d3e1589	0.046407256
112	0x3cdffe9c	0.027343087
113	0x3d15f72a	0.036612667
114	0xbddf6980	-0.109087944
115	0xbdefa6d3	-0.11701741
116	0xbe17501b	-0.14776652
117	0xbde79bae	-0.113089904
118	0xbcf21b3a	-0.029553998
119	0x3d2aebbe	0.041728728
120	0x3d42644e	0.04745894
121	0x3da0fcc3	0.078607105
122	0x3d051f47	0.03250053
123	0x3cecf18a	0.028923769
124	0x3dee7c8e	0.11644851
125	0xbe1b0458	-0.15138376
126	0xbe15cf00	-0.14629745
127	0xbd02320f	-0.03178602
128	0xbd3b33af	-0.045703586
129	0xbbb78ec1	-0.0056017344
130	0x3deec695	0.1165897
131	0xbcdfe84d	-0.02733245
132	0xbd2af867	-0.0417408
133	0xbbfc3b56	-0.007697503
134	0x3bed38e8	0.00723945
135	0xbdd331c3	-0.10312226
136	0x3dc01c72	0.093804255
137	0x3d6ad986	0.057336353
138	0xbdfef95f	-0.124499075
139	0xbd6542fa	-0.055972077
140	0xbd79341e	-0.06084072
141	0xbd3fdbf2	-0.046840616
142	0xbc603a5a	-0.013685787
143	0xbdd7e6b5	-0.10542051
144	0xbd912aa1	-0.07088209
145	0xbd9a7cc8	-0.075433314
146	0x3ddf510f	0.109041326
147	0xbe09f950	-0.13474011
148	0x3d0c2bf8	0.03422162
149	0xbbf40043	-0.0074463203
150	0xbe7e408a	-0.24829307
151	0x3da788ac	0.08180365
152	0x3e9181a0	0.2841921
153	0xbdd2984b	-0.10282954
154	0xbd562efe	-0.05229091
155	0xbdbda2fa	-0.09259601
156	0xbd8b17e6	-0.06791668
157	0x3e4ffbbe	0.20310876
158	0xbda8bfc7	-0.082397036
159	0x3d469dcf	0.04849034
160	0x3cd22272	0.02565119
161	0x3e154f63	0.14581065
162	0xbe0de43d	-0.13856597
163	0xbc30d353	-0.010792571
164	0x3ea1d1b7	0.31605312
165	0xbd20fd83	-0.039304268
166	0x3e02001f	0.12695359
167	0xbe3f43b5	-0.18678172
168	0xbe0b5fd9	-0.13610782
169	0xbd86eabc	-0.06587741
170	0x3dcc3da1	0.09972692
171	0xbcf4e237	-0.029893024
172	0x3d514dd8	0.05109963
173	0xbdd1f234	-0.10251275
174	0xbe502b32	-0.20328978
175	0x3daac544	0.08338407
176	0x3df750bc	0.12075946
177	0x3d3a3257	0.045458164
178	0xbe0e29b0	-0.1388309
179	0xbe1e205b	-0.1544203
180	0x3d1c5044	0.038162485
181	0xbd0b459f	-0.034001943
182	0xbc440096	-0.01196303
183	0x3e4fe547	0.20302306
184	0xbe7cc1c2	-0.24683288
185	0xbdfd428a	-0.12366207
186	0x3e9cc77f	0.30620953
187	0xbdce86be	-0.10084294
188	0x3e7463d2	0.23866203
189	0xbda1dd83	-0.07903578
190	0x3d784369	0.060611162
191	0x3d3f26d4	0.04666789
192	0x3e1a286c	0.15054482
193	0xbda602ac	-0.08105978
194	0xbde4eff9	-0.11178584
195	0xbe022e75	-0.12713034
196	0xbd3cb196	-0.046067797
197	0xbe59ae20	-0.2125783
198	0xbd4e2b8b	-0.050334495
199	0x3e08675c	0.13320678
200	0xbd61fb87	-0.055171516
201	0x3d2ba894	0.041908816
202	0xbd884be8	-0.06655103
203	0xbd66f26d	-0.05638354
204	0xbe140144	-0.14453608
205	0x3cf3bb27	0.029752327
206	0xbdafcaf7	-0.08583634
207	0xbdeb9055	-0.115021385
208	0xbd86d813	-0.06584182
209	0xbdadfa71	-0.084950335
210	0xbca20594	-0.01977805
211	0x3db4e720	0.08833146
212	0x3da2fe4a	0.07958658
213	0x3dd96139	0.10614247
214	0xbd212167	-0.039338496
215	0x3da98eec	0.08279213
216	0xbdc28584	-0.09498122
217	0x3d8c5e8b	0.0685397
218	0x3d50d6b1	0.050985996
219	0x3c92b2d5	0.01790754
220	0x3e03f624	0.12886864
221	0x3d44120d	0.047868777
222	0xbc2deaf2	-0.010615097
223	0x3cb27e72	0.02178881
224	0xbddcad49	-0.10775239
225	0x3d8a2a5c	0.06746361
226	0xbccea7c4	-0.025226481
227	0x3dd29af3	0.102834605
228	0xbd5a9598	-0.05336532
229	0x3dc80cd2	0.0976807
230	0x3db75df9	0.08953471
231	0x3d9136d6	0.07090537
232	0xbc931271	-0.01795313
233	0x3d78c4de	0.060734622
234	0x3d734aac	0.059397385
235	0x3c1eb809	0.009687432
236	0x3d889038	0.066681325
237	0xbc928824	-0.017887183
238	0xbd911a48	-0.07085091
239	0x3cd55c5e	0.02604502
240	0x3ccbb07a	0.024864424
241	0xbd8ed334	-0.069738775
242	0xbce45c98	-0.027876183
243	0xbd803497	-0.06260031
244	0xbc04eea6	-0.008113539
245	0x3c345cfe	0.011008499
246	0x3d51648d	0.051121283
247	0xbddf9200	-0.10916519
248	0xbde29159	-0.11062879
249	0x3da7557b	0.08170601
250	0x3d489620	0.048971295
251	0xbd61e4db	-0.055149894
252	0xbd02ad21	-0.03190339
253	0x3d0d9dbe	0.034574263
254	0x3d73f197	0.05955657
255	0x3ddec1bc	0.10876796

net.layer_1.bias f4 [50]
0	0x3d8c07dd	0.06837437
1	0x3dd4f688	0.103985846
2	0x3db084c1	0.08619071
3	0xbda11f3c	-0.078672856
4	0x3cc6bf15	0.024261037
5	0x3e0784c3	0.13234238
6	0xbbcfa330	-0.006336592
7	0xbd9463c6	-0.07245593
8	0x3dac276e	0.08405958
9	0x3e06eeac	0.13176984
10	0xbe685243	-0.2268763
11	0x3dc2766a	0.09495242
12	0x3e20fad8	0.1572069
13	0x3e206116	0.15662035
14	0x3bb36540	0.0054747164
15	0xbd4a7da7	-0.049436238
16	0xbe0feb08	-0.14054501
17	0x3c02afc7	0.007976479
18	0xbe1dc770	-0.1540811
19	0x3dce0bcf	0.10060846
20	0xbdcf1d12	-0.101129666
21	0xbdf4c999	-0.11952514
22	0xbdee5f26	-0.11639242
23	0xbdaa3817	-0.083114795
24	0xbcb8c89b	-0.022556594
25	0x3df9f288	0.12204462
26	0x3c919b3e	0.01777422
27	0x3e004cc5	0.12529285
28	0x3d328e1c	0.043592557
29	0xbb646559	-0.0034850447
30	0x3c869d5c	0.016432457
31	0x3d84d217	0.06485384
32	0xbcba59f6	-0.022747975
33	0x3d47bd21	0.04876435
34	0x3deffde7	0.1171835
35	0xbb9161b0	-0.004436694
36	0x3ddbaf77	0.10726827
37	0x3df6bd0a	0.12047775
38	0xbd907981	-0.07054425
39	0xbe466aed	-0.19376726
40	0x3d881fe3	0.06646707
41	0xbc741932	-0.014898585
42	0xbde03567	-0.10947686
43	0x3cfaeb6f	0.030629842
44	0x3d83b0b1	0.064301856
45	0xbcc3b809	-0.023891466
46	0x3d94692b	0.07246622
47	0xbd975a92	-0.07390322
48	0x3e5b65ef	0.21425603
49	0xbc987888	-0.018612161

net.layer_2.weight f4 [50, 50]
0	0x3d37eb58	0.044902176
1	0x3d8af28a	0.06784542
2	0xbbb6cc9d	-0.005578591
3	0xbdf0cb80	-0.117575645
4	0x3db351b3	0.08755817
5	0xbca2e940	-0.019886613
6	0x3c20f08d	0.009822977
7	0xbd8f2a74	-0.06990519
8	0xbd85a9d2	-0.06526531
9	0xbd54c90d	-0.05194955
10	0x3df2dc39	0.118584104
11	0x3dd2f7d8	0.10301179
12	0xbd7337db	-0.05937944
13	0xbd93335a	-0.07187529
14	0x3cb2a8f3	0.021809077
15	0xbc9d8a98	-0.019231126
16	0xbd9e0812	-0.07716383
17	0x3d1dc00b	0.038513225
18	0xbd8bf8f3	-0.06834593
19	0xbe08bfae	-0.1335437
20	0xbde3c452	-0.111214295
21	0xbdfe4fd0	-0.12417567
22	0xbdac64a7	-0.084176354
23	0xbde35825	-0.111007966
24	0x3cf4c17d	0.029877419
25	0x3de0bc7b	0.1097345
26	0x3d114893	0.035469603
27	0x3c1e34d0	0.009656146
28	0xbdaea6b9	-0.085278936
29	0xbd31aeb8	-0.043379515
30	0xbdeed98f	-0.1166259
31	0x3d8f66b8	0.07002014
32	0x3da97c95	0.08275715
33	0xbd9bfa66	-0.07616119
34	0xbc4e898a	-0.012606034
35	0x3db93527	0.09043341
36	0x3d096e3d	0.033552397
37	0xbe07ad95	-0.1324981
38	0xbd990f29	-0.07473595
39	0xbd43bab0	-0.04778546
40	0x3bdb7081	0.006696761
41	0x3d403db9	0.046933863
42	0x3d2b6d26	0.04185214
43	0xbd4debc1	-0.05027366
44	0x3dab2eeb	0.08358558
45	0x3df91e5b	0.12163993
46	0xbdd71a9c	-0.10503122
47	0x3d07a50d	0.03311639
48	0x3de89a66	0.11357574
49	0xbdd6c2d1	-0.10486377
50	0xbe041368	-0.12898028
51	0x3df75a47	0.12077766
52	0x3d63050f	0.055424746
53	0x3e134210	0.1438067
54	0xbc6d934f	-0.014500453
55	0x3ce92d94	0.028464116
56	0x3dcc8e86	0.09988122
57	0xbc5234ff	-0.012830018
58	0xbd4bbfb3	-0.049743365
59	0x3da371f9	0.07980723
60	0x3d022035	0.031768996
61	0x3db5011c	0.08838102
62	0xbda93c2a	-0.082634285
63	0x3e60825c	0.21924728
64	0x3e1e8478	0.1548022
65	0xbd412839	-0.0471575
66	0x3e467834	0.19381791
67	0xbd642434	-0.05569859
68	0x3dd6f457	0.10495823
69	0xbd470412	-0.048587866
70	0x3cdc474e	0.02688947
71	0xbd8c266c	-0.06843266
72	0xbcc8a92c	-0.02449473
73	0xbdf09cf9	-0.1174869
74	0x3e512e13	0.20427732
75	0xbd98763a	-0.07444425
76	0x3db586b6	0.08863585
77	0x3dc0d711	0.09416021
78	0x3dc4a1c0	0.09601164
79	0x3d904018	0.07043475
80	0xbdf5e37e	-0.12006281
81	0xbd7f04b9	-0.062260363
82	0xbda7556a	-0.08170588
83	0x3e0f1ef9	0.13976659
84	0xbc6c912c	-0.014438909
85	0xbdc591d5	-0.09646956
86	0xbda7dd80	-0.08196545
87	0xbe1cb928	-0.15305007
88	0x3e407cde	0.18797633
89	0x3e470e20	0.19438982
90	0x3e494f73	0.19659214
91	0xbc89fe36	-0.01684485
92	0xbdebb1cd	-0.11508522
93	0x3e2b38e3	0.1672092
94	0xbd5c47ba	-0.05377934
95	0xbd381cc7	-0.04494932
96	0xbe5b6e57	-0.2142881
97	0x3e0c68fc	0.13711923
98	0xbd83bab8	-0.06432098
99	0x3cf2dbf4	0.029645897
100	0x3e04e299	0.12977065
101	0x3d86a9a5	0.06575326
102	0xbcec0432	-0.028810594
103	0x3e0f3705	0.13985832
104	0x3de13b93	0.10997691
105	0x3df90057	0.12158268
106	0x3e0dc97b	0.1384639
107	0x3a321be0	0.0006794315
108	0xbd11be91	-0.03558213
109	0xbd25d923	-0.04049028
110	0x3c6a67ab	0.014306943
111	0xbd3e93c9	-0.046527658
112	0xbd128ccb	-0.035778802
113	0x3e02a024	0.12756401
114	0xbce4078d	-0.027835632
115	0x3dec51af	0.115390174
116	0x3e07be1d	0.13256116
117	0xbdf66fd4	-0.12033048
118	0xbd42e1ea	-0.04757873
119	0x3d3efca1	0.046627644
120	0x3de48cda	0.11159678
121	0xbd7eed98	-0.062238306
122	0x3d8585c8	0.065196574
123	0xbdedfd44	-0.11620572
124	0x3e17fced	0.14842577
125	0xbe3e9e40	-0.18615055
126	0x3d722215	0.059114534
127	0xbe09db66	-0.134626
128	0xbe0d4135	-0.13794406
129	0x3d0a2228	0.03372398
130	0xbdb8ac59	-0.09017248
131	0x3c36be53	0.011153775
132	0x3cad6da3	0.021170443
133	0x3988d55c	0.00026098907
134	0x3de6a488	0.112618506
135	0x3bc53707	0.0060185227
136	0x3d829da5	0.063777246
137	0xbd67478e	-0.056464724
138	0xbcc5918e	-0.024117257
139	0x3d5ebe9b	0.054380994
140	0xbdc8dc02	-0.09807588
141	0xbd93b21b	-0.07211705
142	0x3e02c7f1	0.12771584
143	0xbc59c194	-0.0132907815
144	0xbde8c052	-0.11364807
145	0x3da75b0f	0.08171665
146	0x3c43a4ce	0.011941148
147	0x3dd2c032	0.102905646
148	0xbe14f5e9	-0.14546932
149	0x3e020b03	0.12699513
150	0x3de4c985	0.11171249
151	0x3de5f73a	0.11228795
152	0xbd7bcf89	-0.061477218
153	0x3cb41a70	0.021985263
154	0xbdefdd1a	-0.11712094
155	0xbc4d7c88	-0.012541898
156	0x3d5880c7	0.052857187
157	0xbda30b6f	-0.07961165
158	0x3c9b033d	0.018922443
159	0x3d8ac8a5	0.06776551
160	0x3dad970b	0.08476075
161	0xbda8d55a	-0.082438186
162	0xbcf10858	-0.029422924
163	0xbdbcccea	-0.09218772
164	0x3e1fe143	0.15613274
165	0x3dbacd3f	0.09121179
166	0x3dd628db	0.10457011
167	0xbddac607	-0.10682302
168	0x3d4f8c73	0.050671052
169	0x3e1ac96d	0.151159
170	0x3cf85dc7	0.030318154
171	0x3de346d1	0.110974915
172	0x3d081691	0.033224646
173	0xbd773615	-0.06035431
174	0x3befc863	0.007317589
175	0xbe3831f9	-0.17987813
176	0x3db5e145	0.088808574
177	0x3dcb8db9	0.09939141
178	0x3d1ef5ec	0.038808748
179	0x3da28519	0.079355426
180	0xbe0fe2af	-0.14051317
181	0x3dbd2b53	0.09236779
182	0xbdd90efb	-0.105985604
183	0xbdb6a907	-0.08918958
184	0xbe149a79	-0.14512052
185	0x3c652b9b	0.013987447
186	0x3de83391	0.113379605
187	0xbdf70c57	-0.120629005
188	0x3dd67afb	0.104726754
189	0x3d76d26e	0.060259275
190	0x3db20d5a	0.08693953
191	0x3d994c2c	0.07485232
192	0xbe14fa27	-0.1454855
193	0xbde0861e	-0.10963081
194	0x3d989b37	0.0745148
195	0xbd7578b1	-0.059929553
196	0x3b8723e2	0.0041241506
197	0xbdf46cfd	-0.1193485
198	0x3dc72b50	0.09725058
199	0x3c937ea3	0.018004721
200	0x3cb71022	0.02234656
201	0x3db99c2b	0.0906299
202	0x3cc67148	0.024223939
203	0x3bf45bcb	0.0074572316
204	0xbb3dde40	-0.0028971583
205	0xbbd1a4b6	-0.006397809
206	0x3c701108	0.014652498
207	0xbe1b9ab0	-0.15195727
208	0xbd61f44b	-0.055164617
209	0xbd97ed99	-0.07418365
210	0xbc054e76	-0.008136382
211	0x3d89108c	0.06692609
212	0x3dcbc42f	0.099495284
213	0x3d078cbd	0.033093203
214	0xbe04b712	-0.12960461
215	0xbd0f888d	-0.035042334
216	0x3df691e0	0.12039542
217	0xba6d5401	-0.000905335
218	0xbdd5e623	-0.10444286
219	0xbd6b30aa	-0.057419457
220	0x3ae0ce24	0.0017151278
221	0x3ad10708	0.001594753
222	0x3de6710a	0.11252029
223	0xbda0fdd5	-0.078609146
224	0x3df6b00a	0.120452955
225	0x3e2f96c9	0.17147364
226	0xbd8af569	-0.067850895
227	0x3b8a54ad	0.00422152
228	0xbdf3856b	-0.11890682
229	0x3df7a291	0.12091554
230	0x3c1bc9ab	0.009508531
231	0xbd5c91fb	-0.053850155
232	0x3df0973b	0.11747595
233	0x3de1f5c3	0.110332035
234	0x3ddd999b	0.108203135
235	0x3ddb287f	0.107010834
236	0x3dd54f93	0.10415568
237	0x3dc7c84c	0.097550005
238	0xbdaec628	-0.08533889
239	0x3cc214aa	0.023691494
240	0xbd8a05c4	-0.06739381
241	0x3d8c28b1	0.06843699
242	0xbdd01ccf	-0.10161745
243	0xbcce90dc	-0.025215559
244	0xbd3713c0	-0.04469657
245	0x3dddb8d0	0.10826266
246	0x3e0166f7	0.12636934
247	0x3d9fffb1	0.07812441
248	0xbd4ab6c4	-0.049490705
249	0x3db0ad76	0.08626835
250	0x3e25d86f	0.16195844
251	0xbdd53ec6	-0.10412364
252	0x3d9aec70	0.07564628
253	0xbe906d77	-0.28208515
254	0xbd95bb83	-0.07311156
255	0x3e17df38	0.14831245

net.layer_2.bias f4 [50]
0	0xbd80b84c	-0.06285152
1	0xbd8a17c7	-0.067428164
2	0xbe72f7a3	-0.23727278
3	0xbd1b197a	-0.037866093
4	0x3dcc20e4	0.09967211
5	0xbdf8bb68	-0.1214512
6	0x3da850ef	0.08218562
7	0x3d832cc3	0.06405022
8	0x3da6c25d	0.081425406
9	0xbdf5d783	-0.12003996
10	0x3e72fb90	0.23728776
11	0x3da8ceee	0.08242594
12	0xbce7b6b4	-0.028285362
13	0xbb7cb331	-0.0038558955
14	0x3e6f2416	0.2335361
15	0xbe6567fc	-0.22402948
16	0x3d803326	0.06259756
17	0x3e068422	0.13136342
18	0x3d44d730	0.04805678
19	0x3d08c76a	0.0333933
20	0xbd3d9388	-0.046283275
21	0xbdc7e841	-0.09761096
22	0xbd21107e	-0.03932237
23	0x3cccb062	0.02498645
24	0xbe54665f	-0.20742176
25	0xbdd405fb	-0.10352703
26	0x3d888a99	0.066670604
27	0xbe70bd10	-0.23509622
28	0xbdab8b75	-0.08376209
29	0x3e3a3537	0.18184362
30	0x3db0603b	0.086121045
31	0xbcd212bd	-0.0256437
32	0x3c7fbef6	0.0156094935
33	0x3de462b9	0.11151642
34	0x3e055800	0.1302185
35	0x3e2d83bf	0.16944788
36	0xbe36a264	-0.17835385
37	0xbe8c3019	-0.27380446
38	0xbe268e5e	-0.16265246
39	0x3ce05c0f	0.027387647
40	0x3dad358a	0.084574774
41	0x3cfede08	0.031111732
42	0xbdda2681	-0.10651875
43	0xbd9af520	-0.07566285
44	0x3dd3e05f	0.1034553
45	0xbe87f4a3	-0.2655383
46	0xbdfa563f	-0.122234814
47	0xbdba034f	-0.09082662
48	0xbd24a987	-0.040200736
49	0xbd4b78b5	-0.049675662

net.output.weight f4 [1, 50]
0	0xbb0e35b2	-0.0021699485
1	0x3cb00bdc	0.02149003
2	0xbdb30c1f	-0.08742546
3	0xbd5a87e8	-0.053352267
4	0x3d747cee	0.059689455
5	0x3ef1efa7	0.47253153
6	0x3d3ef7c2	0.046623
7	0xbb26052b	-0.002533267
8	0x3b483596	0.0030549518
9	0xbbab3c87	-0.0052257213
10	0x3dd586ed	0.10426126
11	0xbe0bd435	-0.1365517
12	0x3d40b546	0.047047876
13	0xbdd363e0	-0.10321784
14	0x3dd165dd	0.10224507
15	0xbdc0966d	-0.094036914
16	0xbeb7ea4a	-0.35920936
17	0x3d454d7c	0.048169598
18	0xbcd56707	-0.026050104
19	0xbcf3c9f4	-0.029759385
20	0xbdaacf73	-0.08340349
21	0xbd190dd4	-0.037366703
22	0xbd0bee4b	-0.0341628
23	0x3b445a52	0.0029961062
24	0xbdc6aed8	-0.097013175
25	0xbc808062	-0.015686218
26	0xbb802678	-0.003910836
27	0xbd70ebfb	-0.0588188
28	0xbde6ed85	-0.11275772
29	0x3dd34793	0.10316386
30	0x3b08c22f	0.0020867696
31	0xbded5828	-0.1158908
32	0x3b52fc6f	0.003219392
33	0xbaa189c8	-0.0012324387
34	0x3bd33b0c	0.006446248
35	0x3d5983a9	0.053104077
36	0xbd78c7db	-0.060737472
37	0xbd7ccb83	-0.06171752
38	0xbd34081f	-0.043953057
39	0x3b0abdf1	0.0021170343
40	0x3d230398	0.03979835
41	0x3da67dc0	0.08129454
42	0xbe309a19	-0.17246284
43	0xbdac890c	-0.08424577
44	0x3c6d3c44	0.0144797005
45	0xbdb47238	-0.08810848
46	0x3cad9201	0.021187784
47	0xbe65049b	-0.22365038
48	0x3ccc9d71	0.024977418
49	0x3cf7d039	0.030250655
