burgers/trained_models/Conv_Anal/u_2_2/Conv_Anal_Final_wpinn_burgers_1_3_2000.pth (torch, 14142 bytes, 5 tensors)

net.layer_0.weight f4 [50, 2]
00000000: 76d2 79bd d792 69be ee2b 253e ec18 933c
00000010: a9d3 663f 4c09 9bbf 985f 0d3f 2dc1 75bf
00000020: 8f27 2f3f af38 2a3c 1566 1cbf 099f 303f
00000030: 0aa9 ea3e 577f 4bbc 534a 883d bb40 1d3e
00000040: b4fa 9abe 98b7 a43d 5bb7 943e 0f79 2dbf
00000050: bbde 893e 09bb 693e 0f51 28bf d6e2 993f
00000060: ea53 17bf dfea 9ebe deae 2fbf 226d b73f
00000070: 677e fa3e 3918 83bf 1f6d 2abf 4743 ac3f
00000080: 2881 ec3d a6d5 563f e9e0 4b3d 957b 05bf
00000090: 037d 653e 7721 a13e bfc8 023f 70bc 54bf
000000a0: 18ff f33e ad7f b6bf 778c 773e f368 bebe
000000b0: 5300 52bf f950 cc3d 598e 493f 9170 b8bf
000000c0: dca1 0bbf 660b a73d e6b8 863f e41c 51bf
000000d0: 9c85 05bf e844 cebe 6fc9 363f 862b 21bb
000000e0: 4d80 933e 1f0a b2be 61b4 afbe a66e 0a3f
000000f0: 6d57 dfbe e7db 783f 495f bcbb 1445 573f
00000100: 2a9e 2a3f f9e9 82bd 229f 163f fa27 9f3f
00000110: 56c0 103f 553e 143e 3515 953d c46e 80bd
00000120: cd9c 16bd 09a5 f53e dac1 1a3e 09d4 0ebf
00000130: 2131 4cbf 40f9 a63f e081 413f fb82 9dbf
00000140: eb89 703e d270 3e3e 58e7 07bf 2221 b8be
00000150: d374 103f 6662 723e 5109 e9be f733 773f
00000160: b2c4 8b3e 2483 c03d 6d60 163f bfa6 8a3e
00000170: 909e 3ebe edff 61bf 52cd 2e3f 6abf c2bd
00000180: c046 5fbf 0117 173f 92a7 d03e 9a67 503e
-0.060991727 -0.22809921 0.16130039 0.01795622 0.9016672 -1.2112212 0.5522399 -0.9599789
0.68419737 0.010389491 -0.61093265 0.6899267 0.45832092 -0.012420497 0.06654801 0.15356724
-0.30269396 0.0804283 0.2904614 -0.67762846 0.26927742 0.22825254 -0.65748686 1.202235
-0.5911242 -0.31038567 -0.686262 1.433018 0.48924562 -1.0241767 -0.66572756 1.3458031
0.11548072 0.8391975 0.049775038 -0.52141696 0.2241097 0.31470844 0.51087564 -0.8310003
0.4765556 -1.4257714 0.24174677 -0.37189445 -0.82031745 0.09976382 0.7873283 -1.4409353
-0.5454385 0.08156471 1.0525177 -0.8168471 -0.52156997 -0.40286946 0.71401113 -0.0024592592
0.28808823 -0.34773347 -0.34317306 0.54075086 -0.43621388 0.97210544 -0.0057486636 0.8408978
0.6664759 -0.06392283 0.5883657 1.2434075 0.5654348 0.14476903 0.072794355 -0.06271127
-0.03677063 0.47977474 0.15113011 -0.5579229 -0.79762465 1.3044815 0.755888 -1.2305597
0.23490112 0.18597725 -0.5308738 -0.35962778 0.5642826 0.23670349 -0.4551492 0.9656367
0.27298504 0.09400013 0.58740884 0.27080342 -0.18615174 -0.88281137 0.68282044 -0.095091656
-0.8721733 0.59019476 0.40752846 0.20352021

net.layer_0.bias f4 [50]
00000000: 338f f6be 49a0 643e 7052 52bd 65f3 5ebe
00000010: b433 ebbe b1ca 59bc f133 9a3e bbb2 0abf
00000020: e11d a0be 99b1 463d 0234 12be 6522 4ebe
00000030: 0081 17bf fb63 d43c be9f 85bd 0a92 97bb
00000040: 029f 153e 9b82 003f 68bb 5f3d 891b 4d3d
00000050: 061e 0c3e f0fb 063f 7c2b 4ebe ec24 36bc
00000060: 0092 cd3e 017a 0cbe f2c8 07bf 2596 89bd
00000070: 54f7 07bf 8ccb e53e 45d9 d8be e24a 01bd
00000080: 878d 1f3f f8c8 243e a6a0 c53e f265 023f
00000090: 0d28 febe 456a bb3e 2c67 72bc 489b 453a
000000a0: 2493 06bf dfe6 153f e87a 123e 0d22 023d
000000b0: 866c 443e b802 ef3e 0d6d 2ebe e4cc 183f
000000c0: f82c 053e 474b 2e3f
-0.48156127 0.22326769 -0.05134815 -0.21772535 -0.45937884 -0.013292954 0.30117753 -0.5417897
-0.31272796 0.048509214 -0.14277652 -0.20130308 -0.59181213 0.02592658 -0.06524609 -0.0046255635
0.14611438 0.5019929 0.054622084 0.050075088 0.13683328 0.52728176 -0.20133775 -0.011117201
0.40150452 -0.13718416 -0.53040993 -0.06718091 -0.5311177 0.44881856 -0.42353263 -0.031565554
0.6232533 0.16092288 0.38599128 0.50936806 -0.4963993 0.36604515 -0.014795106 0.00075380923
-0.5256827 0.58555406 0.14304698 0.031770755 0.19182023 0.46681762 -0.17033787 0.5968764
0.13005435 0.68083614

net.layer_1.weight f4 [50, 50]
00000000: 18d9 bebd 991c a63d d635 c2be f6cd 06be
00000010: d185 16bd 6843 9a3e d55b 16be 38d4 32bd
00000020: eaf5 8f3d d530 b8be 57f2 023e 3468 9cb9
00000030: c206 44bc 693c e43e 39d3 2abe 0522 4b3f
00000040: b711 2d3e 9bb6 4bbe e49b 2f3e b5de b5bd
00000050: e7f7 13bd 20a7 9cbc 6913 97bd fc5e d4be
00000060: ee53 f33c d485 bdbe f3b6 72bd d8c3 f2bd
00000070: 74eb 85bc 99c9 953d a2cd 613e 4cf8 f93d
00000080: 52b4 2bbe 0b4e 3f3e 390a 143e 1f0c a4bd
00000090: b2c7 1a3e 243c 37be c05d 133e 3dc2 cdbd
000000a0: a07e ec3c 2353 efbd e5e0 33bc b7b5 d63d
000000b0: 7be0 913d 2464 1d3d 0194 59be 682f 163d
000000c0: 4225 f53e 1c74 c0bd df91 263d f9c3 9eba
000000d0: e65d a6bd f55d 5abc 5f12 e53d 9462 e13c
000000e0: 160d 243d 1d7b 973d b9a1 243c 71a5 70bd
000000f0: 3eee 3abd a379 843d 9b8c 95bd 8635 023e
00000100: abd6 e1bd 23c2 163e bedf 013e 53c4 f9bd
00000110: 1c92 d03d 1226 b4bb 0350 80bd 9d90 e8bd
00000120: c41f a63c 7416 efbd a338 a53c 76f8 e63b
00000130: 3816 df3b bf81 98bc d448 4b3d 307c cebb
00000140: bab8 643c 35b7 ee3d 6cd5 b73d 4b2e e5bd
00000150: b77f e1bd bad9 e93d 18ab b7bd 184f 653d
00000160: 3c8b f1bd 2acb 14bd ebc2 c1bd 33db 433d
00000170: 5b54 9ebb cd3f fdbc 6ec0 febd 2dfb e8bd
00000180: 870c 7ebd ca49 38bd f6e2 8c3c f470 f93d
00000190: 3686 84be 48d8 8b3e 74a7 0ebe 34aa 38be
000001a0: 53ff 1ebe e4d3 9c3d d6bb 863e fb90 64be
000001b0: cd89 32be aba0 bbbc ea8b a1bd fe7a b23d
000001c0: e563 93bd d067 6b3d d54c 743d da91 dfbc
000001d0: 2554 a7bc 100b 97bc 34e3 ef3d d456 26be
000001e0: c050 cfbd ce54 183c 6cfb 20be 53b0 3f3d
000001f0: 5564 3f3e 7255 a0bc 521e c3bd 2c05 963e
00000200: da20 59bd 1593 0a3e 03d8 6e3d 6a33 bb3d
00000210: 7f40 0d3e b5d6 913e f45d 9c3e 99b2 333d
00000220: b9ce 3fbe 2959 cebc 193a cb3d ea57 3cbd
00000230: 1caa c1bd bb92 1abc 637d 6d3e 2c99 6ebb
00000240: b069 553d 289e f73d 64fa 85be 302d 24bc
00000250: 6c37 a3bd 91a5 b53c 4a73 a8bd 0c79 1a3d
00000260: e1e8 b03d aad9 bd3c d37c 04be f4e5 acbd
00000270: cc1a fdbb 023c f43d 0530 013e c20a f5bd
00000280: 38f2 943d 6f62 ccbd 8e62 e2bd 6c75 34be
00000290: c2dd 783d 9c76 9fbd fa18 b03c 0ea9 69bd
000002a0: bcf0 b4bd af43 073e b1d0 0e3e 3263 9ebd
000002b0: 847c b8bd 8e53 e9bc 72ab 213d c536 10bd
000002c0: aeb7 a43d 7b5b d5bc 82cd 9dbd 554a 1fbd
000002d0: 3e76 7ebd 8016 4abd 6a26 0cbe da85 ad3d
000002e0: 808c 4abb 651c 3f3c 0732 be3b 52c5 bc3d
000002f0: 4f78 44bd 615d 603d bc53 a6bd 7c9f 193d
00000300: 767c 0fbe 7292 83bc 881b 9abd 0f5f bd3c
00000310: 2b65 163d 1c14 fdba 962a 1bbe a3db a3bd
00000320: a136 39bd 5ef6 f13b 09c4 023e d3f3 343d
00000330: e068 443d 269b 14bd fb73 683d 9ce0 c23b
00000340: 5f1c 0d3e 9faf 713d f61a b6bd b4af 02be
00000350: 340d edbd d0a7 d4bc 16cd 9fbd 8400 bdbd
00000360: 6631 02be 3719 dbbd d2cc 0dbe 977d b0bc
00000370: 56a2 9dbd 44a4 b03d 2755 b0bd dba7 073e
00000380: 266c 0cbd 0d42 a33d 984c f4bd fd1b a9bc
00000390: 9fcf c13d 530c bd3c fcb5 a03d 237c 093e
000003a0: e529 c2bd 7c59 84bc ab50 c8bd a0bd a5bd
000003b0: ea8d 83bd f2f7 663d 9b54 f33d fa58 a2bd
000003c0: b209 86bd fe62 b4bd c114 e73b 3a16 b53d
000003d0: 9382 30ba 1927 fabd cb95 0a3e 9bb1 343d
000003e0: c96e 053e f65a af3a d00f 0ebc 784a 81bd
000003f0: b4a0 cf3c b87d 06be fb45 c43d 8d3f 3a3d
-0.09318751 0.08110923 -0.379317 -0.13164505 -0.03674871 0.30129552 -0.14683469 -0.04365942
0.07029326 -0.35974756 0.12787758 -0.00029832276 -0.011964502 0.4457734 -0.16682138 0.79348785
0.16901289 -0.19893877 0.17149311 -0.088803686 -0.03612509 -0.01912266 -0.07376749 -0.41478717
0.029703107 -0.37016165 -0.059256505 -0.118537605 -0.016347624 0.07313842 0.22051099 0.12205562
-0.16768005 0.18682115 0.14457025 -0.080101244 0.1511524 -0.17894036 0.14391232 -0.10046814
0.028868973 -0.11685779 -0.010978912 0.10483878 0.071228944 0.03842558 -0.21247865 0.036666304
0.47879988 -0.09397146 0.040666457 -0.0012112848 -0.081233785 -0.013328065 0.11185145 0.027512826
0.040051542 0.07396529 0.010048323 -0.058751527 -0.04563736 0.06468513 -0.07302209 0.1271573
-0.11027273 0.14722495 0.12683007 -0.12195649 0.10184118 -0.0054977024 -0.06265261 -0.11355708
0.020278819 -0.116742045 0.020168608 0.007048662 0.0068080686 -0.018616555 0.04963 -0.0063014254
0.013960058 0.11656038 0.08976254 -0.1119047 -0.11010688 0.11418481 -0.089681804 0.055983633
-0.11794135 -0.036326565 -0.09461006 0.047816467 -0.0048318333 -0.030914212 -0.12439047 -0.11376033
-0.062023666 -0.044992246 0.017198067 0.12179747 -0.25883645 0.27313447 -0.13931066 -0.18033677
-0.15527086 0.076576024 0.26315182 -0.2232093 -0.1743538 -0.02290376 -0.078880146 0.08714865
-0.07196788 0.05747205 0.059643585 -0.027291227 -0.020425865 -0.018437892 0.117132574 -0.1624406
-0.10122824 0.009297563 -0.1572091 0.046799015 0.18690617 -0.019571993 -0.095272675 0.2930082
-0.053009845 0.1353267 0.058311474 0.09140666 0.13794135 0.2848412 0.3054043 0.043871496
-0.18731202 -0.025189 0.099231906 -0.04598228 -0.09456274 -0.009434397 0.23192362 -0.0036407216
0.052102745 0.12090713 -0.26167595 -0.010020539 -0.07969555 0.022173675 -0.08225115 0.037713096
0.08638168 0.02317508 -0.12938242 -0.084422976 -0.0077241417 0.11925508 0.12615974 -0.119649425
0.07272762 -0.09979712 -0.11053954 -0.17622918 0.06075836 -0.07786295 0.021496285 -0.05704599
-0.08834979 0.13209413 0.13946797 -0.07733764 -0.090081245 -0.028482225 0.039470144 -0.035208482
0.080428466 -0.026044598 -0.07705213 -0.038889248 -0.062124483 -0.049337864 -0.13686529 0.08472796
-0.0030906498 0.011664485 0.0058043036 0.09217323 -0.047966298 0.054776553 -0.0812144 0.03750561
-0.14012322 -0.016061042 -0.075247824 0.023116617 0.036717575 -0.0019308361 -0.15152964 -0.08000877
-0.045218114 0.0073841056 0.12770094 0.04417784 0.04795158 -0.036280774 0.056751233 0.0059471857
0.13780354 0.059005376 -0.08891861 -0.12762338 -0.11574784 -0.025958925 -0.07802789 -0.09228614
-0.12714157 -0.10698169 -0.13847664 -0.02154426 -0.07696979 0.08625081 -0.086099915 0.13247626
-0.034282826 0.079715826 -0.119286716 -0.020643229 0.09463429 0.023077166 0.07847211 0.1342626
-0.09480647 -0.01615595 -0.09781011 -0.08092809 -0.06423552 0.056388803 0.118813716 -0.07927127
-0.06544818 -0.08807944 0.0070520346 0.0884213 -0.0006733324 -0.122144885 0.13533704 0.04411469
0.13030542 0.0013378549 -0.008670762 -0.06313032 0.025345184 -0.13133895 0.0958366 0.045470763

net.layer_1.bias f4 [50]
00000000: 06c8 283d 91d8 b23d 894f 013e 3a75 983d
00000010: 5a8c 32bd e59c a3bc da76 113e 9d2a 163c
00000020: 461a eabb b47c 313d c0f5 983c f0c9 81bd
00000030: ae6a babd 4a26 1ebc 1af8 f1bc 58b7 2abe
00000040: 1653 c93c 68a2 cb3d a97a bf3c e973 1a3e
00000050: 300e 503d a006 1fbe 5f3e 99bc bae8 8abd
00000060: 69b5 01bd c54d 8fbd 7260 a13d e402 90bd
00000070: 3601 c73c a6e5 843c 46af f23d 3b4b 88bc
00000080: 875a 9c3d f44c 9d3d bd3e a8bd 8c97 8e3d
00000090: 2778 a3bc 4c15 fdbd 0b21 f13d 9c14 54bd
000000a0: 8c56 1f3e fead 883c 36ab e8bd 122f 67bd
000000b0: 59da 18bd c5a8 f1bd 79aa b73b d11c 443d
000000c0: f65f 123e 4042 163e
0.041206382 0.08732713 0.12627997 0.07444234 -0.04359088 -0.019972274 0.14205495 0.009165433
-0.0071442453 0.043331817 0.01867187 -0.06337345 -0.09102379 -0.0096526835 -0.02953725 -0.16671503
0.024575751 0.09943086 0.023373919 0.15083279 0.05079478 -0.15529871 -0.018706499 -0.0678267
-0.031667147 -0.06997255 0.078797236 -0.07031801 0.02429257 0.016222786 0.11849837 -0.016637435
0.07634454 0.07680693 -0.082150914 0.06962499 -0.019954754 -0.12357578 0.117738806 -0.051777467
0.15560359 0.016684528 -0.11360781 -0.056441374 -0.037317608 -0.11799768 0.0056050387 0.047879044
0.14294419 0.1467371

net.output.weight f4 [1, 50]
00000000: 7121 b23e a755 9a3d be37 05bd 37b6 f5bd
00000010: 7a9c 70bd 961d b4bd f5c5 c33d 5341 e3bc
00000020: 9b6a 06bd 3418 93bc 547f d33c 887d b23d
00000030: 0048 053d 976b cbbd 5e4e 96be 4d4b 8bbe
00000040: 0a24 4a3c f872 c0bc 95d2 2cbc 4b06 bf3d
00000050: b878 3e3d 2b98 e3bd 3e53 8dbe 0e55 c7bc
00000060: 5d9b 0b3d c16a 2abd 6daf 0a3e 2f38 00be
00000070: 4283 a0bd bb8e a6bd ce14 483c f437 07be
00000080: b575 e4bd f8a5 93ba c247 0bbe 64b6 d53d
00000090: 62bf 61bd 924e fcba 7979 edbd 395b b3bd
000000a0: e7e5 d73d 82bc 07bd 796d 6bbc da53 99bd
000000b0: 4e93 f8bc 4217 70bc cdcc f5bc c7dc 173d
000000c0: 57b0 a03d 5238 0a3e
0.3479114 0.07535868 -0.032523863 -0.11997645 -0.058742978 -0.087947056 0.09559242 -0.02774111
-0.03281651 -0.017955877 0.02581755 0.087153494 0.032539368 -0.099326305 -0.29356664 -0.27205887
0.012337694 -0.023492321 -0.010548254 0.09327372 0.046501845 -0.11113008 -0.2760257 -0.02433255
0.034083713 -0.041605715 0.13543482 -0.12521432 -0.078375354 -0.081326924 0.0122119915 -0.13204938
-0.11155263 -0.0011264673 -0.13601592 0.10435179 -0.055114157 -0.001924949 -0.11595435 -0.08757634
0.10541897 -0.03313876 -0.014369362 -0.074866965 -0.030343678 -0.014653983 -0.030004883 0.037075784
0.07846134 0.13498047
