burgers/trained_models/Conv_Anal/u_2_1/Conv_Anal_Final_wpinn_burgers_1_2_100.pth (torch, 5108 bytes, 5 tensors)

net.layer_0.weight f4 [20, 2]
0	0x3e21b73e	0.15792558
1	0x3f148227	0.58011097
2	0x3f02b034	0.51050115
3	0xbf123ec4	-0.5712702
4	0xbf13a36b	-0.5767123
5	0x3e8e4949	0.27790287
6	0xbe46dcb9	-0.19420137
7	0xbeea24f0	-0.45731306
8	0x3d8e8d9a	0.06960602
9	0xbee27142	-0.44227034
10	0x3ea967b8	0.33086944
11	0xbf1c5074	-0.6106026
12	0xbebf2f0c	-0.3734058
13	0xbd4c94a1	-0.04994643
14	0xbf2f5629	-0.68490845
15	0x3f2ef9bb	0.6834981
16	0xbe987b33	-0.29781494
17	0xbe875dce	-0.26438755
18	0x3e829baf	0.25509402
19	0xbdb3f6e4	-0.08787325
20	0xbe84bf72	-0.2592731
21	0x3d2dd3fc	0.042438492
22	0xbeaacab1	-0.33357766
23	0xbefc28ac	-0.4924978
24	0x3f121257	0.57059234
25	0xbd884bdc	-0.06655094
26	0xbef4773a	-0.47747213
27	0x3e45b070	0.19305587
28	0xbf0dd1e8	-0.55398417
29	0x3f3440a3	0.7041113
30	0xbdcba752	-0.09944023
31	0xbd9b8b16	-0.07594888
32	0xbf28eac2	-0.6598321
33	0xbf2bd253	-0.67117804
34	0x3f1310ab	0.5744731
35	0xbdbdc80b	-0.09266671
36	0xbf055406	-0.52081335
37	0x3ed92ac4	0.4241544
38	0xbe87f142	-0.26551253
39	0xbeb32d44	-0.34995472

net.layer_0.bias f4 [20]
0	0x3ed60946	0.4180395
1	0x3f0b765a	0.54477465
2	0x3e255338	0.16145027
3	0x3ec20285	0.37892547
4	0xbdb30b24	-0.08742359
5	0xbe6f23e5	-0.23353536
6	0x3e91ec45	0.28500572
7	0x3e79a3e0	0.2437892
8	0x3e624903	0.22098164
9	0x3ecc8235	0.3994309
10	0x3e81ae85	0.2532846
11	0x3e231499	0.15925826
12	0x3ef5cab9	0.48006228
13	0x3e0722e7	0.13196908
14	0x3e8405b6	0.25785607
15	0x3eef2016	0.46704167
16	0xbe7e43c8	-0.24830544
17	0xbf0ea46a	-0.55719626
18	0x3f2105c9	0.6289945
19	0x3e4c4c0c	0.19950885

net.layer_1.weight f4 [20, 20]
0	0xbe33c9bf	-0.17557429
1	0xbd956fe5	-0.07296733
2	0xbe6b6319	-0.22987022
3	0xbc6c46c1	-0.014421166
4	0x3e6bf0a8	0.23041022
5	0x3d3f65ab	0.046727818
6	0x3e767349	0.24067415
7	0x3d0b8f4b	0.0340722
8	0xbca84959	-0.020542787
9	0xbe3c8eb8	-0.18413818
10	0xbc6be364	-0.014397476
11	0x3e5c87ce	0.2153618
12	0xbced3975	-0.028958062
13	0x3e2c971a	0.16854516
14	0x3c5da3f6	0.013527861
15	0xbd611575	-0.054952104
16	0xbe36c4c8	-0.17848504
17	0x3e31fd4e	0.17381784
18	0xbda24931	-0.079241164
19	0x3df7a2e6	0.12091617
20	0xbe3816d1	-0.17977454
21	0x3e3c9ccc	0.18419188
22	0x3e2b039f	0.167006
23	0xbd3f8581	-0.04675818
24	0x3cbab4f2	0.02279136
25	0x3d001c50	0.031277
26	0xbe5305e2	-0.20607713
27	0x3e5def1c	0.21673244
28	0xbdcd2810	-0.10017407
29	0xbe0bddee	-0.13658878
30	0x3e3f1544	0.18660456
31	0x3df33d95	0.1187698
32	0xbd9363e4	-0.07196787
33	0xbba8ab99	-0.005147409
34	0x3e158994	0.14603263
35	0xbe3f65bb	-0.18691151
36	0xbe3a53a5	-0.1819597
37	0xbdfd7e42	-0.123775974
38	0xbd96f906	-0.07371716
39	0xbd693be0	-0.056941867
40	0xbc2d9877	-0.0105954325
41	0x3db0e291	0.08636964
42	0xbe6a9efd	-0.22912212
43	0xbdb9c7f7	-0.090713434
44	0xbd8f3077	-0.06991666
45	0xbdf51db6	-0.119685575
46	0x3d2a7e35	0.041624267
47	0x3da2b0f0	0.079439044
48	0xbdbdce12	-0.092678204
49	0x3d5fca4c	0.054636285
50	0x3e13cefe	0.1443443
51	0xbde7ab36	-0.11311953
52	0x3e22b0e3	0.1588779
53	0xbd0b12fe	-0.03395366
54	0xbc779401	-0.0151109705
55	0x3e1cf398	0.15327299
56	0x3de11603	0.109905265
57	0xbda243e8	-0.07923108
58	0x3c76cd8f	0.015063657
59	0x3d6b3faf	0.05743378
60	0xbdb76674	-0.08955088
61	0x3cb3e805	0.021961221
62	0x3c4c954d	0.012486768
63	0x3e7a6d21	0.24455692
64	0x3e7b0ed5	0.24517377
65	0x3e08acdc	0.1334719
66	0xbdafcd61	-0.08584095
67	0xbe493f93	-0.19653158
68	0xbe4294be	-0.19002053
69	0x3d9fd029	0.07803375
70	0xbd31f53b	-0.04344676
71	0xba84e54e	-0.0010139139
72	0x3e21053e	0.15724656
73	0x3df0b4f5	0.11753265
74	0xbdb1520d	-0.08658228
75	0x3e536fc2	0.20648101
76	0x3e043fc3	0.12914948
77	0xbd667aff	-0.056269642
78	0x3c61f46e	0.013791187
79	0x3e6809dc	0.22660011
80	0x3dc1f20b	0.09469994
81	0x3d955932	0.07292403
82	0xbe724652	-0.23659638
83	0xbc95bb27	-0.018277718
84	0x3e4799aa	0.19492212
85	0x3dcec120	0.100954294
86	0xbd928741	-0.07154704
87	0x3de87a2c	0.113514274
88	0xbafe8f5b	-0.0019421385
89	0xbe142451	-0.14466979
90	0xbd77cee0	-0.060500026
91	0xbe24ce27	-0.16094266
92	0x3e5e3ac7	0.2170211
93	0xbd2c7fa5	-0.04211392
94	0xbdc5684f	-0.09639036
95	0xbc1ce286	-0.009575492
96	0x3e4c186f	0.19931196
97	0x3e1ab6f9	0.15108861
98	0x3d17c843	0.03705622
99	0xbde3ad70	-0.11117065
100	0xbe017615	-0.12642701
101	0xbe10703e	-0.14105317
102	0xbe18478b	-0.14871041
103	0x3da81f84	0.08209136
104	0x3e5423cc	0.2071678
105	0x3e14acee	0.14519092
106	0x3c0a3542	0.008435549
107	0xbe0e63a2	-0.13905194
108	0xbdae159d	-0.08500216
109	0x3e82671a	0.25469285
110	0x3d5dc676	0.054144345
111	0x3dadfa3e	0.084949955
112	0xbde53093	-0.111909054
113	0xbe55d485	-0.20881851
114	0xbe87177a	-0.263851
115	0xbe2d42de	-0.16920039
116	0x3e01b194	0.12665397
117	0xbe715df1	-0.23570992
118	0xbe033e98	-0.12816846
119	0x3e01740c	0.12641925
120	0x3d82d50a	0.0638829
121	0x3d0ad900	0.033898354
122	0xbe007b6a	-0.12547079
123	0x3d508328	0.05090633
124	0x3e508a8d	0.20365353
125	0xbe0f6364	-0.14002758
126	0x3dba1452	0.09085907
127	0x3dc1b673	0.094586276
128	0xbbfe5603	-0.0077617182
129	0xbe2493a4	-0.16071945
130	0x3e4ef8cf	0.202121
131	0xbe070305	-0.13184746
132	0x3da60422	0.08106257
133	0xbe7f2854	-0.24917728
134	0x3e2d266a	0.16909185
135	0x3da1629f	0.078801386
136	0xbb39c622	-0.0028346856
137	0xbd028aaa	-0.03187052
138	0xbdb87169	-0.09006006
139	0x3e393f7d	0.18090625
140	0xbe159800	-0.14608765
141	0xbe3f7654	-0.18697482
142	0x3e37f9a6	0.17966327
143	0xbc82b578	-0.015955672
144	0xbe33ece5	-0.17570837
145	0xbe3f738a	-0.18696418
146	0xbd988cda	-0.0744874
147	0xbe678faf	-0.22613405
148	0xbdfe22ba	-0.12408967
149	0xbdc9c5af	-0.09852158
150	0xbe22f57c	-0.15913957
151	0xbd9c9903	-0.07646372
152	0xbe137095	-0.14398415
153	0x3ddb9a90	0.1072284
154	0xbe64111a	-0.22272149
155	0x3e56ee32	0.20989302
156	0x3dd0e910	0.10200703
157	0xbdfecfa0	-0.12441945
158	0xbdf97890	-0.121811986
159	0x3e81bdd3	0.25340137
160	0xbce7fe97	-0.02831964
161	0xbd1a0a08	-0.037607223
162	0xbc8e91f3	-0.017403578
163	0x3d012a78	0.031534642
164	0x3dd908d5	0.10597388
165	0x3e143291	0.14472415
166	0xbde77c8b	-0.113030516
167	0x3d048ff7	0.032363858
168	0xbe1601ef	-0.14649175
169	0xbe09c64c	-0.1345455
170	0xbd9b7947	-0.07591491
171	0xbe091be3	-0.13389544
172	0xbca28f21	-0.01984364
173	0x3e0a7832	0.13522413
174	0xbdf3db54	-0.11907068
175	0x3e6bc11e	0.23022887
176	0xbda40bb1	-0.080100425
177	0xbe2612cd	-0.1621811
178	0xbdf524d4	-0.11969915
179	0xbdf7e894	-0.12104908
180	0x3ae64e13	0.0017570875
181	0xbe5c27cf	-0.21499561
182	0x3e72217c	0.23645586
183	0x3cb76dba	0.022391189
184	0xbe4316c8	-0.19051659
185	0xbe1cb6af	-0.15304063
186	0x3e41a19f	0.1890931
187	0xbd62c25b	-0.055361133
188	0xbe4a17c1	-0.19735624
189	0xbda92113	-0.082582615
190	0x3dd023d0	0.10163081
191	0x3dd75848	0.10514885
192	0xbd61f9ba	-0.0551698
193	0x3dcdbbb4	0.10045567
194	0xbdc75c04	-0.097343475
195	0xbdb3523c	-0.08755919
196	0xbcbe913a	-0.023262609
197	0x3d7bf67b	0.06151436
198	0x3e192b6f	0.14957975
199	0xbd98b0a4	-0.074555665
200	0xbe08469d	-0.13308187
201	0x3dcbfb1c	0.09960005
202	0xbe707bc2	-0.2348471
203	0xbe1560ed	-0.14587756
204	0x3e366a08	0.17813885
205	0x3da3abaa	0.07991727
206	0x3dd08753	0.10182061
207	0xbe766385	-0.24061401
208	0x3ddb30e6	0.10702686
209	0x3d36156f	0.044454034
210	0xbdfde809	-0.12397773
211	0xbc48dcde	-0.01225969
212	0x3e1b5e83	0.15172772
213	0xbc99b3ed	-0.018762553
214	0x3db3644f	0.08759367
215	0xbd69d1d4	-0.057084873
216	0x3d5d223e	0.053987734
217	0xbe37e8a8	-0.17959845
218	0x3de0b9ef	0.10972964
219	0x3d4879a0	0.048944116
220	0x3e31d69f	0.17367028
221	0x3d4054e4	0.046955958
222	0xbe744c62	-0.23857263
223	0x3e7f3dce	0.2492592
224	0x3e0f4624	0.139916
225	0xbe2edc99	-0.17076339
226	0x3e04374c	0.12911719
227	0x3d5b3028	0.053512722
228	0x3e817089	0.2528117
229	0x3e273e5c	0.16332382
230	0x3cc16f5b	0.023612669
231	0xbdb39081	-0.08767796
232	0xbd26ce03	-0.04072381
233	0xbe134728	-0.14382613
234	0xbdc3f3bd	-0.09567974
235	0x3e789cfe	0.24278638
236	0x3e0f1fba	0.13976946
237	0x3c7c3b4a	0.015394995
238	0xbd5f0be6	-0.054454707
239	0x3e5d8085	0.21631058
240	0x3dbde949	0.09273011
241	0xbe22d5a3	-0.15901808
242	0xbe2c3c0c	-0.16819781
243	0x3dbabcbb	0.09118029
244	0x3d7bbc86	0.061459087
245	0x3e058a5a	0.13041058
246	0x3d941c8c	0.072320074
247	0xbcb8d73e	-0.022563573
248	0xbe6f6e58	-0.23381937
249	0x3c80c413	0.015718495
250	0x3e2ab87f	0.16671942
251	0xbd48008c	-0.048828647
252	0xbd38a86e	-0.045082502
253	0xb831ae5e	-4.236248e-05
254	0x3e4b8b3b	0.19877331
255	0x3dadad25	0.0848029

net.layer_1.bias f4 [20]
0	0x3deaf927	0.11473303
1	0xbcd7bdec	-0.026335679
2	0xbe1a7524	-0.15083748
3	0x3e35de81	0.1776066
4	0xbdc43416	-0.09580247
5	0x3d14ef5b	0.03636108
6	0x3ca32cb0	0.01991877
7	0xbccd2e34	-0.025046445
8	0xbdff39f8	-0.124622285
9	0x3e0d34e3	0.13789706
10	0x3e7ab88d	0.24484463
11	0xbba8b2cf	-0.005148269
12	0x3e1ce04f	0.15319942
13	0x3e2bc56c	0.16774529
14	0x3e2eddf4	0.17076856
15	0x3d5898fd	0.052880276
16	0x3e20e705	0.15713127
17	0x3e7d08dd	0.24710412
18	0x3e705670	0.23470473
19	0xbe3653ea	-0.17805448

net.output.weight f4 [1, 20]
0	0x3d8458b5	0.06462232
1	0xbe3466b7	-0.17617308
2	0xbae401fd	-0.0017395612
3	0x3d08bd1a	0.033383466
4	0x3e472f1c	0.19451565
5	0x3e1a7c16	0.15086398
6	0x3e10ad2e	0.14128563
7	0x3d839903	0.06425669
8	0x3dea9edc	0.11456081
9	0xbe309307	-0.17243586
10	0x3e5dfb65	0.2167793
11	0x3e16b957	0.14719139
12	0xbd650ba3	-0.0559193
13	0x3ce156eb	0.027507266
14	0x3de618a8	0.112351716
15	0x3e37ca28	0.1794821
16	0x3e3b6131	0.18298794
17	0x3db1785e	0.08665536
18	0x3d8ce87e	0.06880282
19	0xbe8495f8	-0.25895667
