burgers/trained_models/Conv_Anal/u_2_1/Conv_Anal_Final_wpinn_burgers_1_2_10000.pth (torch, 5128 bytes, 5 tensors)

net.layer_0.weight f4 [20, 2]
000000 a4 05 09 bf 97 2e c1 3f c1 fd 86 3f 7a 62 1d c0
       -0.5352423 1.5092343 1.054619 -2.4591355
000010 eb e4 57 bf 9b d3 5b 3f 3c 62 9d 3f 9c 34 3b c0
       -0.84333676 0.8586976 1.2295604 -2.925086
000020 66 a8 39 3f 9e 4d c4 bf fe 52 e4 3f 2a b2 66 c0
       0.7252258 -1.5336187 1.7837827 -3.6046243
000030 1f 74 64 3d 71 1d da be f2 78 ea bf 0e dc 52 40
       0.055774804 -0.42600587 -1.831816 3.294681
000040 3f 6b 12 3e b8 2d 16 bf 7b 4d 75 3f dd 4b 71 bf
       0.14298724 -0.5866351 0.9582135 -0.94256383
000050 4c 3b bf be 55 a8 44 3e bd c5 b9 3e ea 6c ad bf
       -0.37349927 0.19204839 0.36283675 -1.3548863
000060 9d 0c 21 3f b7 d6 35 bf af 48 82 bf ec 58 a5 3f
       0.6290987 -0.71030754 -1.0178431 1.2917762
000070 72 2d da bf 70 33 51 40 e3 91 aa 3e b2 75 65 bf
       -1.7045119 3.2687645 0.33314428 -0.89632714
000080 b7 bb a0 bd a2 0e b2 bf 8a 1c c4 3e 92 a6 83 be
       -0.07848304 -1.3910716 0.38303024 -0.2571302
000090 b8 5a a0 bf 45 29 eb 3f ab 88 55 3e 7c a4 4a bf
       -1.2527685 1.837197 0.20852916 -0.79157233

net.layer_0.bias f4 [20]
000000 8b 8e 2b 3e bd 8a 9b 3d 43 2d e5 3d d9 09 ac 3d
       0.16753595 0.075948216 0.111902736 0.08400316
000010 0d 7a 06 bd 9f 7f b2 3b 40 56 a2 3e ba 09 c9 3c
       -0.03283124 0.0054473425 0.3170643 0.02454077
000020 33 a7 38 3e e0 5a 82 3e e0 2b 80 3e 7e 8b 00 3e
       0.18032531 0.25459957 0.25033474 0.12553212
000030 c6 43 c0 3e b3 cf 8f 3d 17 de aa 3c 5a f1 ab 3e
       0.37551707 0.07022037 0.020857854 0.33582574
000040 b3 18 3f be 4a 2b 07 bf db c5 57 3e 0f ba 25 3e
       -0.18661766 -0.5280043 0.2107157 0.16184257

net.layer_1.weight f4 [20, 20]
000000 95 01 2a be ad c9 75 bd 7f 9f 3b be 7d a9 ae bb
       -0.16602166 -0.060006786 -0.18322562 -0.005330263
000010 9f 11 66 3e 85 57 39 3d bb 38 65 3e 02 05 c9 3c
       0.2246766 0.04524948 0.22384922 0.02453852
000020 ab ea 41 bd d4 ee 4e be 28 a2 cb bc 30 5e 54 3e
       -0.047342937 -0.20208293 -0.024857596 0.20739055
000030 ca 66 5f bd 62 36 68 3e 97 0f 43 3b 14 31 95 bd
       -0.054541387 0.22676995 0.002976393 -0.072847515
000040 21 0d 1f be 71 fa 48 3e fe d9 34 bd f4 0c c1 3d
       -0.15532352 0.19626786 -0.044153206 0.09426299
000050 3d 5c 64 be d5 f5 46 3e d5 f5 71 3d 37 c3 12 bd
       -0.22300811 0.19429715 0.059072334 -0.035830703
000060 d8 5b 5c 3d ed 01 8f 3d c3 f4 5a be d7 ff 50 3e
       0.053798527 0.06982789 -0.21382432 0.20410095
000070 79 6b 79 bd 47 6e de bd 68 2e 21 3e 84 7f 16 3e
       -0.06089351 -0.108608775 0.15740359 0.14697081
000080 ed f2 68 bd ec c4 f7 bd 3b ce 04 3e 77 0f 4a be
       -0.056872297 -0.12098107 0.12969296 -0.19732462
000090 11 79 a8 bd 3a 97 e1 bd c7 08 c2 bd c8 e0 42 bc
       -0.082262166 -0.11015172 -0.094743304 -0.011894412
0000a0 32 63 da bc 6e 5c a2 3d 14 13 78 be 04 96 c1 bd
       -0.026658628 0.07927786 -0.24226028 -0.09452441
0000b0 1c 1c 8a bd 0e 31 c6 bd 75 c9 28 3d 31 75 8e 3d
       -0.06743643 -0.09677325 0.04120775 0.06955946
0000c0 f7 3f 9e bd 6d 66 74 3d 3a 7e 2c 3e 2e da eb bd
       -0.07727044 0.059667993 0.16845027 -0.11516224
0000d0 a7 86 23 3e 42 79 30 bd 15 1a 02 bd 54 70 13 3e
       0.15969335 -0.04308439 -0.031763155 0.14398319
0000e0 c9 63 0e 3e 45 d6 f8 bd 1b 0e cc 3c b6 89 96 3d
       0.13905253 -0.12150244 0.02490907 0.07350485
0000f0 76 21 0c c0 24 a9 32 40 4b d1 0e c0 e9 9d 5a 40
       -2.1895423 2.7915735 -2.2315242 3.415888
000100 23 71 72 40 71 60 a4 40 72 b5 a3 3e 88 37 92 c0
       3.7881553 5.1367726 0.3197437 -4.5692787
000110 75 64 61 3f b9 c0 9c 3f 7e ce 0f bf 18 c1 05 40
       0.8804391 1.2246314 -0.5617446 2.0899105
000120 f5 1f 54 3f 4b 5f 36 c0 69 f7 8f c0 23 c4 3d 3f
       0.8286126 -2.8495662 -4.4989514 0.74127406
000130 bb de 08 40 4f 14 ed 3e 7c d4 06 c0 1f a4 db 3f
       2.1385944 0.46304557 -2.106719 1.7159461
000140 63 a8 28 3e 01 a5 3e 3d c9 ea 1e be 99 f4 5a bd
       0.16470484 0.04654408 -0.15519251 -0.053455923
000150 03 5d 17 3e 74 c5 9b 3b a9 27 a1 bd c7 78 32 3e
       0.14781575 0.004753763 -0.07868893 0.17428885
000160 fa ca 53 bd c6 ba 2d be b1 72 7e bd e3 4e 4d be
       -0.051707245 -0.1696578 -0.062121097 -0.20049624
000170 f0 a0 4c 3e ea 13 66 3d 90 52 db bc e2 d4 5c bc
       0.19983268 0.056171335 -0.026772767 -0.01347849
000180 89 22 91 3d 07 00 29 3e a8 31 9b 3d 3d ed 29 be
       0.07086665 0.16503917 0.075778306 -0.16594405
000190 08 48 e6 be 54 6c 60 3c 4d 56 bb be 16 87 87 3e
       -0.4497683 0.013697702 -0.3658928 0.2647025
0001a0 fc a5 e8 3e 51 41 18 3f 9c 83 e8 3d cc 6e 03 bf
       0.45439136 0.59474665 0.113532275 -0.5134094
0001b0 c9 da f8 3c 0f d2 b8 3e 21 9a cc 3d 91 f5 5c 3e
       0.030377762 0.36097762 0.09990335 0.21578051
0001c0 9c cb f6 bb 24 dc 16 bf d6 e0 2e bf 72 be 54 bd
       -0.0075315963 -0.5892966 -0.6831182 -0.051939435
0001d0 7f 7a 01 3f 46 d8 97 be 9d d1 9e be b0 94 81 3e
       0.5057754 -0.2965719 -0.31019297 0.25308752
0001e0 d3 a1 2a 3d 1d 80 d8 3c 20 19 44 bd d6 b0 2e 3d
       0.041658234 0.026428277 -0.047875524 0.042649113
0001f0 d5 85 43 3e f0 34 3c be 9f 7c b0 3d e3 b2 ea 3d
       0.19094022 -0.18379569 0.086175196 0.11459901
000200 c3 52 3e bd 20 63 41 be e0 64 48 3e 80 67 1a be
       -0.046465646 -0.1888547 0.19569731 -0.15078545
000210 8f f6 65 3d 45 35 24 be a4 c8 42 3e 23 48 98 3d
       0.05614334 -0.16035946 0.19021851 0.07435634
000220 03 98 56 bd 90 9f bc bb f5 df c7 bd b2 cf 10 3e
       -0.052391063 -0.005756326 -0.09759513 0.1414173
000230 c2 24 52 bd dc 0f 91 be 0f db 8e 3e 81 a8 13 be
       -0.051304586 -0.28332412 0.27901503 -0.14419748
000240 28 a2 9a be 79 9c e5 be 82 ec f2 bd 11 90 f7 bc
       -0.3020184 -0.44845942 -0.118615165 -0.030220063
000250 91 9d 53 be 29 fc fa bd 65 3d 2d be 12 2f 26 be
       -0.20665576 -0.12255127 -0.16917951 -0.16228893
000260 ec ad 29 be 57 7d 67 3e 6b 53 49 3a 5d 48 2d 3e
       -0.16570252 0.22606407 0.0007679972 0.16922136
000270 ad ad 99 3d e1 e6 d7 bd e0 e1 3a bd 84 b4 22 3e
       0.07503829 -0.105420835 -0.045625567 0.15889174
000280 24 c1 af bc 45 8f 89 bd ea 30 29 3d 36 91 1e bc
       -0.021454401 -0.067167796 0.041306414 -0.009678176
000290 f4 65 95 3d ef 47 0b 3d d2 96 0c be 44 cc ce 3d
       0.07294837 0.034004148 -0.13729408 0.10097554
0002a0 9a 08 51 be 68 6a 22 be 5d 6a c0 bd 07 65 30 be
       -0.20413437 -0.15860903 -0.09395287 -0.17226039
0002b0 b5 02 31 bd c5 d2 43 3e 74 d7 23 bd f0 c2 5d 3e
       -0.043215472 0.19123371 -0.040000394 0.21656394
0002c0 48 96 11 be e3 18 f7 bd 69 fc 12 be 0b ab 39 be
       -0.14217484 -0.12065294 -0.143541 -0.18131654
0002d0 99 bc 4a 3d 28 19 61 be df 4d 58 3e c8 29 a2 3c
       0.049496267 -0.21982253 0.21123455 0.019795313
0002e0 05 d1 52 be 82 2d 15 be 65 b4 33 3e 86 b8 3f bd
       -0.20587547 -0.14568141 0.17549284 -0.046806835
0002f0 7b 53 4a be f6 2a af bd 4d 59 be 3d 49 d4 cc 3d
       -0.19758408 -0.08553116 0.092943765 0.10001428
000300 4b d7 60 bd 86 c3 af 3d f3 4a b2 bd 65 11 cc bd
       -0.05489282 0.08582215 -0.08705702 -0.09964255
000310 31 6a b0 bd 38 47 86 3d a7 3c 25 3e a2 7b 97 bd
       -0.086140044 0.06556553 0.16136418 -0.07396628
000320 57 73 07 be cd 20 9c 3d e1 0d 14 be eb 1c 35 be
       -0.13227592 0.07623444 -0.1445842 -0.17686813
000330 c6 16 13 3e c4 3d cb 3c 86 f7 bf 3d 83 6c 67 be
       0.14364156 0.024809726 0.09373383 -0.22599988
000340 51 78 6f 3d 5a 39 25 3c 22 5e dd bd 1c cc 48 bd
       0.058464352 0.010084474 -0.1080897 -0.04902278
000350 c3 13 05 3e ec 93 ca 3d 09 9b de 3d 2e 4b 84 bd
       0.1299582 0.09891495 0.10869414 -0.06459652
000360 c9 0e 0c bb d2 88 39 be be b8 ce 3d 4b 9c 0f bc
       -0.0021371117 -0.18118599 0.100938305 -0.0087652905
000370 e7 3b 00 3e 50 fe 3e 3d 73 e1 70 be f1 cc 71 3e
       0.12522851 0.04662925 -0.23523502 0.23613335
000380 24 c0 27 3e 84 48 5b be bb df 0c 3e eb 1c 6f 3d
       0.1638189 -0.21414381 0.13757221 0.058377188
000390 a1 d8 72 3e ad fd 40 3e d2 c0 cc 3c b0 c3 b3 bd
       0.2371545 0.1884677 0.024994288 -0.08777559
0003a0 7b c8 d2 bc 7a 1e 22 be 53 2a b1 bd c1 0e 8c 3e
       -0.025730362 -0.15831938 -0.08650651 0.27355006
0003b0 84 81 1a 3e ff 0c b5 3c 38 6e 01 be a6 0e 4d 3e
       0.15088469 0.022100924 -0.12639701 0.20025119
0003c0 d0 a3 42 bd 67 cb 62 bd d9 ed 8b be 7f 6d 67 3e
       -0.047519505 -0.05536976 -0.273299 0.22600363
0003d0 aa 8e 5e 3e c1 cd ce 3e 47 53 ff 3d 34 d3 64 be
       0.2173411 0.40391353 0.12467056 -0.22346193
0003e0 86 57 0f be 4b bd 48 3d af 08 38 3e 09 37 57 3d
       -0.13998231 0.04900865 0.17972063 0.05254272
0003f0 f2 78 b7 bc ac 09 14 be f4 3a 11 bd ef 56 0d 3e
       -0.022396538 -0.14456815 -0.035456613 0.13802694

net.layer_1.bias f4 [20]
000000 1c d2 01 3e dc f7 aa bd 70 b8 38 be 0e c4 8c 3e
       0.12677807 -0.08348057 -0.18039107 0.27493328
000010 4f f8 67 bd 58 14 f0 3d 75 1a 66 3d 74 eb b7 bc
       -0.05663329 0.1172263 0.056177575 -0.02245114
000020 c5 e4 d7 bd d3 94 fc 3d 12 0b 97 3e 7f a4 f7 3c
       -0.10541681 0.123330735 0.29500633 0.030229805
000030 63 e2 1e 3e fa 99 a3 3e 0c 4e 5b 3e e2 28 9c 3c
       0.15516047 0.31953412 0.21416491 0.019062463
000040 a4 0d 64 3e ff 5b 97 3e 64 90 89 3e 3f c6 5e be
       0.22270828 0.29562375 0.26867974 -0.21755312

net.output.weight f4 [1, 20]
000000 a7 aa 07 3d 6f af 13 be 0d 4c ac bc 11 e1 37 3f
       0.03312173 -0.14422391 -0.021032358 0.718278
000010 2c 0f 24 3e 44 bb be 3d af 28 06 3e 9a d8 b9 3d
       0.16021413 0.09313062 0.13101457 0.090745166
000020 4f a4 d7 3d 9a d8 22 bd f4 ce 4c 3e c0 32 e4 3d
       0.10529386 -0.03975735 0.20000821 0.11142492
000030 95 32 88 bd 85 ad 6c 3d 70 e7 b7 3d 97 eb 02 3e
       -0.06650273 0.05778267 0.0897969 0.12785183
000040 32 fa 43 3e a8 8b 36 3e 02 2b 8b be a3 85 5d be
       0.1913841 0.17826712 -0.2718125 -0.2163301
