burgers/trained_models/Conv_Anal/u_2_1/Conv_Anal_Final_wpinn_burgers_1_2_2000.pth (torch, 5118 bytes, 5 tensors)

net.layer_0.weight f4 [20, 2]
000000 c3 33 33 3e c6 49 40 3f 1f 66 f5 3e 00 dc 5e bf
       0.17500214 0.7511257 0.47929475 -0.87054443
000010 2a 38 22 bf a9 d9 cb 3e 4e 5b 9f 3e 05 5a 89 bf
       -0.6336695 0.398145 0.31124347 -1.0730597
000020 3f 6d 83 3e b8 ff 29 bf 05 64 5c 3f 6c d6 bd bf
       0.25669286 -0.6640582 0.8609012 -1.4831061
000030 72 16 4a be 1f 3d 50 be fb c7 83 bf 69 82 c0 3f
       -0.19735125 -0.20335816 -1.0295404 1.5039798
000040 21 84 6e be 17 da 92 be ab 59 df 3e 9f a0 bf be
       -0.2329259 -0.28682014 0.436231 -0.37427232
000050 d4 28 87 be e5 86 4a 3d 4b be 28 be 41 9c 32 bf
       -0.26398337 0.04944505 -0.16478841 -0.69769675
000060 b0 fe 37 3f a2 74 46 be 67 4a 19 bf 59 06 c8 3e
       0.71873 -0.1938043 -0.59879154 0.39067343
000070 3c 42 71 bf f8 6e bb 3f 9b 24 82 3d 4d 8a 59 be
       -0.9424169 1.464324 0.06354638 -0.21244164
000080 91 9a 31 bf b1 90 52 bf af e2 10 3f 75 4d d5 bd
       -0.69376475 -0.8225203 0.5659589 -0.104151644
000090 22 4e 3c bf 90 50 38 3f 12 f3 1f be a8 21 db be
       -0.7355672 0.7199793 -0.15620068 -0.42799115

net.layer_0.bias f4 [20]
000000 7d ae 8e 3e 4a 9d 68 3e df c2 0b 3e 9a 75 5c 3e
       0.278675 0.22716251 0.13648556 0.21529236
000010 63 77 38 bd cf ae 0b bc 88 b8 9a 3e 35 00 ac 3d
       -0.04503573 -0.008525564 0.3021891 0.08398477
000020 2f cd 53 3e b1 4e ba 3e d4 c0 83 3e 99 0b 22 3e
       0.2068374 0.36388162 0.25733054 0.15824737
000030 e2 4c ee 3e 66 cc ce 3d b0 8a 93 3d d9 25 e6 3e
       0.46543032 0.1009758 0.07204187 0.4495075
000040 e7 1f 76 be 08 43 0c bf 9c ed bf 3e f8 00 48 3e
       -0.24035607 -0.5478978 0.3748597 0.1953162

net.layer_1.weight f4 [20, 20]
000000 3c a2 19 be 5b c5 85 bd 3b 6a 61 be a1 46 32 bc
       -0.15003294 -0.06531783 -0.2201318 -0.010881097
000010 7e 9c 6a 3e 52 ae 5b 3d ee 06 76 3e 7f 59 c8 3c
       0.2291126 0.05363304 0.24026081 0.024456738
000020 fd 81 bc bc 4a e9 3d be 94 42 58 bc 38 b8 5b 3e
       -0.023011202 -0.18546024 -0.013199467 0.21456993
000030 85 4c 0e bd 5b 4c 3c 3e 7e 98 45 3b f3 39 6f bd
       -0.034740943 0.18388502 0.0030150707 -0.058404874
000040 8a 6a 28 be 5d 3f 2f 3e fd e7 3d bd 1d f0 f3 3d
       -0.16446891 0.17114015 -0.04636382 0.11911032
000050 c2 36 6a be 19 3d 54 3e e7 47 11 3e 8a d3 83 bc
       -0.22872451 0.20726432 0.14187585 -0.01609208
000060 b2 c6 46 3d 6f 99 c6 3d 81 d8 64 be d2 57 35 3e
       0.048529334 0.09697234 -0.22348215 0.17709282
000070 5a c7 bb bd 24 3d 11 be e0 6a 2b 3e e1 c7 0e 3e
       -0.09168883 -0.1418348 0.16739988 0.13943435
000080 09 63 b4 bd 13 fb c3 bc d9 5e c8 3d b2 6e 53 be
       -0.08807952 -0.023923432 0.09783716 -0.20647696
000090 2c 48 cc bd d0 af c9 bd ff 78 85 bd b1 b1 35 bd
       -0.09974703 -0.09847987 -0.06517219 -0.044358913
0000a0 25 b6 98 bd 67 f1 c7 3d a5 00 84 be 4d 6d a6 bd
       -0.07456616 0.09762841 -0.25781742 -0.08126316
0000b0 08 87 32 bd cd d8 e5 bd 45 fa 45 3d 83 26 98 3d
       -0.043585807 -0.11222992 0.04833438 0.074292205
0000c0 60 ad 9f bd c8 87 6c 3d cf 50 11 3e fb 30 cb bd
       -0.077967405 0.05774668 0.14190982 -0.09921452
0000d0 c8 92 1e 3e d8 60 9d bd 7d 1f b9 bc 30 7d 1c 3e
       0.1548568 -0.07684487 -0.022598023 0.1528213
0000e0 71 0c 45 3e d4 e7 9a bd 2e c0 12 bc 79 fe 95 3d
       0.19243027 -0.07563749 -0.008956952 0.073239274
0000f0 4f be a8 bf ce 29 76 3f e2 66 97 bf fd 96 a5 3f
       -1.3183078 0.9615754 -1.1828272 1.2936703
000100 09 dc bf 3f 01 45 cc 3f 82 2b 0e 3e 82 22 cb bf
       1.4989024 1.5958558 0.13883784 -1.5869906
000110 bf 0b f9 3e 26 64 3c 3f 6c 32 cf be d6 f0 7c 3f
       0.48641774 0.73590314 -0.40468156 0.98804986
000120 23 de 15 3f 73 77 98 bf b1 aa be bf 6b 71 01 3f
       0.5854208 -1.1911453 -1.4895841 0.5056369
000130 b8 d0 ac 3f 65 99 b3 3e 94 7b 9b bf bf 33 8a 3f
       1.3501196 0.35077968 -1.2147088 1.0797042
000140 6d 3f 3b 3e 35 ab 35 3d 21 68 35 be 71 a1 62 bd
       0.18285914 0.04435273 -0.17715503 -0.055329744
000150 ec b9 15 3e fc 4b 7b 3c 5f 63 78 bd a9 11 31 3e
       0.14621705 0.01533794 -0.060641643 0.17291893
000160 d6 c1 95 bc e9 cf 19 be c9 f3 1f bd ab 4e 42 be
       -0.018280905 -0.15020718 -0.03905085 -0.18975322
000170 1c 9c 61 3e 32 3f e5 3c 44 c6 d5 bc c5 ef 21 ba
       0.22032207 0.027984235 -0.026095517 -0.0006177391
000180 a5 62 c7 3d 15 d6 f6 3d 17 58 b5 3d ad cd 08 be
       0.09735612 0.12052552 0.088546924 -0.13359709
000190 cb 73 a3 be 79 c6 84 bd b6 96 97 be 14 57 17 3e
       -0.3192428 -0.06483168 -0.2960717 0.14779311
0001a0 f9 d1 aa 3e f4 31 ac 3e b4 d1 02 3d a7 6a ac be
       0.3336332 0.3363186 0.03193827 -0.3367512
0001b0 a4 0c fb bc 3f 3a 9a 3e 73 57 74 3d 13 1a 16 3e
       -0.030645676 0.30122563 0.05965371 0.14658384
0001c0 57 d3 8f bd 96 16 c6 be 56 d2 f6 be b4 ed 06 be
       -0.07022732 -0.38689107 -0.4820735 -0.13176614
0001d0 5a 62 b6 3e 2d c0 78 be 86 88 43 be a6 09 42 3e
       0.3562191 -0.24292059 -0.19095048 0.18948993
0001e0 ec 32 5f 3d e4 56 90 3c c5 89 f8 bd 7e 39 df 3c
       0.054491922 0.017619558 -0.121356525 0.027249094
0001f0 1c 75 47 3e fa 8d 46 be e8 09 cc 3d f9 37 02 3e
       0.19478267 -0.19390097 0.09962827 0.12716664
000200 63 c9 54 bc 98 ae 24 be 69 f5 52 3e e2 89 12 be
       -0.012987467 -0.16082227 0.20601429 -0.1431041
000210 61 51 ad 3d 68 9f 83 be b6 8c 55 3e 17 fe ad 3d
       0.084627874 -0.25707555 0.20854458 0.084957294
000220 fa 8e c4 bc 81 e7 0a bd 14 01 05 be cc 4e 32 3e
       -0.023993958 -0.033912186 -0.12988693 0.17412871
000230 e1 8b 22 3d ed 0c 7b be bb c1 9b 3e d1 68 b6 bd
       0.03968418 -0.2451665 0.30421242 -0.08906711
000240 6a 9b 92 be b4 8d b2 be 88 58 c0 bd dd 9b d4 bd
       -0.28634197 -0.34873736 -0.09391886 -0.10381291
000250 84 fb 2f be b2 b5 07 be f1 ed 19 be 1d 20 0f be
       -0.1718579 -0.13252905 -0.15032174 -0.13977094
000260 3c 7d 26 be 75 22 8f 3e b4 cf a1 bd 4f 1e 45 3e
       -0.1625871 0.27955976 -0.07900944 0.19249843
000270 0b 6a a7 bd 7f 76 0b be 17 e1 7b bc a5 a0 47 3e
       -0.08174523 -0.13619421 -0.01537349 0.19494875
000280 77 8e a1 3d dd 12 ad bd c0 74 93 3d 30 44 e1 bc
       0.07888501 -0.084508635 0.07200003 -0.027498335
000290 41 d3 e8 3c 77 92 b1 3c 6c 5c f7 bd 59 30 f8 3d
       0.028421046 0.021676285 -0.12078175 0.121185966
0002a0 17 e7 37 be 7f ec 21 be 5d 28 81 bd 92 8e 38 be
       -0.17959248 -0.15812872 -0.06306527 -0.18023136
0002b0 68 79 01 bd 4b 60 81 3e a1 f3 72 bc f4 13 63 3e
       -0.031609923 0.25268778 -0.0148285935 0.2217558
0002c0 da 69 4d be 8d 79 37 be 9d 8b 37 bd 56 80 26 be
       -0.2005991 -0.17917462 -0.04481088 -0.16259894
0002d0 9b f5 f9 bc a3 b2 53 be 9a 00 58 3e ac b6 16 3d
       -0.030512622 -0.20673613 0.2109398 0.036795303
0002e0 1d 7b 33 be db d5 04 be 7a a3 40 3e 00 0c 7e bd
       -0.17527433 -0.12972204 0.18812361 -0.062023163
0002f0 fc 5d 41 be 85 af 9c bd d2 6e c6 3d 37 4e ef 3d
       -0.18883508 -0.07650665 0.09689106 0.1168484
000300 6c 65 51 bd 17 4e 89 3d eb 26 dc bd c3 f2 b1 bd
       -0.051122114 0.067043476 -0.107496105 -0.08688881
000310 c9 31 33 bb 87 b3 89 3d 5d 8c 06 3e 82 b9 83 bd
       -0.0027342907 0.06723695 0.13139482 -0.06431867
000320 b4 7e 0e be 49 9c 89 3d 15 7b 3d be 4c 88 3e be
       -0.13915521 0.06719262 -0.18503983 -0.1860668
000330 38 d2 17 3e 02 6f a4 3c dc b3 db 3d 56 40 58 be
       0.14826286 0.020072464 0.10727665 -0.21118292
000340 f0 25 cc 3d ba 5a eb 3c 24 ca df bd 80 f1 06 bd
       0.099681735 0.028729785 -0.10927227 -0.032945156
000350 ed ff 15 3e 0c 11 63 3d d3 9b ff 3d 56 43 63 bd
       0.14648409 0.05543618 0.12480893 -0.05548414
000360 c6 4c 28 3d 33 ab 4b be 6e 7e e4 3d 09 75 0b 3d
       0.04108884 -0.19889526 0.11156927 0.03404716
000370 91 98 68 3e e9 6c ab 3c 03 ea 4f be 65 41 5a 3e
       0.2271445 0.020925956 -0.20304112 0.21314009
000380 7f a1 d6 3d bb 91 6f be fc e3 09 3e 34 ef b3 3d
       0.10480022 -0.23395436 0.13465875 0.08785859
000390 2a d2 73 3e ce 33 23 3e 12 af 1d 3d e4 0c eb bd
       0.2381064 0.1593773 0.03849704 -0.11477068
0003a0 65 99 0b bd 6a c3 d0 bd 32 38 59 bd 69 0d 81 3e
       -0.034081835 -0.10193522 -0.053032108 0.25205544
0003b0 b7 40 7d 3d 82 01 91 bb fa 35 2a bd 9e dd 48 3e
       0.061829295 -0.0044252286 -0.041555382 0.1961579
0003c0 de ca 63 bd f8 33 ca bd 1b 9e 8e be 5a 4d 29 3e
       -0.05561339 -0.098731935 -0.27855 0.16533414
0003d0 c3 a5 27 3e 54 f1 8e 3e 60 d9 d6 3d a6 f6 06 be
       0.16371827 0.27918494 0.1049068 -0.13180026
0003e0 48 0b 38 be cb 4f 6f 3d d9 95 33 3e ca 69 73 3c
       -0.17973053 0.058425706 0.17537631 0.014856765
0003f0 58 ec 6f bc ca 47 1e be 4b bd 8d 3d 34 b0 ed 3d
       -0.014643751 -0.15457073 0.069208704 0.11605874

net.layer_1.bias f4 [20]
000000 27 17 e4 3d 63 72 3d bd 86 cf 1e be d6 ec 94 3e
       0.111372285 -0.046251666 -0.15508851 0.2908694
000010 67 44 ab bd 38 8c 89 3d 94 b2 ce 3c 3c 7a ff bc
       -0.08362656 0.06716198 0.025231637 -0.031186216
000020 c8 bf ff bd 3a ae 0c 3e f1 1d 7f 3e 4c 76 ec 3b
       -0.12487751 0.13738337 0.24913765 0.0072162505
000030 a5 71 31 3e 25 ad 82 3e 28 89 39 3e 76 72 8e 3c
       0.17328508 0.25522724 0.18118727 0.017388564
000040 3d 7a 28 3e 2c e5 79 3e 51 69 8a 3e 03 40 40 be
       0.1645288 0.24403828 0.27033475 -0.18774419

net.output.weight f4 [1, 20]
000000 d0 74 8d 3c 99 e2 28 be e9 89 a8 3c 2f ac ee 3e
       0.017267615 -0.1649269 0.020573573 0.4661574
000010 97 e0 3a 3e 75 89 6b 3d 27 4c 51 3e c0 00 c2 3d
       0.18249737 0.057504136 0.20439206 0.09472799
000020 7c 22 02 3e c1 d5 a4 bd c5 3c 4d 3e 56 99 02 3e
       0.12708467 -0.08048583 0.20042713 0.12753806
000030 09 d7 bf bd 21 17 dd 3c c0 78 96 3d 76 0f 07 3e
       -0.093671866 0.026988568 0.0734725 0.13189492
000040 cd 21 4c 3e 22 4c 0b 3e f7 f6 d5 3d cb 75 7e be
       0.19934769 0.13603261 0.104474954 -0.24849622
