burgers/nu-0/sin_N_C100000_nu0.008.pth (torch, 24768 bytes, 7 tensors)

net.layer_0.weight f4 [50, 2]
0	0x3f28d7e2	0.6595441
1	0xbee32e2e	-0.4437117
2	0xbf2a9960	-0.6664028
3	0xbf4f465b	-0.8096673
4	0x3f12fe5d	0.5741938
5	0x3ebdc57d	0.37064734
6	0xbec24600	-0.3794403
7	0x3e914a77	0.28377125
8	0x3eeed143	0.4664403
9	0x3fe56a13	1.7922996
10	0x3f380480	0.71881866
11	0x3e739885	0.2378865
12	0x3f157a8e	0.5839013
13	0x3e879736	0.26482552
14	0x3f977bbd	1.1834637
15	0xbf1d21d6	-0.61379755
16	0xbf135609	-0.57553154
17	0x3e63c01c	0.22241253
18	0xbf28b02a	-0.65893805
19	0xbe17f4e8	-0.14839518
20	0xbff9b1e9	-1.9507419
21	0xbd48ac6c	-0.04899256
22	0xbdcdaca7	-0.100426964
23	0xbd47fdbe	-0.04882597
24	0xbff7b3ca	-1.9351742
25	0x3e8d0f6c	0.27550828
26	0xbecfd5c4	-0.40592778
27	0x3e235862	0.15951684
28	0x3f02c758	0.51085424
29	0xbf5f3d27	-0.87202686
30	0xbbf256b8	-0.0073955916
31	0xbd172b12	-0.03690631
32	0xbf039fb3	-0.51415557
33	0x3edf62c6	0.43630046
34	0x3eaaf92b	0.33393225
35	0x3dafca9e	0.08583568
36	0x3f9efda2	1.2421153
37	0x3eb331d6	0.3499896
38	0xbed19973	-0.40937385
39	0x3d8bfb6c	0.06835064
40	0x3fd9702d	1.6987358
41	0x3e894afd	0.26815024
42	0xbe6aee1b	-0.22942393
43	0x3f95cb2f	1.1702632
44	0x400e9556	2.2278647
45	0xbe93af01	-0.28844455
46	0xbf790399	-0.97271115
47	0x3e07e301	0.13270189
48	0xbc90e979	-0.017689453
49	0xbfe7a48f	-1.8097094
50	0x3f4a6311	0.79057413
51	0x3f2ae6c4	0.6675837
52	0x3f6edca8	0.93305445
53	0x3e71167e	0.23543736
54	0x3f72261d	0.94589406
55	0xbe645f23	-0.22301917
56	0x3d561ae7	0.05227175
57	0x3f22e25c	0.63626647
58	0xbeb962e2	-0.36208254
59	0x3f71c695	0.9444364
60	0xbf4e2622	-0.80526936
61	0xbf2cac12	-0.6745006
62	0x3ec610ab	0.38684592
63	0xbf554a8d	-0.8331688
64	0xbf36ace0	-0.71357536
65	0x3f1fbcac	0.62397265
66	0x3f4ad792	0.79235184
67	0x3f58232d	0.84428674
68	0xbe9b005e	-0.30273718
69	0x3ee5e1eb	0.44898924
70	0xbf111b44	-0.5668223
71	0x3ddc6378	0.1076116
72	0x3ea4b519	0.32169417
73	0xbf44ccd7	-0.7687506
74	0x3f839aa0	1.0281563
75	0x3efcbf8e	0.49364895
76	0x3d26e55a	0.04074607
77	0xbf8bea57	-1.093089
78	0x3faeb2f6	1.3648365
79	0x3f07a496	0.52985513
80	0xbf36277d	-0.71154004
81	0xbe61a276	-0.2203463
82	0x3e64e054	0.223512
83	0xbe689ea2	-0.22716764
84	0x3f39fe0c	0.7265327
85	0xbf0dec22	-0.55438435
86	0xbf32da8f	-0.69864744
87	0xbe1cc589	-0.15309729
88	0x3f24b8a5	0.64344245
89	0xbe4db18b	-0.20087259
90	0xbfe972bc	-1.8238139
91	0x3ea9455e	0.33060735
92	0x3fffb757	1.9977826
93	0xbf0cf3a7	-0.55059284
94	0xbf00b22d	-0.50271875
95	0xbf313212	-0.69217026
96	0x3f6b797f	0.91982263
97	0xbe3212e1	-0.17390014
98	0x3eba9ac7	0.3644621
99	0x3e4cf700	0.20016098

net.layer_0.bias f4 [50]
0	0x3f26bfb8	0.6513629
1	0xbf149f63	-0.58055705
2	0xbf3d5936	-0.7396425
3	0xbd3d2463	-0.04617728
4	0xbe82e1c3	-0.25562868
5	0xbf200cad	-0.6251934
6	0xbec6af27	-0.38805506
7	0x3ef443fe	0.47708124
8	0xbea00c3f	-0.31259343
9	0x3f171b3a	0.5902592
10	0x3ca14a90	0.019688874
11	0xbe3bce3e	-0.18340394
12	0xbeb167a9	-0.346494
13	0xbf47f156	-0.78102624
14	0xbf1fa112	-0.6235515
15	0x3f052933	0.5201599
16	0xbf24437c	-0.64165473
17	0x3e579dac	0.21056241
18	0xbe0d0318	-0.13770711
19	0xbf078653	-0.5293934
20	0xbe2e7ba5	-0.17039354
21	0x3e065159	0.13116969
22	0x3e989ad2	0.2980562
23	0xbe9b5e0d	-0.30345193
24	0x3e0771cb	0.13227002
25	0xbf0cdf92	-0.5502864
26	0xbf24b021	-0.6433125
27	0xbda4375d	-0.08018372
28	0xbebecd0c	-0.37265813
29	0x3ed2d92a	0.41181308
30	0xbf61e3ae	-0.88238037
31	0xbe98cbcc	-0.29842985
32	0xbecbd42c	-0.39810312
33	0xbf1cd21a	-0.6125809
34	0xbf48e3b2	-0.78472435
35	0xbecf84cc	-0.40531003
36	0xbe9557ed	-0.29168645
37	0xbf4659ea	-0.7748095
38	0x3dbb2de1	0.0913961
39	0xbf226506	-0.634354
40	0x3f2d6765	0.6773589
41	0xbe629735	-0.22127993
42	0xbdc7b048	-0.0975042
43	0xbf27a82a	-0.65490973
44	0x3e60834d	0.21925087
45	0xbec353e7	-0.3814995
46	0x3f20346c	0.6257999
47	0xbf0ec358	-0.5576682
48	0x3f2e2c68	0.6803651
49	0xbe896d53	-0.2684122

net.layer_1.weight f4 [50, 50]
0	0xbdc51f68	-0.09625131
1	0xbe101828	-0.14071715
2	0x3e2de908	0.16983426
3	0xbdb716dc	-0.08939907
4	0x3e14cfe4	0.14532429
5	0x3ba7ac1c	0.0051169526
6	0x3e52196d	0.20517512
7	0xbaafa710	-0.0013401229
8	0x3cad7821	0.021175446
9	0xbe1b0b41	-0.15141012
10	0xbe227aba	-0.15867129
11	0xbd922913	-0.071367405
12	0x3ceb9426	0.028757166
13	0xbd4f7b4e	-0.050654702
14	0x3e13a514	0.14418441
15	0x3dcd6575	0.10029117
16	0xbdca0c81	-0.09865666
17	0x3e0fd397	0.14045559
18	0xbd2cada7	-0.042157795
19	0xb971b09d	-0.00023049345
20	0xbc998875	-0.018741826
21	0xbd272dc1	-0.04081512
22	0xbd85c4b0	-0.06531656
23	0xbe330891	-0.17483737
24	0xbdfe5a61	-0.12419582
25	0x3df95223	0.121738695
26	0xbb4cf846	-0.0031275912
27	0xbdb9f523	-0.09079959
28	0x3daad0d4	0.08340612
29	0xbdda4361	-0.10657383
30	0xbddc7613	-0.10764708
31	0x3e342b1b	0.17594568
32	0x3cef9a7a	0.029248465
33	0x3dd679ca	0.10472448
34	0x3dc8cebb	0.09805056
35	0x3daa1c32	0.08306159
36	0x3d79ac88	0.060955554
37	0x3e8e451e	0.27787107
38	0xbd9a82a7	-0.07544451
39	0x3eadfd74	0.33982432
40	0xbe6d34f3	-0.2316473
41	0xbd01dc3b	-0.03170417
42	0xbda2a134	-0.07940903
43	0xbe125638	-0.14290702
44	0xbd81fbc4	-0.063468486
45	0x3d3dc199	0.046327207
46	0xbdbb2562	-0.091379896
47	0x3d04de32	0.032438464
48	0xbd8aac96	-0.067711994
49	0x3e25ce5d	0.16192003
50	0xbe675831	-0.22592236
51	0x3e24a57f	0.16078757
52	0x3ebd8059	0.37011984
53	0xbf08f780	-0.53502655
54	0x3c4182a3	0.011810931
55	0x3f72cec2	0.9484674
56	0x3e97eb4b	0.29671702
57	0xbe885371	-0.2662616
58	0x3db0dd46	0.086359546
59	0xbf79d5b7	-0.9759173
60	0xbc22ab02	-0.009928467
61	0x3e793bd3	0.24339227
62	0x3c676648	0.014123507
63	0x3d17f9e8	0.037103564
64	0x3ee2a92b	0.4426969
65	0xbe9de870	-0.30841398
66	0xbc5b8fec	-0.013401013
67	0xbd930290	-0.07178223
68	0x3e0748c8	0.13211358
69	0x3b84e9e7	0.0040562036
70	0xbcb06dc8	-0.021536723
71	0xbee55fef	-0.44799754
72	0x3c9385c4	0.01800812
73	0x3dc3ca4b	0.09560069
74	0x3eba8dbf	0.3643627
75	0x3e9b0a25	0.30281177
76	0x3f505898	0.81385183
77	0x3c6905ec	0.014222603
78	0xbe4657dd	-0.19369455
79	0xbf19c8d2	-0.6007205
80	0x3e392844	0.18081766
81	0x3ec390fc	0.38196552
82	0x3d78fb36	0.06078645
83	0x3e67990b	0.22616975
84	0x3eaaea0d	0.33381692
85	0x3dc8ef70	0.09811294
86	0x3f017ddb	0.50582665
87	0x3f252801	0.64514166
88	0x3ed047b1	0.40679696
89	0x3eb4ee2c	0.3533796
90	0xbf920055	-1.1406351
91	0x3ef0cf4f	0.47033164
92	0x3f23b610	0.6394968
93	0x3e402416	0.18763766
94	0xbafa8f7e	-0.001911625
95	0x3be46775	0.006970341
96	0xbd84aab3	-0.06477871
97	0x3e8382aa	0.25685626
98	0xbd943431	-0.07236517
99	0x3ef193db	0.47183117
100	0x3ca08ce5	0.019598434
101	0xbe02ae31	-0.12761761
102	0xbb7ae4eb	-0.0038283418
103	0x3d1d468a	0.03839735
104	0x3d78b427	0.06071868
105	0x3dbcd87c	0.092209786
106	0x3c74c641	0.014939846
107	0x3cf385a0	0.029726803
108	0x3d9ed17b	0.07754799
109	0xbd819674	-0.06327525
110	0xbdd98624	-0.106212884
111	0x3dcccb39	0.09999699
112	0xbe1a0c2c	-0.15043706
113	0xbc97c93e	-0.018528577
114	0x3df3dae3	0.11906984
115	0xbda5f0f5	-0.081025995
116	0xbdf9faf7	-0.12206071
117	0x3d573ef9	0.05255029
118	0x3e5aa1a9	0.21350731
119	0xbb20ba55	-0.0024525125
120	0x3df03a33	0.117298506
121	0xbdfbf728	-0.12303001
122	0x3dcba848	0.099442065
123	0xbe03a459	-0.12855662
124	0x3de2d548	0.110758364
125	0x3dcbcf70	0.09951675
126	0xbd8f4988	-0.06996447
127	0xbd94221c	-0.07233068
128	0xbd0df4ca	-0.034657277
129	0xbd44e28e	-0.048067622
130	0x3cbb53d6	0.022867125
131	0xbbea56e8	-0.0071514733
132	0xbd5f0a7f	-0.05445337
133	0xbdabaec5	-0.08382944
134	0x3e0432e8	0.12910044
135	0xbd801a0b	-0.06254967
136	0x3dbbfd74	0.09179202
137	0xbd95c9bb	-0.07313868
138	0xbdb976cc	-0.09055862
139	0x3e123b76	0.14280495
140	0xbd018789	-0.031623397
141	0x3d7aa343	0.061190855
142	0xbd846b3f	-0.06465768
143	0xbd8e0c7e	-0.069359764
144	0x3dd557b5	0.104171194
145	0xbe015979	-0.12631787
146	0x3dd92b0b	0.10603913
147	0x3ddb18b8	0.10698074
148	0x3d8ae6d9	0.06782312
149	0xbc4c1698	-0.012456559
150	0x3ed2117b	0.41028962
151	0x3d845047	0.06460624
152	0xbe75c18d	-0.23999615
153	0xbe259811	-0.1617129
154	0xbe6f401d	-0.23364301
155	0x3e0d4c95	0.13798745
156	0x3bc9ba4f	0.006156243
157	0x3def7184	0.11691573
158	0xbe9a3c3e	-0.30124086
159	0xbd961f57	-0.07330196
160	0xbdeb0ee7	-0.11477452
161	0xbd514dbd	-0.051099528
162	0xbe0558aa	-0.13022104
163	0xbde4de3b	-0.111751996
164	0x3d90bea6	0.07067613
165	0x3e5eac21	0.2174535
166	0xbef9d038	-0.4879167
167	0xbc7c2540	-0.0153897405
168	0xbccfd3bc	-0.025369518
169	0xbe78a217	-0.24280582
170	0x3d86b071	0.06576622
171	0xbdf01081	-0.11721898
172	0x3e8fe630	0.28105307
173	0xbedb7fc6	-0.4287092
174	0x3e3f1be9	0.1866299
175	0xbe380cd9	-0.17973651
176	0x3e2eec8b	0.17082421
177	0x3e36d6d3	0.17855386
178	0xbd8fbab5	-0.070180334
179	0xbd0b311d	-0.033982385
180	0xbdc69565	-0.096964635
181	0x3e2b6ffb	0.16741936
182	0xbdaaead9	-0.08345575
183	0xbdddcf44	-0.108305484
184	0xbedd344d	-0.43203965
185	0xbed1c2d2	-0.4096895
186	0xbd501d19	-0.050809
187	0x3dc99c24	0.098442346
188	0x3d23c74d	0.03998499
189	0xbcac1959	-0.02100818
190	0xbdaf24e4	-0.08551958
191	0x3c6019e7	0.013678051
192	0x3e4e63c9	0.20155253
193	0xbe7b1891	-0.2452109
194	0x3e813582	0.25236136
195	0xbee06a4d	-0.438311
196	0x3e84c9b5	0.2593514
197	0x3ddbcb3c	0.10732123
198	0x3ee56d81	0.44810107
199	0xbe3d964e	-0.18514368
200	0x3c63dbfc	0.013907429
201	0x3e6579c4	0.22409731
202	0xbb5378d7	-0.003226807
203	0x3db9a851	0.09065307
204	0xbe38351f	-0.17989014
205	0x3d50e6e5	0.05100145
206	0xbe134388	-0.1438123
207	0x39aae774	0.00032597373
208	0x3d116dfc	0.03550528
209	0x3dc02e3f	0.09383821
210	0x3acb85c2	0.0015527534
211	0x3d345a19	0.044031236
212	0x3c85fcf2	0.016355965
213	0xbdbcef0b	-0.09225281
214	0x3dd31894	0.10307422
215	0x3db3c69f	0.08778118
216	0xbdf2f022	-0.11862208
217	0xbe45702d	-0.19281073
218	0xbe44091b	-0.19144098
219	0x3d159654	0.036520317
220	0xbe01337d	-0.12617297
221	0x3be417e5	0.0069608563
222	0x3e2a7cc7	0.16649161
223	0xbdb77dec	-0.089595646
224	0x3e119eaa	0.14220682
225	0x3b8601c5	0.0040895664
226	0xbe0b2d3d	-0.13591476
227	0x3e2f12d9	0.17097034
228	0xbd69bf39	-0.05706713
229	0xbd4ad7ef	-0.049522337
230	0x3da04382	0.07825376
231	0x3d2d9a6c	0.042383596
232	0xbdf46bfc	-0.11934659
233	0xbe3bfb1a	-0.18357506
234	0xbe1b090d	-0.15140171
235	0x3c26f871	0.010191069
236	0xbd97cbd7	-0.07411926
237	0xbdb56204	-0.088565856
238	0x3b6bd7e4	0.0035986835
239	0xbe110eb9	-0.14165772
240	0xbdc253a0	-0.094886065
241	0xbd803a8a	-0.062611654
242	0xbd9d7b1d	-0.076894976
243	0xbdd03689	-0.10166652
244	0x3c72ffe1	0.014831514
245	0x3a2a408b	0.0006494603
246	0x3e48b7bb	0.19601338
247	0x3dea1de5	0.11431483
248	0x3dfb1bb2	0.12261142
249	0x3d15ad54	0.03654225
250	0x3da2fd84	0.079585105
251	0xbe278e17	-0.16362797
252	0xbe8c766a	-0.27434093
253	0x3d0c56fa	0.034262635
254	0xbddfcbe0	-0.10927558
255	0xbe99642a	-0.29959232

net.layer_1.bias f4 [50]
0	0x3d4504ac	0.04810016
1	0xbe71f90d	-0.23630162
2	0x3dd46ebe	0.10372685
3	0x3e3a3483	0.18184094
4	0xbe09cf00	-0.1345787
5	0x3d0a45b5	0.033757884
6	0x3e70b16e	0.23505184
7	0xbce9f2d7	-0.028558178
8	0x3dc1b4a2	0.09458281
9	0x3dfd1264	0.12357023
10	0xbd8c6096	-0.0685436
11	0x3df14bc0	0.11782026
12	0xbe800c64	-0.25009453
13	0x3de9a3df	0.11408209
14	0x3dbba3f1	0.09162129
15	0xbe04e2fc	-0.12977213
16	0x3d893384	0.06699279
17	0x3de725e4	0.11286524
18	0x3ce02572	0.027361605
19	0x3d582425	0.052768845
20	0x3e0e83c5	0.13917454
21	0x3d0e1187	0.034684684
22	0xbe60dd44	-0.21959406
23	0xbe02f8b1	-0.1279018
24	0xbe5649a3	-0.20926528
25	0x3ca7ce7c	0.020484202
26	0xbdad34a6	-0.084573075
27	0xbd7d86ad	-0.061896015
28	0x3e1735ac	0.14766568
29	0x3bf2a101	0.007404447
30	0xbe03b19c	-0.12860721
31	0x3d65f719	0.056143854
32	0xbde18c1f	-0.11013054
33	0xbe1e913c	-0.1548509
34	0xbd32b550	-0.043629944
35	0x3dbff1bc	0.09372279
36	0xbe0412ac	-0.12897748
37	0x3cefbd71	0.029265137
38	0x3ec271ff	0.37977597
39	0x3e082420	0.1329503
40	0xbd8e20d0	-0.06939852
41	0xbd58091d	-0.052743066
42	0xbdcdd147	-0.10049682
43	0xbea044c7	-0.31302473
44	0x3c1b7b59	0.009489858
45	0xbb43cec1	-0.0029877874
46	0xbcc5487f	-0.02408242
47	0x3d910f0a	0.070829466
48	0xbd8be91a	-0.0683157
49	0xbd3d97fe	-0.04628753

net.layer_2.weight f4 [50, 50]
0	0x3c92c2c1	0.017915132
1	0x3da6db09	0.081472464
2	0xbd23be68	-0.039976507
3	0xbe1bcb96	-0.1521438
4	0x3cee802d	0.029113853
5	0x3dac1f4b	0.08404406
6	0xbdcd2a45	-0.10017828
7	0x3dfdca29	0.123920746
8	0x3d9c534a	0.07633074
9	0x3c8f9eb0	0.017531723
10	0x3d2f7134	0.04283257
11	0x3dcb2210	0.09918606
12	0xbd887ce1	-0.06664444
13	0x3d851bea	0.06499465
14	0xbd021c02	-0.03176499
15	0xbd96f1a1	-0.07370306
16	0xbdfd6290	-0.12372315
17	0xbd57763a	-0.052602984
18	0xbd5e0c85	-0.05421116
19	0x3dfb6674	0.12275401
20	0x3e499781	0.196867
21	0x3e220863	0.15823512
22	0x3da388be	0.07985066
23	0x3c94b318	0.018151805
24	0xbcab3444	-0.020898946
25	0xbe11408e	-0.14184782
26	0xbdad96d9	-0.084760375
27	0xbb4fefa4	-0.003172853
28	0xbdd2d211	-0.10293973
29	0x3c02c6e1	0.007981987
30	0xbd605395	-0.05476721
31	0xbbbaa9d2	-0.0056965137
32	0xbddd61c1	-0.10809661
33	0x3dfedd06	0.124445006
34	0xbdebe827	-0.11518889
35	0x3ba30a15	0.004975567
36	0x3e17269d	0.14760824
37	0x3d918aad	0.071065284
38	0xbdfb6e1a	-0.122768596
39	0xbdac99f4	-0.08427802
40	0xbd7257cd	-0.059165765
41	0x3bc0728d	0.0058730305
42	0x3df47dd0	0.11938059
43	0xbd84916c	-0.064730495
44	0xbda89330	-0.08231199
45	0x3e06a613	0.1314929
46	0xbd00a33e	-0.03140568
47	0x3d1f3858	0.038872093
48	0x3e05033a	0.12989512
49	0xbd6812f1	-0.05665869
50	0xbdf434c0	-0.11924124
51	0x3cc2bed3	0.023772633
52	0xbd2b2eae	-0.041792564
53	0x3d227322	0.03966058
54	0x3d6a7fcb	0.05725078
55	0xbdd0d77a	-0.10197349
56	0xbd852f46	-0.06503157
57	0xbe1140e9	-0.14184918
58	0xbc0072b8	-0.007839851
59	0xbe015f3b	-0.12633984
60	0xbd7e2106	-0.062043212
61	0xbcdc0d75	-0.026861886
62	0x3d0cfe31	0.034422103
63	0xbcfd4b84	-0.030919798
64	0x3cdffc38	0.027341947
65	0x3d9afc3d	0.07567642
66	0xbe035117	-0.12823902
67	0xbc8adf26	-0.016952109
68	0xbc72253d	-0.014779386
69	0x3e135286	0.14386949
70	0xbe0ee23c	-0.13953489
71	0xbc8dc0c4	-0.017303832
72	0x3d82effb	0.06393429
73	0x3d462fb6	0.048385344
74	0xbd250c4a	-0.040294923
75	0xbd71b33a	-0.059008814
76	0x3dfc98a4	0.123338014
77	0x3d87f8a9	0.06639225
78	0xbda12a16	-0.078693554
79	0xbcbafdcd	-0.0228261
80	0x3d71c4ca	0.059025563
81	0xbd87b500	-0.0662632
82	0xbdf1f741	-0.11814738
83	0xbe3b7d6a	-0.1830956
84	0x3dd3d075	0.103424944
85	0xbd4d8411	-0.050174776
86	0xbda73f99	-0.08166427
87	0xbd8579e5	-0.0651739
88	0x3d988eec	0.07449135
89	0xbd8cc4b1	-0.068734534
90	0x3dd6b4ce	0.104837045
91	0xbdc24560	-0.094858885
92	0xbc5550e9	-0.013019779
93	0x3d2b075c	0.041755065
94	0xbd2b5379	-0.041827653
95	0xbcd1afce	-0.025596526
96	0x3daadd29	0.08342964
97	0xbd159be7	-0.036525633
98	0x3db731ef	0.08945071
99	0xbd4c0ae7	-0.049815085
100	0x3e1a4448	0.1506511
101	0xbdd351d2	-0.1031834
102	0xbdbea556	-0.09308879
103	0xbe381072	-0.17975023
104	0xbdfe093a	-0.124041036
105	0x3cad2bb0	0.021138996
106	0xbdb88cc9	-0.09011228
107	0x3eebd040	0.4605732
108	0x3df24ac7	0.11830669
109	0xbdd6a881	-0.10481358
110	0xbe0f9287	-0.1402074
111	0xbe6c6029	-0.23083557
112	0x3cfe55e3	0.031046813
113	0xbd5a8592	-0.05335004
114	0xbe999fdd	-0.30004779
115	0x3d1b89c1	0.03797317
116	0xbc9eccef	-0.01938483
117	0x3dad0539	0.08448262
118	0x3e041d79	0.12901868
119	0x3e03b96e	0.12863705
120	0x3eb04008	0.34423852
121	0x3ef6082d	0.48053113
122	0x3e9a54fa	0.30142957
123	0xbca5d39b	-0.020242503
124	0x3d3e6a7f	0.04648828
125	0xbecfc4ea	-0.4057992
126	0xbc3f6f78	-0.011684291
127	0xbd77f39e	-0.060535066
128	0xbe4dbbe2	-0.20091203
129	0x3c7f8dfe	0.015597818
130	0xbd435bc3	-0.047694933
131	0x3db686a5	0.089124
132	0xbe081b46	-0.13291654
133	0x3ddec640	0.10877657
134	0x3dd57126	0.10421972
135	0xbe0882b7	-0.13331114
136	0xbca5e905	-0.020252714
137	0x3e7b11d8	0.24518526
138	0xbf07a1bb	-0.52981156
139	0xbd8561a0	-0.06512761
140	0x3dae5a74	0.08513346
141	0x3e356456	0.17714056
142	0x3db93501	0.09043313
143	0x3ebaf582	0.36515433
144	0x3ccb619a	0.024826813
145	0xbda80b4e	-0.08205281
146	0xbecbb8da	-0.39789468
147	0xbe28d9eb	-0.16489379
148	0x3daf385e	0.08555673
149	0x3d9e9a98	0.0774433
150	0x3d989105	0.07449535
151	0x3dae5c7e	0.08513735
152	0x3de93913	0.11387839
153	0x3d353fcb	0.04425029
154	0xbda1c7e1	-0.07899452
155	0xbc7543a4	-0.01496974
156	0xbceba062	-0.028763
157	0xbdf67ec3	-0.12035897
158	0x3daec180	0.08533001
159	0xbdc60fec	-0.096710056
160	0xbbac4bd4	-0.005258063
161	0x3dd60852	0.10450806
162	0x3c89dbc5	0.016828427
163	0xbde2e365	-0.11078528
164	0x3dec0db3	0.115260504
165	0xbdf6fd7e	-0.120600685
166	0xbd62a302	-0.055331238
167	0x3daaaa00	0.08333206
168	0x3c68ad48	0.01420147
169	0xbe026e99	-0.12737502
170	0x3d366123	0.04452623
171	0xbe077059	-0.13226451
172	0x3d8868dc	0.06660625
173	0x3d8d0462	0.068856016
174	0xbe112ed6	-0.14178023
175	0xbdb0ad33	-0.08626785
176	0x3d9dd3db	0.07706424
177	0x3d9491e1	0.07254387
178	0xbd49847b	-0.04919861
179	0xbbf5ce4d	-0.0075013996
180	0xbe0de6d0	-0.13857579
181	0xbcef5d49	-0.029219287
182	0xbd88da23	-0.06682231
183	0xbe26e1ae	-0.16297027
184	0xbd0dfc5b	-0.034664493
185	0xbe0d6944	-0.13809687
186	0x3c088ccf	0.008334353
187	0x3d1f9c8e	0.03896766
188	0x3d3851c6	0.04499986
189	0xbdcc3bed	-0.099723674
190	0x3d7223d7	0.05911621
191	0xbe05736f	-0.13032316
192	0x3d159daa	0.036527313
193	0x3d1d62f5	0.03842445
194	0xbd376a24	-0.044778958
195	0x3dd89f8e	0.10577308
196	0x3dfd7ce9	0.1237734
197	0xbe405ec8	-0.18786156
198	0xbdb33180	-0.08749676
199	0x3e1714f0	0.14754081
200	0xbdd78d10	-0.105249524
201	0x3df8e8c0	0.121537685
202	0xbd45c3da	-0.04828248
203	0xbcc2f5a0	-0.023798764
204	0x3dcadb5d	0.099051215
205	0xbe3435b5	-0.17598613
206	0x3d468cb8	0.048474044
207	0x3ccf66fb	0.02531766
208	0x3d92eec6	0.07174449
209	0x3d4f2319	0.05057058
210	0x3ddad910	0.10685933
211	0x3e048442	0.12941077
212	0x3cd4c715	0.025973836
213	0x3d7cf849	0.06176022
214	0xbe139807	-0.14413463
215	0xbde7cad7	-0.113179855
216	0xbd3c7a99	-0.046015356
217	0x3e12da12	0.14341
218	0xbdd338dc	-0.103135794
219	0x3d999110	0.074983716
220	0x3c3492b9	0.0110213095
221	0x3d1860a0	0.037201524
222	0xbdf2b55e	-0.11850999
223	0x3e58f7a3	0.21188216
224	0x3cb6a422	0.022295061
225	0x3b13a1a0	0.0022526756
226	0x3dbe6112	0.092958584
227	0xbdd32155	-0.10309092
228	0xbd078369	-0.033084307
229	0x3c51e224	0.012810264
230	0xbd22a8f1	-0.039711896
231	0x3d6bcd43	0.0575688
232	0xbe12332f	-0.14277337
233	0xbd080bb9	-0.033214305
234	0xbde787a3	-0.113051675
235	0x3d95cfc8	0.07315022
236	0x3de2fcf0	0.110834
237	0x3e1805f9	0.14846028
238	0x3d48f2a2	0.049059518
239	0xbde24e4d	-0.11050091
240	0xbdf2fb74	-0.11864367
241	0x3e08b2df	0.13349484
242	0x3dbb16a3	0.09135177
243	0xbe13eb72	-0.14445284
244	0xbce42c6e	-0.027853217
245	0xbdf0c7e4	-0.11756876
246	0x3c8bfc67	0.017088128
247	0xbe1665f6	-0.14687333
248	0xbc5e1dff	-0.013556956
249	0x3dc9efef	0.09860217
250	0xbc2c6989	-0.010523208
251	0xbe08df16	-0.1336635
252	0xbded8d48	-0.11599213
253	0xbdea1126	-0.11429052
254	0xbd8b82f9	-0.068120904
255	0xbd86fd7f	-0.06591319

net.layer_2.bias f4 [50]
0	0xbe09dc86	-0.1346303
1	0x3b2e58a6	0.0026603132
2	0xbda22061	-0.07916332
3	0xbd487ff2	-0.048950143
4	0xbc73337e	-0.01484382
5	0xbda1a500	-0.078927994
6	0xbd84541d	-0.06461356
7	0xbb02da7a	-0.0019966648
8	0xbd210ec2	-0.039320715
9	0x3b763f61	0.0037574398
10	0x3dac5a84	0.08415702
11	0xbd212d7c	-0.039350018
12	0x3ddc1c78	0.107476175
13	0x3cd43b45	0.025907168
14	0xbdba4fc5	-0.09097246
15	0xbd85840b	-0.06519326
16	0x3c80e02b	0.015731892
17	0x3cd2b158	0.02571933
18	0x3e022159	0.12708034
19	0xbd9b1c57	-0.07573765
20	0x3e115036	0.14190754
21	0x3d89c220	0.067264795
22	0x3d325e4a	0.043546952
23	0x3ddfaee2	0.10922028
24	0x3e008952	0.12552384
25	0x3c100b19	0.008791708
26	0x3e1438cc	0.14474791
27	0x3e0fb683	0.14034466
28	0xbd2fa4c6	-0.04288175
29	0xbda9243a	-0.08258863
30	0x3b08b252	0.002085824
31	0xbcc7338f	-0.024316577
32	0x3d58a29d	0.052889455
33	0x3c6fe1a9	0.014641204
34	0x3d642574	0.05569978
35	0x3da2725e	0.0793197
36	0xbd49b94d	-0.049248982
37	0x3d1f4cd6	0.038891636
38	0xbd816709	-0.063184805
39	0xbdf22da8	-0.118251145
40	0xbdc578bd	-0.096421696
41	0x3df74eb0	0.12075555
42	0xbd61c7fd	-0.055122364
43	0xbd4f30fb	-0.05058382
44	0xbdbf1afd	-0.093313195
45	0xbdc1e82a	-0.0946811
46	0x3d0f6620	0.035009503
47	0xbdb7491e	-0.08949493
48	0xbd9060af	-0.07049691
49	0xbcc0fa36	-0.02355681

net.output.weight f4 [1, 50]
0	0xbdebba37	-0.11510127
1	0x3d37e495	0.044895727
2	0xbe6d39bb	-0.23166554
3	0x3dd2e8b3	0.1029829
4	0x3d3a5d1f	0.045498963
5	0xbd848164	-0.06469992
6	0xbddfabac	-0.10921416
7	0xbdd8ec35	-0.10591928
8	0xbe3aa233	-0.18225937
9	0xbc6dea1e	-0.01452115
10	0xbce3cbf4	-0.027807213
11	0xbd5deb9b	-0.05417977
12	0xbc0df896	-0.008665225
13	0x3dd95b50	0.106131196
14	0x3dbfb4c6	0.09360652
15	0xbda98e7b	-0.08279129
16	0xbdfb56ff	-0.122724526
17	0xbe13eabc	-0.14445013
18	0x3dbafedc	0.09130642
19	0xbcab080f	-0.020877866
20	0x3df2f54f	0.11863195
21	0x3f3ca0de	0.73682964
22	0x3e6c8489	0.23097433
23	0xbe22471c	-0.15847439
24	0x3e3a47a0	0.18191385
25	0xbe2b47b3	-0.1672657
26	0x3ccea724	0.025226183
27	0xbadb29bf	-0.0016720815
28	0x3dad3b35	0.084585585
29	0x3ce3ebf6	0.027822476
30	0xbd91b1ea	-0.071140125
31	0x3ded9db2	0.116023436
32	0xbd33fb4c	-0.043940827
33	0xbd3e596a	-0.04647199
34	0x3d36bba4	0.04461254
35	0xbd88870e	-0.06666385
36	0xbd4075b0	-0.046987236
37	0xbe271c93	-0.16319494
38	0xbd68db82	-0.056849964
39	0x3e5c024d	0.21485253
40	0xbd948d4d	-0.072535135
41	0xbd9eb3b0	-0.077491164
42	0xbe98d062	-0.29846483
43	0x3dcabb3b	0.09898993
44	0x3d5c80ec	0.053833887
45	0x3df67f47	0.12035995
46	0x3d5b3aff	0.05352306
47	0xbdcdf585	-0.10056595
48	0x3e1cc74f	0.15310405
49	0x3e091951	0.13388564
