burgers/nu-0/sin_N_C100000_nu0.009.pth (torch, 24768 bytes, 7 tensors)

net.layer_0.weight f4 [50, 2]
0	0x3f080b67	0.531424
1	0xbe80229d	-0.25026408
2	0x3eb1cbba	0.34725744
3	0x3f7b1853	0.9808399
4	0xbebe703a	-0.37194997
5	0x3e54e1d1	0.20789267
6	0x3f909890	1.1296558
7	0x3f2706ea	0.65244925
8	0x3f83ec82	1.0306551
9	0x3f24ed03	0.6442415
10	0xbf14a5c3	-0.5806543
11	0xbe9b239f	-0.30300614
12	0x3f0fd106	0.5617832
13	0x3c58b0e6	0.01322577
14	0x3fc7cb17	1.5608853
15	0x3e0a0c19	0.13481177
16	0xbf0ad5b5	-0.5423234
17	0xbda6ff0c	-0.08154115
18	0xbf5fc488	-0.8740926
19	0xbe7e8f65	-0.24859388
20	0xbf9bbaee	-1.2166421
21	0x3eb2feae	0.3495993
22	0x3f3ee7bd	0.74572355
23	0x3f09f242	0.5388528
24	0xbe3bcfa5	-0.18340929
25	0xbf1cc30e	-0.6123513
26	0xbee74683	-0.45170984
27	0x3f44e733	0.7691528
28	0x3ec9ce06	0.39414996
29	0xbf720cfe	-0.94551075
30	0xbefee146	-0.49781245
31	0xbd817945	-0.063219585
32	0x3fa21d79	1.2665244
33	0x3ebe424a	0.3715995
34	0x3ce4ea84	0.027943857
35	0x3f27047e	0.6524123
36	0xbe84e095	-0.25952592
37	0x3ffad955	1.9597574
38	0x3f1a41ee	0.6025685
39	0xbf263558	-0.64925146
40	0x3f417a99	0.75577694
41	0xbe14ee2b	-0.14543979
42	0x3fa82940	1.3137589
43	0x3ea0b933	0.31391296
44	0xbf38349c	-0.71955276
45	0xbedbf323	-0.42958936
46	0x3f5d5345	0.86455184
47	0xbdae86c1	-0.08521796
48	0x3f706396	0.93901956
49	0x3dc5db89	0.09661014
50	0xbf32d20e	-0.6985177
51	0xbfa8b2fc	-1.3179622
52	0xbe858734	-0.26079714
53	0xbe0b3895	-0.13595803
54	0x3f5b39e3	0.85635203
55	0xbe80291e	-0.2503137
56	0xbf20c6c5	-0.628033
57	0x3e4211f5	0.18952163
58	0xbf2d0329	-0.67582947
59	0x3f3a9ea8	0.7289834
60	0x3f0c06e5	0.5469802
61	0xba9917ac	-0.0011680028
62	0x3fc77d0b	1.5585035
63	0xbe7fb300	-0.24970627
64	0xbf322e5e	-0.69602
65	0xbf11180b	-0.5667731
66	0x3f887aed	1.0662514
67	0x3f0a76aa	0.54087317
68	0x3f376bc5	0.7164882
69	0x3ef65f1c	0.48119438
70	0xbf00ea98	-0.5035796
71	0xbe843771	-0.25823548
72	0x3f028420	0.50982857
73	0x3f2c4d7c	0.6730573
74	0x3f1f3d9e	0.62203395
75	0xbf715bb1	-0.94280535
76	0x3fa2b6c9	1.2712032
77	0x3e09a7a5	0.13442858
78	0x3cd688a5	0.026188204
79	0x3f257de9	0.6464525
80	0xbf924b1d	-1.1429173
81	0x3f17da39	0.59317356
82	0x3f44be49	0.7685285
83	0xbe1b7bbc	-0.1518392
84	0xbf6688e1	-0.9005261
85	0x3f4d5a17	0.8021559
86	0xbf3c5a63	-0.7357542
87	0xbd6f914f	-0.058488186
88	0xbf695a44	-0.9115336
89	0x3f29b3b8	0.66289854
90	0x3f27d7e1	0.6556378
91	0xbf0bf681	-0.5467301
92	0x3f81e090	1.0146656
93	0xbd33bacd	-0.04387932
94	0xbf5e12f9	-0.867477
95	0x3bceb81c	0.0063085686
96	0x3ee678bd	0.4501399
97	0x3e9d3892	0.30707222
98	0xbf2c13f7	-0.67217964
99	0x3efdba83	0.4955636

net.layer_0.bias f4 [50]
0	0xbf0cdc4e	-0.5502366
1	0xbefed28b	-0.49770007
2	0xbf36b993	-0.71376914
3	0xbf3c02be	-0.73441684
4	0xbf30e0a6	-0.69092786
5	0xbf131e4c	-0.57468104
6	0xbe71f566	-0.23628768
7	0xbdd11325	-0.1020873
8	0x3ef37970	0.47553587
9	0x3f056705	0.5211032
10	0xbe44b828	-0.19210875
11	0xbe3ea2e7	-0.1861683
12	0x3e6b816a	0.22998586
13	0x3f3ed2fb	0.7454068
14	0xbe2c4b3c	-0.16825575
15	0x3f33cace	0.7023133
16	0xbee059ab	-0.4381841
17	0xbd5ebd8b	-0.05437998
18	0xbea8e636	-0.32988137
19	0xbecc35d4	-0.39884818
20	0x3f3883a7	0.72075886
21	0xbe5c5de8	-0.21520197
22	0x3ef5eea3	0.48033628
23	0x3f2c8695	0.67392856
24	0xbe09495b	-0.13406889
25	0xbf0494dd	-0.5178965
26	0x3e4b59c0	0.19858456
27	0x3eb40159	0.35157278
28	0xbeeb4fbe	-0.45959276
29	0xbe899482	-0.26871115
30	0x3ec61b9a	0.38692933
31	0x3e92c008	0.28662133
32	0x3f2fd88d	0.68689805
33	0xbf086a10	-0.5328684
34	0xbe2f9d53	-0.17149858
35	0x3f2d8c39	0.6779209
36	0x3f287a88	0.6581197
37	0x3f155da6	0.5834602
38	0xbe689871	-0.22714402
39	0xbe224c64	-0.15849453
40	0xbf4337fb	-0.76257294
41	0xbe8975ab	-0.26847586
42	0x3f46c35c	0.77641845
43	0xbe33f4d2	-0.1757386
44	0xbf2784dd	-0.6543711
45	0xbef3bbea	-0.47604305
46	0x3e05d0e6	0.1306797
47	0xbf35b4c3	-0.70978945
48	0xbe0dcaac	-0.13846844
49	0xbef9699f	-0.48713395

net.layer_1.weight f4 [50, 50]
0	0xbdf4015c	-0.11914322
1	0xbe7b672e	-0.24551079
2	0xbdaf5116	-0.08560388
3	0xbe640273	-0.2226656
4	0xbd95a898	-0.07307547
5	0x3d3772c4	0.044787183
6	0xbd91d10e	-0.07119952
7	0xbd9f2084	-0.07769874
8	0xbd8812b2	-0.06644191
9	0xbd5eb4a2	-0.054371484
10	0xbe73f94d	-0.2382557
11	0xbec10f3a	-0.3770693
12	0x3e9b26ed	0.30303136
13	0xbd26c5ab	-0.040715855
14	0x3e84a36b	0.25905928
15	0xbda0af63	-0.07845952
16	0xbd92adca	-0.07162054
17	0xbea81e89	-0.32835796
18	0xbefff272	-0.4998966
19	0xbd885142	-0.06656124
20	0x3dcdd918	0.10051173
21	0xbe04d19a	-0.12970582
22	0x3e2517c5	0.16122349
23	0x3d21412b	0.03936879
24	0x3d696f21	0.056990746
25	0xbb02ffae	-0.0019988823
26	0x3cf480e9	0.029846625
27	0x3d9b6f41	0.075895794
28	0xbe19e0e5	-0.15027197
29	0xbe83ee40	-0.25767708
30	0xbcc8328a	-0.024438161
31	0x3e4eb245	0.20185192
32	0x3e3f881f	0.1870427
33	0x3c8fa6e3	0.017535632
34	0xbe4381bc	-0.19092458
35	0x3d9e2a84	0.07722953
36	0xbe461512	-0.19343975
37	0x3ebdd8ba	0.37079412
38	0x3d0ef0b3	0.034897517
39	0xbed46959	-0.41486624
40	0xbdc84d75	-0.09780399
41	0xbde65113	-0.112459324
42	0x3cf7fb53	0.030271208
43	0xba37c913	-0.00070108584
44	0xbdaf5925	-0.08561925
45	0x3dbf2a49	0.09334237
46	0xbd25075e	-0.04029023
47	0xbd9b58b5	-0.07585279
48	0xbe42b7be	-0.19015405
49	0xbe4c7589	-0.19966711
50	0xbe07aff6	-0.13250718
51	0x3ae5b349	0.0017524745
52	0x3e1bf278	0.15229213
53	0xbe21cecc	-0.15801543
54	0xbe1cc9e2	-0.15311387
55	0x3d9ba996	0.07600705
56	0xbd492042	-0.04910303
57	0x3cc7a5f6	0.024371129
58	0xbd2f6f10	-0.042830527
59	0x3e259e95	0.16173775
60	0xbdc95a5c	-0.09831688
61	0xbcbe8b56	-0.0232598
62	0xbd751e2a	-0.05984322
63	0xbd9eb4b8	-0.07749313
64	0x3bb1ef80	0.005430162
65	0xbd04374f	-0.03227931
66	0xbdadcdfe	-0.084865555
67	0xbcb5c4bd	-0.022188539
68	0x3ddee6d4	0.10883871
69	0xbd851b2f	-0.064993255
70	0xbe28bfd3	-0.16479425
71	0xbdf4a461	-0.11945415
72	0x3df4cc40	0.1195302
73	0xbbbb58bf	-0.0057173665
74	0x3d5b3f51	0.05352718
75	0x3e036cc9	0.12834467
76	0x3d01ebc3	0.03171898
77	0x3dbe0231	0.09277762
78	0xbbc1c62a	-0.0059135156
79	0x3dc94245	0.09827093
80	0xba46931e	-0.0007575023
81	0x3bcaec38	0.0061927103
82	0xbd1e7f17	-0.03869542
83	0xbd849d90	-0.06475365
84	0x3e0179da	0.12644139
85	0xbdae1b85	-0.08501343
86	0x3c17a661	0.009255976
87	0x3e247acf	0.16062473
88	0x3d9cc26c	0.076542705
89	0xbe0dde9e	-0.13854453
90	0xbdb018c8	-0.08598477
91	0x3d0c02f4	0.034182504
92	0xbe0b8d08	-0.13628018
93	0xbdea4f30	-0.11440885
94	0x3d53963e	0.051656954
95	0x3d8cdbdf	0.068778746
96	0x3c5b66a1	0.013391168
97	0xbdfea935	-0.124346174
98	0xbd9f5b1f	-0.07781052
99	0xbc114d87	-0.008868582
100	0x3e04561e	0.12923476
101	0x3d54afc3	0.051925432
102	0xbcdb2d98	-0.02675514
103	0x3dffd498	0.12491721
104	0x3e15d41d	0.14631696
105	0xbafb8359	-0.0019188925
106	0x3db1828d	0.08667479
107	0xbdcce0d0	-0.10003817
108	0xbae44cd2	-0.0017417914
109	0xbd38f8f9	-0.045159314
110	0x3dfa67cd	0.1222683
111	0x3d9cbeab	0.076535545
112	0xbdb269c0	-0.087115765
113	0x3dc6c1ea	0.09704955
114	0x3de7462b	0.1129268
115	0xbe0aa0d4	-0.13537914
116	0x3d3944d6	0.045231663
117	0x3db6e06d	0.089295246
118	0xbdce52be	-0.100743756
119	0xbd331b76	-0.04372736
120	0x3d0fc0b8	0.0350959
121	0xbdd3ca4d	-0.1034132
122	0xbe27f0a1	-0.16400386
123	0x3dab1fae	0.08355652
124	0xbba06349	-0.004894648
125	0xbe151a62	-0.14560845
126	0xbd9bc84e	-0.076065645
127	0x3dad5e1e	0.08465217
128	0xbe0d5a95	-0.13804086
129	0xbdc68e1e	-0.096950755
130	0xbdebff49	-0.11523301
131	0x3d1b2ad3	0.037882637
132	0xbd01e48d	-0.031712104
133	0x3e30ef03	0.17278676
134	0xbdf4fc7d	-0.11962221
135	0x3df081e7	0.11743527
136	0xbd9b308d	-0.0757762
137	0xbd8c1b20	-0.06841111
138	0x3d1a1063	0.037613284
139	0x3de05f59	0.10955686
140	0xbd472079	-0.048614953
141	0x3d8c0c4b	0.06838282
142	0xbdb276d7	-0.08714073
143	0x3da47a5f	0.08031153
144	0xbdcb1f19	-0.09918041
145	0x3c373c7e	0.011183856
146	0x3c938e21	0.018012108
147	0x3de33c9e	0.11095546
148	0xbd93d169	-0.07217676
149	0xbd1b4f07	-0.037917163
150	0xbcda35f8	-0.026637062
151	0x3e3a6822	0.18203786
152	0x3e2c1243	0.16803841
153	0xbde54ced	-0.11196313
154	0x3d1af0c2	0.03782726
155	0xbe1f4e49	-0.15557207
156	0x3cd027d7	0.025409622
157	0xbe042711	-0.12905528
158	0xbd68ccab	-0.05683581
159	0xbd72a226	-0.059236668
160	0x3c360ca3	0.011111411
161	0x3db85b34	0.090017706
162	0xbb37d488	-0.0028050262
163	0xbd425dda	-0.047452785
164	0x3d9e84be	0.07740162
165	0x3ccd99c9	0.025097745
166	0x3d973a20	0.07384133
167	0x3e496133	0.19665985
168	0x3e8dded6	0.27709073
169	0x3e01295f	0.12613438
170	0xbe39689e	-0.18106315
171	0x3dc4be86	0.09606652
172	0xbda1e98f	-0.07905876
173	0xbc525739	-0.012838178
174	0x3dd25461	0.1027
175	0xbe2c9216	-0.16852602
176	0x3abfb754	0.001462678
177	0xbd8de59e	-0.06928562
178	0x3d6af076	0.057358228
179	0x3cc753da	0.024331976
180	0xbe0a3acd	-0.13498993
181	0xbe377d30	-0.17918849
182	0x3c803fb8	0.015655383
183	0xbde4020b	-0.11133202
184	0x3e552d0f	0.2081797
185	0x3d21f5db	0.039541107
186	0x3e06197e	0.13095662
187	0xbe870f6e	-0.2637896
188	0xbcda29c1	-0.026631238
189	0x3e509f39	0.20373239
190	0x3e6394f6	0.22224793
191	0xbdc3fa1e	-0.095691904
192	0x3dc9538b	0.09830388
193	0xbc8eef92	-0.01744822
194	0x3e1c1bf2	0.15245035
195	0x3cf5864e	0.029971268
196	0xbe17c841	-0.14822485
197	0x3c6f58c3	0.014608565
198	0x3e7729da	0.24137059
199	0x3e7d142c	0.24714726
200	0xbd93bffb	-0.07214352
201	0x3d019e0c	0.031644866
202	0xbd993fcf	-0.07482874
203	0xbccf8912	-0.025333915
204	0x3d772768	0.060340315
205	0x3dc4517d	0.09585855
206	0xbe0c94e0	-0.13728666
207	0x3e278036	0.16357502
208	0xbd5c999c	-0.05385743
209	0x3e1de977	0.15421091
210	0xbaca2223	-0.001542155
211	0x3c66a87f	0.014078259
212	0x3d8331b9	0.06405968
213	0xbce8dfa8	-0.02842696
214	0xbe1093dd	-0.14118905
215	0x3da0e738	0.078566015
216	0x3d68b46e	0.056812696
217	0xbdcec275	-0.100956835
218	0x3dc88a15	0.09791962
219	0x3df5c788	0.12000948
220	0xbd9d8a28	-0.07692367
221	0x3dc35c47	0.09539085
222	0x3cd611e5	0.02613158
223	0xbd94ca30	-0.07265127
224	0x3ba1d45f	0.0049386467
225	0xbdbfa220	-0.09357095
226	0xbd7f2e7e	-0.062300198
227	0x3c9a1c4e	0.018812325
228	0x3daecb2e	0.08534847
229	0xbd8fdc9d	-0.070245005
230	0xbe46d066	-0.19415435
231	0x3dcbf6ac	0.09959158
232	0xbd20ddb5	-0.039273936
233	0x3d3d21c2	0.046174772
234	0xbc948989	-0.018131988
235	0xbd1e0302	-0.038577087
236	0xbe290983	-0.16507535
237	0xbccad602	-0.02476025
238	0xbd8b328a	-0.06796749
239	0xbd3e504e	-0.046463303
240	0x3e8f808f	0.2802777
241	0x3d1b8c7e	0.03797578
242	0x3d581049	0.052749906
243	0x3d8b139b	0.06790849
244	0x3e12d8d3	0.14340524
245	0xbe1a2a42	-0.15055183
246	0x3d6cfd67	0.05785885
247	0x3c755c82	0.014975669
248	0xbdb846d9	-0.08997888
249	0x3dba7a4d	0.09105358
250	0xbd8e883a	-0.06959577
251	0xbd310df7	-0.04322621
252	0xbb28ef1e	-0.002577729
253	0x3e51693c	0.204503
254	0x3e20f1ab	0.15717189
255	0xbcffe0ad	-0.031235063

net.layer_1.bias f4 [50]
0	0xbd81fdfd	-0.063472725
1	0x3dc141dc	0.0943639
2	0x3e0095ff	0.12557219
3	0x3dccd1db	0.10000964
4	0xbd20ddfb	-0.039274197
5	0xbdf31878	-0.118699014
6	0xbd08d64c	-0.033407494
7	0x3d6e0b6c	0.05811636
8	0x3e9cf18f	0.30653045
9	0x3c9541b6	0.01821981
10	0xbcf8034e	-0.030275013
11	0x3ccb0704	0.024783619
12	0xbe223d25	-0.15843637
13	0xbdeabc6c	-0.1146172
14	0xbdbdbb55	-0.092642464
15	0x3d1c2599	0.038121793
16	0x3da016b5	0.07816831
17	0xbd88daff	-0.06682395
18	0x3dc45253	0.095860146
19	0x3d003843	0.031303655
20	0x3ddd90be	0.10818623
21	0x3e8690b7	0.26282284
22	0xbd6dc4cc	-0.05804901
23	0xbe416834	-0.18887407
24	0x3dc8eb4a	0.09810503
25	0x3d32171e	0.043479078
26	0xbd8e625c	-0.06952354
27	0xbdcc0b60	-0.09963107
28	0x3db17bbb	0.08666178
29	0x3bd81161	0.0065938686
30	0xbda28b55	-0.07936732
31	0x3b9c86b2	0.004776799
32	0xbca48c76	-0.020086508
33	0xbcf94f8d	-0.03043344
34	0x3be65426	0.0070290742
35	0x3e0dbe79	0.13842191
36	0x3dc8e3cb	0.09809073
37	0xbc7b6988	-0.015344985
38	0x3dd73c3a	0.10509534
39	0x3d4aa82a	0.04947678
40	0xbd87c81c	-0.06629965
41	0x3bc5149b	0.0060144193
42	0x3d86fa90	0.0659076
43	0x3db474a5	0.08811311
44	0x3dd1087c	0.102066964
45	0xbdbfaea2	-0.093594804
46	0xbda2a6bf	-0.079419605
47	0xbcc0373c	-0.023463838
48	0xbdcb5492	-0.0992824
49	0x3dc16d32	0.094446555

net.layer_2.weight f4 [50, 50]
0	0x3d2c4db5	0.042066295
1	0xbdc54202	-0.096317306
2	0x3c2229d2	0.009897666
3	0xbdd645af	-0.1046251
4	0x38af051b	8.345601e-05
5	0xbd03befb	-0.032164555
6	0x3d1c2401	0.038120274
7	0x3d0353d2	0.03206236
8	0xbe0d4144	-0.13794428
9	0xbcb30b3d	-0.021855945
10	0xba3ccf5d	-0.00072025304
11	0x3c68b06b	0.014202218
12	0x3cb29b8f	0.021802692
13	0x3dc5b474	0.09653559
14	0xbcb9a9a4	-0.022663899
15	0x3c688e9f	0.01419416
16	0x3e0fa8c5	0.14029224
17	0xbdf73a6e	-0.120716915
18	0xbd0a08fc	-0.033699974
19	0x3b3c6531	0.0028746838
20	0xbe146143	-0.14490227
21	0x3dec27fd	0.11531065
22	0xbdd74f91	-0.10513223
23	0xbe3c8a16	-0.1841205
24	0xbc677b64	-0.01412854
25	0xbdf9ddaf	-0.12200486
26	0x3dc6d14e	0.097078905
27	0xbd535ea3	-0.051603924
28	0x3cf16170	0.029465407
29	0x3d3e73c1	0.04649711
30	0xbe12222f	-0.14270853
31	0x3db88126	0.09009008
32	0xbcca5140	-0.024696946
33	0x3ce9d022	0.028541628
34	0xbe093f4a	-0.13403049
35	0x3dd94dc8	0.10610539
36	0xbdb00526	-0.08594732
37	0x3d81cf0d	0.0633832
38	0xbe0ad502	-0.13557819
39	0xbd89a609	-0.06721122
40	0x3dd5bc45	0.104363
41	0xbdae7274	-0.08517924
42	0x3d7c002b	0.061523598
43	0xbc17c076	-0.009262195
44	0xbdaeaab9	-0.085286565
45	0x3d904450	0.070442796
46	0xbcc4f6ca	-0.02404346
47	0x3d4c363a	0.049856402
48	0xbe14b071	-0.14520432
49	0x3d18eb46	0.03733375
50	0x3e03774d	0.12838478
51	0x3ddfc444	0.109261066
52	0xbd68f392	-0.05687291
53	0x3d93eb32	0.07222594
54	0x3c49838c	0.01229943
55	0x3dac6953	0.084185265
56	0xbc331142	-0.010929408
57	0xbd9fc175	-0.07800571
58	0xbd0d4674	-0.034491017
59	0x3de85e47	0.11346107
60	0x3d873ddc	0.066035956
61	0x3d7cf6ff	0.06175899
62	0xbd5e5b6a	-0.054286398
63	0xbd8e2c26	-0.069420144
64	0xbd5d1df4	-0.053983644
65	0xbd8d226f	-0.06891333
66	0x3c8a0374	0.01684735
67	0x3e12e9b0	0.14346957
68	0x3d69024d	0.05688696
69	0x3e0a611a	0.13513604
70	0xbd8826d4	-0.06648031
71	0xbd2238dc	-0.039605007
72	0x3db4633b	0.08807989
73	0x3e440d9e	0.1914582
74	0x3e114fdd	0.14190622
75	0xbcdfb09c	-0.027305894
76	0xbdff6423	-0.124702714
77	0xbd548c94	-0.05189188
78	0xbda97b06	-0.08275418
79	0xbd22f8b6	-0.03978797
80	0xbd9d8619	-0.07691593
81	0x3ba6816a	0.0050813453
82	0x3d0e8938	0.03479883
83	0x3da4bf3f	0.0804429
84	0x3dab9726	0.08378439
85	0x3d281f90	0.041045725
86	0x3dd01f1e	0.10162185
87	0x3dd34d24	0.10317448
88	0xbdc56caa	-0.09639867
89	0xbbaecde2	-0.0053346017
90	0xbc1d9618	-0.009618305
91	0x3dc53b9c	0.0963051
92	0xbd91bdea	-0.07116301
93	0x3e05d0f0	0.13067985
94	0x3d1e217d	0.038606156
95	0x3e093812	0.13400295
96	0x3d8a892b	0.06764444
97	0xbdc9badc	-0.09850094
98	0xbdac23ae	-0.08405243
99	0xbe126b1b	-0.1429867
100	0x3e379ede	0.17931697
101	0x3d8477d1	0.06468166
102	0xbea0b359	-0.3138683
103	0x3d375133	0.044755172
104	0x3d8d34af	0.06894814
105	0xbe989681	-0.29802325
106	0xbd05e7a9	-0.03269163
107	0x3c81579b	0.015788844
108	0x3dd950cb	0.10611113
109	0xbe9725dc	-0.29521072
110	0xbe9866c5	-0.29765907
111	0xbe8009e7	-0.25007555
112	0x3e803f73	0.25048408
113	0x3e91d069	0.28479317
114	0x3e2004b6	0.15626797
115	0x3db2a620	0.08723092
116	0x3e150ae3	0.14554934
117	0x3ee62fb7	0.4495828
118	0xbe673ca2	-0.22581723
119	0x3e2ffc2c	0.1718604
120	0x3d48adfa	0.048994042
121	0xbe3b4c8b	-0.18290918
122	0xbe69c93c	-0.22830671
123	0x3dc709ed	0.0971869
124	0x3d567031	0.052353088
125	0x3e4af664	0.19820553
126	0x3c681e18	0.014167331
127	0xbb16f00c	-0.0023031263
128	0xbd517ff5	-0.05114742
129	0x3e6ac19a	0.22925416
130	0x3e95be13	0.29246578
131	0x3e5763ed	0.21034212
132	0xbb66f034	-0.0035238387
133	0xbd05c920	-0.03266251
134	0x3e596609	0.2123033
135	0xbde90f03	-0.113798164
136	0x3dd1dc2e	0.10247074
137	0xbd98768a	-0.074444845
138	0xbebd169f	-0.3693132
139	0xbea350ec	-0.31897676
140	0x3e28737b	0.16450302
141	0xbccc8ffe	-0.024971005
142	0xbde5b711	-0.11216558
143	0x3e970a0c	0.29499853
144	0x3e959d7d	0.29221717
145	0x3eb6d2e0	0.3570776
146	0x3eae6d50	0.34067774
147	0x3dd856dd	0.10563443
148	0x3f73c988	0.9522939
149	0x3da87ffb	0.08227535
150	0xbcb68540	-0.022280335
151	0xbd56a7fa	-0.05240629
152	0x3dda2bb8	0.1065287
153	0x3d33289d	0.043739904
154	0xbe2923e4	-0.16517597
155	0xbcc120d7	-0.02357523
156	0xbbc2b14f	-0.005941547
157	0x3cca12b3	0.02466712
158	0x3d456388	0.048190624
159	0x3db4c759	0.08827085
160	0x3d90d0a2	0.070710436
161	0xbd59cbef	-0.053173
162	0x3e1c3fe7	0.15258752
163	0x3d567d10	0.052365363
164	0xbe3dc873	-0.18533497
165	0x3d105832	0.03524036
166	0xbdbbd149	-0.09170777
167	0x3cfabe43	0.030608302
168	0xbe41df91	-0.1893294
169	0xbd34a006	-0.044097923
170	0x3d7c0071	0.06152386
171	0xbd550e4b	-0.052015584
172	0x3db9d2c5	0.09073404
173	0x3d00759d	0.031362165
174	0xbdb0eb32	-0.0863861
175	0x3d83cc16	0.06435411
176	0xbce6a18b	-0.028153202
177	0x3e227662	0.15865472
178	0xbc1003a5	-0.008789931
179	0xbdfe776f	-0.12425124
180	0x3df166a7	0.117871575
181	0xbc546a82	-0.012964847
182	0xbdb51b35	-0.0884308
183	0x3dd2472c	0.10267481
184	0xbd716450	-0.058933556
185	0xbd6f7cac	-0.058468506
186	0x3e043934	0.12912446
187	0x3d5b7ea4	0.05358757
188	0xbde8bff4	-0.11364737
189	0xbc045874	-0.0080777295
190	0xbc39a28b	-0.011330257
191	0xbddcbdd7	-0.107783966
192	0xbe0153ce	-0.12629625
193	0xbe061406	-0.13093576
194	0x3d77a323	0.060458314
195	0xbd451f64	-0.04812564
196	0x3db0ac08	0.08626562
197	0x3ca2fe7a	0.019896735
198	0xbe28bfce	-0.16479418
199	0xbdfd41e3	-0.123660825
200	0xbe1a3f2b	-0.15063159
201	0xbd2f0c34	-0.042736247
202	0x3c8bfe1f	0.017088948
203	0x3ee0127f	0.4376411
204	0x3d3f6295	0.046724875
205	0xbe916bf1	-0.28402665
206	0xbdcf1930	-0.10112226
207	0x3dcaeaaf	0.099080436
208	0xbd1b1626	-0.03786292
209	0xbd20e7bf	-0.03928351
210	0x3cf0a477	0.029375298
211	0xbea415ce	-0.32047886
212	0x3e1c60f6	0.15271363
213	0x3da0a866	0.078446195
214	0x3d426ec8	0.04746893
215	0xbd790254	-0.060793236
216	0x3b37b494	0.0028031217
217	0x3df28542	0.11841823
218	0xbe1287b9	-0.14309587
219	0xbdf7ff8f	-0.12109291
220	0xbe306491	-0.17225863
221	0xbe06b6e1	-0.131557
222	0xbc59eb13	-0.013300675
223	0x3c026038	0.007957511
224	0xbd8a2a99	-0.06746406
225	0xbdd5b578	-0.10435003
226	0x3d5b9cc1	0.05361629
227	0xbccb159d	-0.02479058
228	0x3e1842b4	0.14869195
229	0x3cd081d9	0.025452541
230	0x3bf8b853	0.0075903325
231	0x3e984038	0.29736495
232	0xbdfc29b0	-0.12312639
233	0xbd34345a	-0.04399524
234	0x3dba65d7	0.09101456
235	0x3eb4fd23	0.35349378
236	0x3d8c321b	0.06845494
237	0xbda19b75	-0.07890979
238	0xbe0fdc44	-0.14048868
239	0xbe010fbf	-0.12603663
240	0xbc467b1b	-0.012114312
241	0xbdb1f6c4	-0.08689645
242	0x3e00543a	0.1253213
243	0x3de921fb	0.113834344
244	0x3e50e48f	0.20399688
245	0x3eb70fc9	0.3575423
246	0x3db008b7	0.08595412
247	0x3de38e08	0.11111075
248	0x3f35f190	0.7107172
249	0xbd0e4807	-0.03473666
250	0x3c97b342	0.018518094
251	0x3c433bd6	0.0119161215
252	0xbc48a820	-0.012247115
253	0x3c337e47	0.0109554
254	0xbcc1d15b	-0.023659399
255	0x3db0c635	0.08631555

net.layer_2.bias f4 [50]
0	0xbd94959e	-0.072551
1	0x3d4c537f	0.049884316
2	0xbd7f0b5b	-0.06226669
3	0xbdbe8827	-0.09303313
4	0x3d72cfe4	0.05928029
5	0x3a35e101	0.000693813
6	0xbcb2ab10	-0.021810085
7	0xbe1af29a	-0.15131608
8	0x3dac5e12	0.0841638
9	0xbd9ee1e2	-0.077579275
10	0x3ce65d36	0.028120618
11	0xbd9cba9f	-0.07652783
12	0xb9dfe96e	-0.00042707793
13	0xbdef0bab	-0.11672147
14	0x3df84586	0.121226355
15	0x3dc78f7b	0.097441636
16	0xbd39ca01	-0.04535866
17	0x3d9c3316	0.07626931
18	0x3daa5a4e	0.083180055
19	0x3bfd2e5a	0.007726473
20	0xbd13279e	-0.035926454
21	0xbd32154d	-0.043477345
22	0x3ba624c6	0.0050703017
23	0x3e0251ec	0.12726563
24	0x3d8ed749	0.06974656
25	0x3e12e7cb	0.14346235
26	0x3d8493fd	0.06473539
27	0x3cf79336	0.030221563
28	0x3df95978	0.12175268
29	0x3de53541	0.11191798
30	0xbc8676dc	-0.016414098
31	0x3e00b5ce	0.12569353
32	0x3e0e317d	0.13886066
33	0x3ddce0c5	0.10785059
34	0xbd95ab63	-0.0730808
35	0xbdd94592	-0.106089726
36	0xbd9838e2	-0.074327245
37	0x3b5ec3f9	0.003399132
38	0x3cb68c41	0.022283675
39	0x3dd0b32d	0.10190425
40	0x3e0d4905	0.13797386
41	0xbdd8d5e9	-0.10587675
42	0x3d4c4293	0.049868178
43	0x3d584100	0.052796364
44	0x3c0e4e15	0.008685608
45	0xbdf05d0b	-0.117364965
46	0xbe05817f	-0.1303768
47	0xbe0aefe2	-0.1356807
48	0xbdd7f25d	-0.10544274
49	0x3d56309d	0.052292455

net.output.weight f4 [1, 50]
0	0x3e669a5d	0.22519822
1	0xbe0324f5	-0.12807067
2	0x3e508f4c	0.20367163
3	0x3d3ed753	0.046592068
4	0x3e18c679	0.14919461
5	0x3df1ac73	0.1180047
6	0xbdeb88b1	-0.11500681
7	0x3dff2944	0.12459043
8	0x3e101d2a	0.14073625
9	0x3e7e8a84	0.24857527
10	0xbd939482	-0.0720606
11	0x3e0656d4	0.1311906
12	0x3c955f3f	0.018233893
13	0x3e32bf4d	0.17455788
14	0x3d6294c1	0.055317644
15	0x3d90e144	0.07074216
16	0xbe255935	-0.16147311
17	0x3f3a7ac6	0.7284359
18	0x3dc8dd9d	0.098078944
19	0xbe029f79	-0.12756146
20	0x3dc7a6a7	0.09748583
21	0xbdbbc2fb	-0.09168049
22	0x3d623fff	0.055236813
23	0x3d6f461a	0.058416463
24	0xbe16efe6	-0.14739951
25	0x3e4d3a6d	0.20041819
26	0x3d320de0	0.043470263
27	0x3db6edd0	0.08932078
28	0xbd4ce6a3	-0.05002464
29	0x3dae7f63	0.08520391
30	0xbd528558	-0.051396698
31	0xbe442468	-0.19154513
32	0xbe2ccaff	-0.16874312
33	0x3d4f36c1	0.050589327
34	0x3e13b9c0	0.14426327
35	0xbe323acc	-0.17405242
36	0x3de5e9b3	0.11226215
37	0x3e46f1f3	0.19428234
38	0xbe8e2bd7	-0.27767822
39	0x3b08b454	0.0020859437
40	0x3e2b55e6	0.16731986
41	0x3e080e26	0.13286647
42	0xbe0ccea8	-0.13750708
43	0xbd3ffe06	-0.046873115
44	0x3e4254d1	0.18977667
45	0x3d8d4290	0.068974614
46	0xbd16375b	-0.036673885
47	0xbdffc40f	-0.12488567
48	0xbdc11776	-0.09428303
49	0x3db4ee47	0.0883451
