burgers/nu-0/sin_N_C100000_nu0.0001.pth (torch, 24780 bytes, 7 tensors)

net.layer_0.weight f4 [50, 2]
0.9826881 0.5762453 -1.650149 0.6081921 -0.80194485 0.0565113 -0.105071746 -0.50460047
-0.7359724 -0.26932475 0.94281685 -0.12352365 0.6608364 0.2794337 -0.7671428 0.4792233
-0.5380157 -0.5813517 -0.7241116 -0.089581914 1.1954079 -0.64109844 0.34393814 -0.2822878
-1.0071399 -0.4872626 -0.23914503 0.6002986 -0.7725956 0.98893607 -0.51481855 -0.0039568846
-0.47998476 -0.7311533 1.1638601 -0.8530185 1.7537647 0.97186977 -0.22100946 -0.56483215
0.20099466 -0.8119921 -0.27068546 0.39526713 -1.889445 1.0365372 0.61409456 0.19842465
1.1084806 0.4562371 0.27703473 0.56645477 -0.5828552 0.79176813 0.57598317 -0.1355908
0.2300853 0.103640445 0.6965748 -0.051593553 0.3966091 -0.45833054 -0.86821085 0.06256861
-0.06628109 -0.5985362 -0.9621249 0.64806485 0.37221882 -0.82321095 0.8200245 -0.71318865
-0.8203926 0.6034306 0.884117 0.8360997 0.2265551 0.8301148 -0.4110828 0.28510663
0.36730877 -0.52139 0.6510631 0.19666469 -0.85987496 0.9275332 0.4322235 -0.74760216
-0.61659753 -0.40222922 -0.99841624 0.06802522 0.62040186 -1.3161416 0.7209338 -0.1995093
0.3995572 -0.25615802 0.7021978 1.225338
00000000: 7391 7b3f d084 133f 1538 d3bf 7ab2 1b3f
00000010: 424c 4dbf 6578 673d db2f d7bd 7f2d 01bf
00000020: b068 3cbf efe4 89be 725c 713f f8f9 fcbd
00000030: 932c 293f ef11 8f3e 7863 44bf c25c f53e
00000040: 66bb 09bf 77d3 14bf 615f 39bf b976 b7bd
00000050: 2003 993f 071f 24bf a918 b03e 0788 90be
00000060: f6e9 80bf 7c7a f9be 6fe2 74be 2bad 193f
00000070: d3c8 45bf ea2a 7d3f 26cb 03bf c1a8 81bb
00000080: 90c0 f5be dd2c 3bbf 5ef9 943f 6c5f 5abf
00000090: 5d7b e03f 75cc 783f 4e50 62be d798 10bf
000000a0: 8bd1 4d3e b7de 4fbf 4997 8abe 7460 ca3e
000000b0: 55d9 f1bf 40ad 843f 4d35 1d3f d52f 4b3e
000000c0: b1e2 8d3f e997 e93e 7fd7 8d3e 2e03 113f
000000d0: 0036 15bf 51b1 4a3f a273 133f 51d8 0abe
000000e0: 7b9b 6b3e 7141 d43d ba52 323f c353 53bd
000000f0: 5910 cb3e 4daa eabe 1143 5ebf f923 803d
00000100: 61be 87bd ab39 19bf d14d 76bf 94e7 253f
00000110: 7793 be3e f4bd 52bf 20ed 513f 8893 36bf
00000120: 4005 52bf 6e7a 1a3f 7e55 623f a10a 563f
00000130: 0ffe 673e 6782 543f 7279 d2be 7ff9 913e
00000140: e50f bc3e d179 05bf 12ac 263f 7862 493e
00000150: c420 5cbf d172 6d3f 664c dd3e db62 3fbf
00000160: 56d9 1dbf fdf0 cdbe 3598 7fbf ce50 8b3d
00000170: a8d2 1e3f 5477 a8bf 1e8f 383f 2a4c 4cbe
00000180: c392 cc3e 2527 83be 3cc3 333f e0d7 9c3f

net.layer_0.bias f4 [50]
-0.67825025 -0.6734711 0.65368706 0.1594953 0.6898323 0.15116867 -0.45131838 -0.5485306
0.31615716 0.4178741 0.73373413 0.32583475 0.47027364 0.1987125 -0.9297951 -0.25202304
0.83104247 0.9174312 -0.98665875 -0.6379296 -0.165887 0.007919481 -1.1865499 -0.027759338
-0.45704138 0.22845209 -0.6231458 0.41862404 0.6911572 0.68104637 0.536014 0.029970633
0.20483911 -0.7044513 0.7772939 0.73877925 -0.4430334 -0.8652004 -0.18064387 -0.07407668
0.35007387 -0.35172123 -0.80813134 0.7616835 0.40340713 -0.36437064 -0.8525939 0.4974093
-0.33999804 0.98096573
00000000: cfa1 2dbf 9a68 2cbf 0958 273f bc52 233e
00000010: da98 303f f6cb 1a3e 3413 e7be 806c 0cbf
00000020: 5adf a13e 98f3 d53e 00d6 3b3f d0d3 a63e
00000030: b5c7 f03e 4a7b 4b3e 0d07 6ebf 2a09 81be
00000040: 33bf 543f c5dc 6a3f ab95 7cbf 5b4f 23bf
00000050: 48de 29be b6c0 013c dee0 97bf 8d67 e3bc
00000060: 5401 eabe 58ef 693e 7c86 1fbf e455 d63e
00000070: aeef 303f 0e59 2e3f 3738 093f f984 f53c
00000080: 58c1 513e ec56 34bf bcfc 463f a320 3d3f
00000090: 46d5 e2be c67d 5dbf b5fa 38be 84b5 97bd
000000a0: e23c b33e ce14 b4be b2e1 4ebf b1fd 423f
000000b0: 618b ce3e ca8e babe 9843 5abf 6fac fe3e
000000c0: 3914 aebe 9220 7b3f

net.layer_1.weight f4 [50, 50]
-0.36052516 -0.0731449 0.91873217 -0.22568093 0.55674064 -0.21835688 -0.5587558 -0.1151949
0.02714269 0.54373205 0.2559861 0.06448419 0.13727376 0.36049107 -0.19268423 -0.1673001
0.34130162 0.13894354 -0.3455524 -0.17727235 -0.67196405 0.89295197 -0.1429309 -0.060620412
-0.2973094 0.1844134 0.1016363 0.024094695 0.23980874 0.10997429 0.111658335 0.09062029
-0.25527 -0.11141031 -0.14157218 0.10152347 0.03955214 -0.15268272 0.015833579 0.23234886
-0.26604363 -0.4389116 0.14016055 0.3330365 0.14586385 -0.20673488 -0.6248176 0.19268413
-0.6769987 0.26794282 0.12268632 0.0022689402 -0.0709799 1.275212 -0.20378049 0.12728006
0.16491152 0.09571591 0.3073792 -0.029036053 -0.17071262 -0.12075887 0.04034357 -0.3755811
-0.18316793 0.29209027 -0.09502667 0.03494677 0.323475 0.46752295 0.20965357 -0.27408567
0.059473924 -0.2125177 0.06874488 -0.73398644 -0.094752684 -0.46329948 -0.46435806 -0.585557
-0.3741857 -0.11020688 1.1050531 0.18915263 0.35324466 -0.010434311 -0.06642358 0.26106808
-1.2074332 -0.00767809 0.2597043 0.049148433 -0.14467728 -0.24453114 0.010306523 0.30149972
0.30711442 -0.5818797 0.0842244 -0.67628753 0.113924764 -0.067515984 0.09272997 -0.40877366
0.004873237 0.0910767 -0.07234239 -0.108851574 -0.13775863 0.0810646 -0.003878673 0.08035147
0.0011009157 0.10637342 -0.02344334 0.023714358 0.0024836164 -0.09534175 -0.12928738 0.10753966
-0.22215256 -0.11069057 0.15646873 0.13950282 0.07978959 0.16087936 0.024539238 0.035315022
0.03284794 -0.110569805 -0.04368186 -0.104767054 -0.2722587 -0.055667236 -0.07705432 0.009764829
-0.004577332 -0.13735062 0.37083134 0.12570888 0.00990213 -0.04007131 0.15338364 -0.17477204
-0.040537387 -0.021461416 0.09129994 0.054872375 -0.012220513 0.16881436 -0.0424471 -0.025615208
0.16512565 0.23198767 0.00928995 -0.20313892 -0.111005634 0.13050397 0.17622091 0.16039743
-0.1639604 0.048661362 0.044726927 0.06436032 -0.082515314 0.06353887 0.11151891 0.050580475
-0.2506666 -0.03434024 -0.0008559833 0.11668578 -0.034866735 -0.20061146 -0.12883627 -0.06943609
0.1704956 -0.1250993 -0.07234799 -0.15995216 0.050366543 0.18605927 -0.028583704 0.017034179
0.08891447 -0.06272023 0.016783975 -0.14257777 -0.079998985 0.09826878 0.032035675 0.023605581
0.16180514 -0.15149696 0.17070912 0.12422289 -0.037431896 -0.046383023 -0.160546 -0.13456203
0.11446743 -0.5422529 -0.15935965 0.16808969 0.08597233 0.23457891 0.10330571 -0.46528876
0.13046563 -0.07120268 0.46240905 0.33318788 -0.031558353 -0.09886427 -0.46426597 -0.32997054
0.054291748 0.5509246 0.0005152641 -0.13306239 0.12078352 -0.143233 -0.32667607 0.1812353
-0.042201165 0.039320193 -0.32901043 0.31688464 0.10877087 0.2721483 0.35293022 -0.34699926
0.24735747 -0.32062268 0.3231401 0.4213267 -0.44716072 -0.037597284 -0.04649448 -0.43950436
0.3507059 -0.03855139 -0.3771574 0.25661415 -0.084624805 -0.2890269 -0.022036048 0.37452322
0.0038224407 0.012798283 -0.05620728 -0.10462259 -0.12869704 0.4854377 -0.11947946 0.036347646
00000000: c196 b8be fecc 95bd 0832 6b3f e718 67be
00000010: 8e86 0e3f f298 5fbe 9f0a 0fbf 4eeb ebbd
00000020: 595a de3c 0632 0b3f 9c10 833e 4910 843d
00000030: 7e91 0c3e 4992 b83e 044f 45be b850 2bbe
00000040: 16bf ae3e 3747 0e3e 3fec b0be e286 35be
00000050: d605 2cbf 8098 643f 7a5c 12be 1c4d 78bd
00000060: f038 98be ded6 3c3e b126 d03d 3d62 c53c
00000070: 6c90 753e 333a e13d 20ad e43d 2197 b93d
00000080: c0b2 82be 172b e4bd 4cf8 10be 89eb cf3d
00000090: 6d01 223d dc58 1cbe 6cb5 813c dcec 6d3e
000000a0: df36 88be 05b9 e0be 3f86 0f3e c383 aa3e
000000b0: 555d 153e 4fb2 53be 0cf4 1fbf fd4e 453e
000000c0: c94f 2dbf cd2f 893e f742 fb3d 80b2 143b
000000d0: e95d 91bd 263a a33f d5ab 50be b455 023e
000000e0: 91de 283e b406 c43d ce60 9d3e 04dd edbc
000000f0: 4acf 2ebe 6d50 f7bd 4d3f 253d 2a4c c0be
00000100: 6090 3bbe db8c 953e 589d c2bd 5824 0f3d
00000110: 849e a53e 2b5f ef3e 6daf 563e f554 8cbe
00000120: ee9a 733d 3d9e 59be 1eca 8c3d 89e6 3bbf
00000130: b20d c2bd 9735 edbe 57c0 edbe 10e7 15bf
00000140: 4595 bfbe 25b4 e1bd 6172 8d3f 3ab1 413e
00000150: 7cdc b43e acf4 2abc 1609 88bd b7aa 853e
00000160: 2c8d 9abf 7d98 fbbb f6f7 843e de4f 493d
00000170: 4826 14be 5f66 7abe b1dc 283c 2c5e 9a3e
00000180: 1a3e 9d3e 11f6 14bf d87d ac3d 2e21 2dbf
00000190: 6351 e93d d245 8abd 36e9 bd3d c84a d1be
000001a0: adaf 9f3b 6c86 ba3d 3f28 94bd 93ed debd
000001b0: 9910 0dbe 3205 a63d 5631 7ebb 508f a43d
000001c0: 9a4c 903a 4fda d93d 3f0c c0bc 9d44 c23c
000001d0: 2bc4 223b 8942 c3bd e963 04be c13d dc3d
000001e0: f67b 63be bdb1 e2bd 5739 203e d4d9 0e3e
000001f0: b968 a33d 8fbd 243e 8306 c93c 7ca6 103d
00000200: 908b 063d 6c72 e2bd c0eb 32bd 1c90 d6bd
00000210: 7e65 8bbe 5403 64bd a8ce 9dbd a9fc 1f3c
00000220: 72fd 95bb a4a5 0cbe 9bdd bd3e d4b9 003e
00000230: 8b3c 223c d021 24bd 9a10 1d3e 71f7 32be
00000240: 880a 26bd dacf afbc 77fb ba3d dbc1 603d
00000250: 8c38 48bc acdd 2c3e 03dd 2dbd fcd6 d1bc
00000260: b316 293e 2d8e 6d3e e034 183c a603 50be
00000270: ec56 e3bd d5a2 053e 4173 343e 393f 243e
00000280: 3ce5 27be 2351 473d 9533 373d 58cf 833d
00000290: cafd a8bd ab20 823d 0764 e43d 792d 4f3d
000002a0: 5f57 80be 5aa8 0cbd 1164 60ba f4f8 ee3d
000002b0: 6cd0 0ebd 176d 4dbe a8ed 03be 8234 8ebd
000002c0: 6696 2e3e 081a 00be 2f2b 94bd 80ca 23be
000002d0: 264d 4e3d 5286 3e3e 5f28 eabc 438b 8b3c
000002e0: ca18 b63d 7773 80bd 8c7e 893c e8ff 11be
000002f0: 82d6 a3bd 2441 c93d d737 033d 7e60 c13c
00000300: 3fb0 253e 0522 1bbe 5fce 2e3e 9268 fe3d
00000310: 3052 19bd 20fc 3dbd 2c66 24be a1ca 09be
00000320: e66d ea3d 16d1 0abf 2d2f 23be b41f 2c3e
00000330: 4312 b03d 7435 703e f291 d33d 543a eebe
00000340: c898 053e b6d2 91bd e1c0 ec3e 9a97 aa3e
00000350: 5543 01bd 5a79 cabd 45b4 edbe e6f1 a8be
00000360: 0661 5e3d 6509 0d3f ca12 073a 8241 08be
00000370: 5a5d f73d acab 12be 1642 a7be bf95 393e
00000380: 21db 2cbd 360e 213d 0e74 a8be b43e a23e
00000390: 43c3 de3d 0657 8b3e 45b3 b43e e3a9 b1be
000003a0: 474b 7d3e a828 a4be 9f72 a53e 22b8 d73e
000003b0: 40f2 e4be 9cff 19bd ff70 3ebd b706 e1be
000003c0: b98f b33e 10e8 1dbd c61a c1be ee62 833e
000003d0: c54f adbd 55fb 93be f184 b4bc 82c1 bf3e
000003e0: ea81 7a3b e4af 513c 9b39 66bd 5e44 d6bd
000003f0: 28c9 03be 4a8b f83e a6b1 f4bd 45e1 143d

net.layer_1.bias f4 [50]
0.26251367 -0.28839287 0.049858782 -0.07268195 0.11951534 -0.1446993 -0.05065561 0.116055824
-0.0450789 0.03471111 -0.27733016 -0.02251906 -0.06298586 -0.08869092 -0.09342054 -0.41704872
-0.09415385 -0.048210748 0.08619425 -0.046114165 0.12324405 -0.11820308 0.1267761 -0.055207014
0.12001766 6.2423605e-06 -0.105277576 0.012153556 0.025845433 -0.059189 0.103716224 0.1586423
0.055672366 0.036420695 -0.08528053 -0.09778254 -0.0113303615 -0.046692275 -0.012974878 -0.029697925
0.04573419 -0.026447773 -0.009830623 0.055214178 -0.44155696 -0.032076877 -0.11291102 0.10622942
0.106207855 0.059251152
00000000: 3168 863e 3ba8 93be b938 4c3d 46da 94bd
00000010: 75c4 f43d 0e2c 14be 427c 4fbd adae ed3d
00000020: a7a4 38bd 3d2d 0e3d 38fe 8dbe e479 b8bc
00000030: bbfe 80bd 96a3 b5bd 4553 bfbd 6987 d5be
00000040: bcd3 c0bd a278 45bd 9c86 b03d 35e2 3cbd
00000050: 6067 fc3d 7514 f2bd 98d1 013e c020 62bd
00000060: d2cb f53d 7875 d136 c59b d7bd b51f 473c
00000070: cdb9 d33c 2a70 72bd 2c69 d43d 2173 223e
00000080: b508 643d de2d 153d 8fa7 aebd 3642 c8bd
00000090: fba2 39bc 6640 3fbd 9594 54bc 1049 f3bc
000000a0: c653 3b3d 00a9 d8bc 9f10 21bc 4328 623d
000000b0: c113 e2be 0b63 03bd e53d e7bd cf8e d93d
000000c0: 8183 d93d 56b1 723d

net.layer_2.weight f4 [50, 50]
-0.056944977 0.0007663116 -0.12664215 0.09016231 -0.035805456 -0.00041247887 0.0024881759 -0.03217344
0.027129706 0.1104288 0.12604468 -0.122865826 0.113580145 -0.1019118 0.0036524674 -0.103102565
0.03166557 -0.08916179 -0.11038552 -0.006534877 0.13920836 0.059645522 -0.13698673 0.012055066
-0.041960455 -0.13566533 0.00649222 0.12283466 0.0918397 0.069766276 -0.04112279 -0.07993841
-0.023601592 -0.016937006 -0.005929504 -0.034247313 0.12902431 0.038226172 0.028823625 0.024569165
-0.01110007 -0.059254862 -0.051473342 0.043358803 -0.10555898 0.033296604 0.04542745 0.0893887
0.044127565 0.010006781 0.0023961833 -0.13270225 -0.05892581 0.009742863 -0.13153209 -0.098533966
0.12492164 -0.06098124 -0.051547844 0.024321277 -0.060460493 -0.11682589 0.09870702 0.08366717
-0.057705417 -0.11713786 -0.0003595825 -0.057126384 0.12836744 0.104267456 -0.0384026 0.12073928
0.0004945953 -0.094996795 -0.062113754 -0.004285449 -0.08776846 0.09803974 0.02420669 0.075983234
0.00633144 -0.10362984 0.056311533 -0.010427114 -0.110587135 -0.08200154 0.019176358 0.19899812
-0.08186074 -0.14203554 -0.018918391 0.07944369 0.07283582 0.08218369 0.056491584 -0.13526945
0.08692737 -0.12239467 -0.099598415 -0.16112714 0.04344691 -0.04350652 0.07874102 -0.08634025
0.10032593 -0.08833918 0.020680768 -0.025022551 -0.12304037 0.003394152 -0.05880876 -0.010140575
0.031215679 -0.037454896 0.09333154 0.042632062 0.00050056656 0.104796745 0.038527235 0.058714762
-0.062146913 -0.11739036 -0.12650979 0.095106505 -0.110430144 -0.06873246 -0.048707463 0.09195445
-0.05034062 0.08042773 0.14134492 0.082130395 0.04020957 -0.0039924127 -0.11249699 -0.052474137
-0.08553844 0.042305782 0.0075696856 -0.08332045 0.09223706 -0.079869546 0.09409014 0.012042271
-0.12156595 -0.047335472 0.03396575 -0.036661338 0.127917 -0.092644945 -0.087761775 -0.014109474
0.022612356 -0.068035625 -0.07826976 0.053425785 -0.041499875 -0.1279248 0.05956352 0.031920936
0.07490166 -0.12032716 0.038410082 -0.0855775 -0.10821424 -0.08874563 -0.07616402 -0.063446276
-0.053461224 -0.08764855 -0.10628387 -0.045596376 -0.06807523 0.08523624 0.13885565 -0.039046224
-0.06168673 -0.026270289 0.06765952 0.028707163 -0.03502937 -0.00269623 -0.15026434 0.084448874
-0.033137716 -0.070527405 0.0259319 0.053316478 -0.0353156 0.0023999838 -0.12823056 -0.12230174
0.10320281 -0.07968982 0.021209309 0.044215247 0.05905858 0.12259545 0.13664743 -0.0068550804
0.03376438 0.08889661 -0.11448174 -0.02445587 0.0051826234 -0.08366536 0.077955924 0.0047094985
0.08627174 -0.02101909 0.078439035 -0.05377775 0.1802018 -0.13038464 0.10002568 0.1324008
0.11873696 -0.023257943 0.0031384593 0.07423715 -0.010954723 0.09375441 -0.13999659 -0.021214573
0.061875563 -0.05559865 -0.10837169 0.0536389 0.10493522 -0.14331014 0.088056326 -0.0915336
-0.15801656 0.02774513 0.009895171 0.13952231 -0.12808768 -0.013615673 -0.015392789 0.042658843
0.14535204 -0.1361251 -0.006665706 0.06640844 0.029903937 0.14321068 -0.1436548 -0.015948065
-0.056932595 0.13013335 -0.101193786 -0.012383684 0.06653605 0.024290351 -0.12397455 -0.105723806
00000000: 233f 69bd 4de2 483a 7bae 01be 04a7 b83d
00000010: bea8 12bd fa41 d8b9 aa10 233b 4cc8 03bd
00000020: 1e3f de3c 7f28 e23d db11 013e 14a1 fbbd
00000030: b59c e83d 22b7 d0bd 3c5e 6f3b 7027 d3bd
00000040: c2b3 013d 759a b6bd ce11 e2bd 8522 d6bb
00000050: a38c 0e3e dd4e 743d 4046 0cbe 9d82 453c
00000060: bade 2bbd daeb 0abe b0bc d43b bd90 fb3d
00000070: 7416 bc3d 9fe1 8e3d 5f70 28bd c0b6 a3bd
00000080: 2058 c1bc 7abf 8abc 494c c2bb e946 0cbd
00000090: f31e 043e 0c93 1c3d 861f ec3c 4645 c93c
000000a0: 11dd 35bc 3ab5 72bd b6d5 52bd 0099 313d
000000b0: 4e2f d8bd 0562 083d 2212 3a3d 6c11 b73d
000000c0: 1bbf 343d 7bf3 233c 4909 1d3b 19e3 07be
000000d0: 315c 71bd 87a0 1f3c 59b0 06be 2dcc c9bd
000000e0: ebd6 ff3d 77c7 79bd d523 53bd 6a3d c73c
000000f0: 6ca5 77bd 6a42 efbd e826 ca3d b159 ab3d
00000100: 845c 6cbd f9e5 efbd 5986 bcb9 5bfd 69bd
00000110: c172 033e 2d8a d53d 0b4c 1dbd 2846 f73d
00000120: bba7 013a ae8d c2bd fe6a 7ebd f46c 8cbb
00000130: f3bf b3bd 0fc9 c83d 1c4d c63c 199d 9b3d
00000140: f877 cf3b e23b d4bd eca6 663d 7cd6 2abc
00000150: 827b e2bd 6cf0 a7bd bd17 9d3c 2ac6 4b3e
00000160: 9ba6 a7bd c471 11be befa 9abc 60b3 a23d
00000170: f22a 953d ec4f a83d b863 673d 1384 0abe
00000180: fa06 b23d 0faa fabd 41fa cbbd 83fe 24be
00000190: 63f5 313d e533 32bd f942 a13d 28d3 b0bd
000001a0: ae77 cd3d 2ceb b4bd b76a a93c 18fc ccbc
000001b0: 97fc fbbd 6c70 5e3b 74e1 70bd a724 26bc
000001c0: 06b8 ff3c 4e6a 19bd 9b24 bf3d f59e 2e3d
000001d0: 7438 033a ad9f d63d bcce 1d3d e47e 703d
000001e0: c38d 7ebd 5b6a f0bd c88b 01be 33c7 c23d
000001f0: 3329 e2bd 9bc3 8cbd 7a81 47bd 9d52 bc3d
00000200: f731 4ebd 4bb7 a43d b9bc 103e fb33 a83d
00000210: cab2 243d c9d2 82bb d264 e6bd 1fef 56bd
00000220: c72e afbd d448 2d3d 200b f83b e9a3 aabd
00000230: c9e6 bc3d a592 a3bd 55b2 c03d f24c 453c
00000240: 92f7 f8bd d7e2 41bd ac1f 0b3d 332a 16bd
00000250: adfc 023e a2bc bdbd 72bc b3bd 6c2b 67bc
00000260: 8c3d b93c 4356 8bbd e54b a0bd ffd4 5a3d
00000270: c6fb 29bd b8fe 02be e1f8 733d 87bf 023d
00000280: 0b66 993d 166e f6bd e453 1d3d 4243 afbd
00000290: 6d9f ddbd 45c0 b5bd e2fb 9bbd 1ff0 81bd
000002a0: 28fa 5abd 1581 b3bd 5cab d9bd 44c3 3abd
000002b0: 076b 8bbd 5690 ae3d 2d30 0e3e efee 1fbd
000002c0: 39ab 7cbd ca34 d7bc 1391 8a3d 492b eb3c
000002d0: f57a 0fbd 3cb3 30bb e5de 19be 88f3 ac3d
000002e0: 6abb 07bd ac70 90bd 236f d43c 6162 5a3d
000002f0: 17a7 10bd 0c49 1d3b df4e 03be 5679 fabd
00000300: ff5b d33d 6b34 a3bd 25bf ad3c 0c1b 353d
00000310: 69e7 713d 5313 fb3d 4eed 0b3e 95a0 e0bb
00000320: 854c 0a3d 6d0f b63d 6775 eabd ad57 c8bc
00000330: ffd2 a93b bf58 abbd 5ba7 9f3d 2352 9a3b
00000340: 3daf b03d 3a30 acbc a5a4 a03d 0f46 5cbd
00000350: d286 383e 8d83 05be 44da cc3d 1394 073e
00000360: 5d2c f33d 7187 bebc 9cae 4d3b a609 983d
00000370: 707b 33bc 5002 c03d 445b 0fbe 2fca adbc
00000380: 3b71 7d3d 69bb 63bd faf1 ddbd 77b4 5b3d
00000390: 47e8 d63d e5bf 12be e056 b43d f875 bbbd
000003a0: 18cf 21be c149 e33c 5b1f 223c f0de 0e3e
000003b0: 6b29 03be 4614 5fbc 0932 7cbc 0abb 2e3d
000003c0: 2ad7 143e 6164 0bbe ff6b dabb 2601 883d
000003d0: 1af9 f43c d2a5 123e 3e1a 13be 84a5 82bc
000003e0: 2732 69bd ad41 053e b03e cfbd efe4 4abc
000003f0: 0d44 883d 8ffc c63c 5ee6 fdbd b985 d8bd

net.layer_2.bias f4 [50]
-0.10269854 -0.13613749 -0.056716662 -0.072719574 0.01911959 0.011937427 0.13739944 -0.00084274146
-0.017128538 0.115572415 0.034699127 -0.11656223 -0.07556707 -0.14551198 0.09537091 0.018128436
-0.13739446 -0.098035954 0.044692498 -0.07096694 0.06245894 0.03858659 -0.008133687 0.105706245
-0.037172765 0.15281509 0.13715266 0.030453663 0.029337099 0.026854787 -0.011973025 -8.536044e-05
-0.06755429 -0.0329543 -0.015688311 0.07257904 -0.12033807 0.029055132 0.09571352 -0.094241284
0.0973897 -0.13477096 0.10833838 0.11107566 0.09490062 0.064736605 0.058415163 -0.088792175
0.03700642 0.15994197
00000000: 9d53 d2bd a067 0bbe bb4f 68bd 00ee 94bd
00000010: b0a0 9c3c 3395 433c 70b2 0c3e 6ceb 5cba
00000020: 2651 8cbc 3bb1 ec3d ac20 0e3d 2eb8 eebd
00000030: e8c2 9abd 1801 15be d351 c33d 1682 943c
00000040: 22b1 0cbe 13c7 c8bd 7b0f 373d 1d57 91bd
00000050: f2d4 7f3d f90c 1e3d 2843 05bc 847c d83d
00000060: 7842 18bd 8f7b 1c3e bf71 0c3e f679 f93c
00000070: 5b54 f03c 92fe db3c 822a 44bc 8a03 b3b8
00000080: e759 8abd 17fb 06bd c684 80bc 52a4 943d
00000090: ce73 f6bd 0705 ee3c 7305 c43d 9301 c1bd
000000a0: 4074 c73d 6601 0abe 83e0 dd3d a37b e33d
000000b0: 425b c23d a094 843d bd44 6f3d acd8 b5bd
000000c0: 0b94 173d d4c7 233e

net.output.weight f4 [1, 50]
-0.0006968782 -0.115245834 -0.002734997 0.037595987 0.13977727 0.08575457 0.027762573 -0.04598192
0.19919753 0.1260845 0.16880365 0.011054218 0.10269662 -0.034133006 0.17201835 -0.17440552
0.0813236 -0.2302422 -0.1885367 0.07043808 -0.06991181 -0.00540507 0.09704219 -0.10914393
0.014333754 -0.15684149 0.34538686 0.16082875 0.1653389 0.13965061 -0.05000605 0.23313184
-0.03122862 -0.066848785 -0.13400237 0.09790326 0.045845795 -0.1666881 0.22345941 0.0023829716
-0.15046333 0.057689767 0.12328617 0.21053293 -0.042649835 -0.3695312 0.050445355 -0.1180294
0.12203616 -0.17093462
00000000: b4ae 36ba 0206 ecbd a33d 33bb 40fe 193d
00000010: c621 0f3e 18a0 af3d 566e e33c 8a57 3cbd
00000020: 70fa 4b3e 4c1c 013e ddda 2c3e c01c 353c
00000030: 9b52 d23d 0dcf 0bbd 9425 303e 5c97 32be
00000040: fd8c a63d 9cc4 6bbe c40f 41be d741 903d
00000050: ec2d 8fbd 031d b1bb 0ebe c63d da86 dfbd
00000060: 1fd8 6a3c 0e9b 20be 8cd6 b03e 4bb0 243e
00000070: 9a4e 293e 9200 0f3e 25d3 4cbd 1dba 6e3e
00000080: 2ad3 ffbc 04e8 88bd eb37 09be 8181 c83d
00000090: cdc8 3b3d 49b0 2abe 8bd2 643e a12b 1c3b
000000a0: 0f13 1abe 1b4c 6c3d 767d fc3d f295 573e
000000b0: 98b1 2ebd 3233 bdbe ca9f 4e3d 66b9 f1bd
000000c0: 18ee f93d 7c09 2fbe
