burgers/nu-0/sin_N_C100000_nu0.004.pth (torch, 24960 bytes, 7 tensors)

net.layer_0.weight f4 [50, 2]
0.47267634 -0.5369838 1.2482935 0.53151774 0.6248774 -0.7945737 -1.3605028 -0.36248168
0.50209117 0.47940072 2.0743968 -0.09745574 -1.1555091 0.79894143 -0.9645626 -0.7263928
-0.7112614 -0.39962426 0.09521292 0.107116304 0.08072138 1.0903536 -0.47287044 -0.8058913
-0.56388366 0.958633 -0.32164565 -0.2718281 -0.5204544 -0.522678 0.83320946 0.42897558
0.4248092 0.6105198 -0.99343985 -1.3042275 -0.051386703 0.9824632 0.39046147 -0.24125355
-2.0730743 0.6383948 -1.0765183 -0.30891833 2.618751 -0.9372775 0.78189385 -0.0051171617
-1.0039233 0.2913655 0.7877484 -0.3546776 0.815173 0.6113575 0.11051347 1.6894574
0.58547455 -0.43072137 0.13807423 -0.62003136 0.18913756 0.8919008 1.7684419 0.60756004
0.6401446 0.15637092 -0.5952403 -0.80794305 0.6101893 -0.22481458 1.0301589 -0.34765518
-0.9856601 0.23537314 -0.49278817 0.39752382 -0.81594217 0.19130637 -0.44983104 -0.47147676
-0.080494 1.2836585 0.67927915 -0.7172694 0.6865638 -0.009942209 -0.20474899 -0.5223183
0.6940095 0.41922447 -1.4125584 -0.2851077 0.4648053 -1.0075209 0.48207363 -0.021091796
-1.0019596 -0.5952465 -0.45136532 0.8063203
00000000: a202 f23e c577 09bf 15c8 9f3f 8c11 083f
00000010: f7f7 1f3f 2f69 4bbf f524 aebf 3397 b9be
00000020: 0c89 003f 0374 f53e ebc2 0440 e096 c7bd
00000030: b9e7 93bf 6d87 4c3f 93ed 76bf e1f4 39bf
00000040: 3a15 36bf 8d9b ccbe fefe c23d cb5f db3d
00000050: 4051 a53d b590 8b3f 131c f2be e44e 4ebf
00000060: ae5a 10bf f968 753f bdae a4be 0d2d 8bbe
00000070: 803c 05bf 3ace 05bf 374d 553f b0a2 db3e
00000080: 9780 d93e 074b 1c3f 1352 7ebf edf0 a6bf
00000090: dd7a 52bd b582 7b3f 91ea c73e 2c0b 77be
000000a0: 40ad 04c0 d76d 233f 5acb 89bf 8b2a 9ebe
000000b0: 9e99 2740 6bf1 6fbf 322a 483f ddad a7bb
000000c0: 8f80 80bf dc2d 953e e1a9 493f 4d98 b5be
000000d0: 2daf 503f ed81 1c3f e354 e23d 2440 d83f
000000e0: a9e1 153f 8387 dcbe 5563 0d3e 60ba 1ebf
000000f0: 47ad 413e 9c53 643f 4e5c e23f 0e89 1b3f
00000100: 84e0 233f b31f 203e ab61 18bf 5bd5 4ebf
00000110: 5e35 1c3f cb35 66be 3fdc 833f dcff b1be
00000120: 3854 7cbf a805 713e bb4e fcbe 3e88 cb3e
00000130: 96e1 50bf d1e5 433e 4150 e6be 6765 f1be
00000140: 0ada a4bd ec4e a43f 3de5 2d3f f89e 37bf
00000150: a5c2 2f3f a6e4 22bc b8a9 51be a7b6 05bf
00000160: 9baa 313f 97a4 d63e b7ce b4bf a3f9 91be
00000170: f6fa ed3e 72f6 80bf 5bd2 f63e b4c8 acbc
00000180: 3640 80bf 1362 18bf 5b19 e7be 026b 4e3f

net.layer_0.bias f4 [50]
-0.3584134 -0.43211114 0.6795228 0.19068277 0.6642494 0.11460235 -0.8526718 0.75884324
0.758128 -0.37992042 -0.05285601 -0.58499223 0.626699 0.35244364 0.6351275 -0.49355406
-0.5375288 -1.1487924 -0.3686575 0.010836075 -0.6057968 0.16205552 0.91175026 0.05318276
-0.05013506 -0.03591252 -0.58359873 -0.18447453 0.4620082 0.65727246 -0.46005479 -0.66390234
-0.5720418 -0.83861357 0.3328421 -0.07747921 -0.06912504 -0.58141094 -0.2542854 0.29111153
0.073574245 0.79085803 -0.79203475 -0.6162605 -0.18453546 0.13472281 0.71310574 0.37799212
0.5641529 0.5686862
00000000: f681 b7be ac3d ddbe 35f5 2d3f 5842 433e
00000010: 400c 2a3f a3b4 ea3d b348 5abf 8d43 423f
00000020: ad14 423f ee84 c2be 8b7f 58bd 0dc2 15bf
00000030: 586f 203f 7e73 b43e b797 223f 1eb3 fcbe
00000040: 7d9b 09bf a10b 93bf adc0 bcbe cb89 313c
00000050: 8015 1bbf e2f1 253e 7768 693f 2ad6 593d
00000060: 6c5a 4dbd 0219 13bd ba66 15bf e4e6 3cbe
00000070: 578c ec3e 0243 283f 4d8c ebbe 81f5 29bf
00000080: 5571 12bf 61af 56bf 486a aa3e 6cad 9ebd
00000090: 6e91 8dbd 59d7 14bf b231 82be 920c 953e
000000a0: 18ae 963d ac75 4a3f cac2 4abf 40c3 1dbf
000000b0: ddf6 3cbe c7f4 093e 198e 363f 2f88 c13e
000000c0: 536c 103f 6b95 113f

net.layer_1.weight f4 [50, 50]
-0.084085 -0.030831283 -0.019024255 -0.04257621 -0.08107556 -0.077147186 -0.25720072 0.05659303
-0.04628289 -0.06802085 -0.057336193 -0.012149692 0.09250441 -0.042973597 -0.020467764 0.040985335
-0.07318313 -0.07878741 -0.06595594 -0.068520084 -0.09782123 -0.14326876 0.10142543 0.11755052
-0.0018352895 0.11114566 -0.1052145 0.028123418 0.1983782 -0.091761865 -0.085163236 -0.09727548
-0.117011204 0.115727626 0.077231444 0.13843097 -0.06679337 0.09489052 -0.1760875 0.09427504
-0.1252754 0.042087987 -0.08633769 0.06735643 0.061267596 -0.06161622 -0.0074505606 0.11472993
-0.12724584 0.116304055 0.007001823 -1.0752356 -0.053022254 1.5723344 -0.1409864 -0.85632277
0.13136373 0.47004932 0.32808873 0.05790147 -0.16604474 0.11329128 0.07765437 0.44653028
0.17799136 -0.527902 -0.4581311 -0.07561174 -0.30350754 -0.3873732 0.37998536 1.7470994
-0.34920514 -0.5658203 0.6751711 -0.25937143 -0.6210315 -0.31417575 -0.12754919 -0.04695051
-0.36351573 -0.44960803 -0.21250093 0.03379673 -0.32983467 -0.24446985 0.7048634 0.027293354
0.2219755 1.0006068 -0.08451385 -0.010872533 -0.1977706 -0.05294243 -1.0619564 1.5007436
-0.056605384 -0.026350126 0.6048489 0.048022844 0.028964972 0.4347658 -0.1958811 -0.3472054
-0.11650916 -0.07648618 -0.12512322 -0.38204494 -0.37470683 0.17755324 -0.09656247 -0.018254451
0.032550927 -0.3442748 -0.32751438 0.4108381 0.50959605 0.08388117 0.17990008 0.06014741
-0.048821323 -0.18356943 0.09249443 -0.07480813 0.17241804 -0.19127989 0.67695916 0.22524278
-0.08567678 -0.13549961 0.2018402 0.38337755 0.22716366 0.038308445 0.24989398 -0.20788322
0.05866968 -0.09813963 -0.040325087 -0.24943757 0.2146637 0.10456295 0.20023078 0.112098515
0.06872098 0.018601656 -0.0022921504 -0.108433664 -0.5671804 -0.09051939 0.2356696 1.1172175
0.47758308 -1.235923 0.14886491 2.2743597 -0.9920779 -0.7077751 -0.3891917 0.13365814
0.1681452 0.13815525 0.045610122 -0.44295454 -0.40477887 0.96322453 0.43772128 0.07411981
0.11459252 0.4158878 -1.5252906 -0.9900108 1.3527778 1.0245663 -0.42347333 0.3548126
0.970504 0.02484248 0.8373516 -0.017111393 0.17998898 0.76929057 0.28710967 0.061720192
0.763275 0.4404713 -0.496967 -0.39795977 -0.8118115 -0.36614147 0.022178655 0.5701314
0.11974388 -0.023388328 0.7047296 -1.326399 0.1755671 0.45637536 -0.97029066 0.026804566
-0.10456077 0.18422362 -0.11611255 0.0389107 -0.19935909 0.09962479 0.15583323 0.09798514
0.07564476 -0.08022272 0.036825437 0.11153179 -0.035805732 -0.104009755 -0.0005006657 0.027944298
0.1022509 0.14996754 -0.025501264 -0.045470633 0.16564777 0.035518926 -0.06799358 -0.037002813
-0.1501877 0.10233906 -0.066465974 -0.0044870377 -0.13342346 -0.022627885 0.11946776 0.13863604
-0.000958906 0.20259368 -0.17443088 0.07773107 -0.060314327 0.15642352 0.08410497 0.12903482
-0.050997928 -0.026023317 -0.06609045 0.23206986 -0.031000601 -0.0615024 0.107907005 -0.11707854
0.09144057 0.08662958 -0.009169097 -0.21978356 -0.07469183 -0.10223947 -0.0088469945 -0.0033512886
00000000: c234 acbd e391 fcbc c1d8 9bbc 6464 2ebd
00000010: f10a a6bd 58ff 9dbd d0af 83be 18ce 673d
00000020: 2193 3dbd 844e 8bbd 5bd9 6abd 800f 47bc
00000030: f472 bd3d 1505 30bd 03ac a7bc 3de0 273d
00000040: 09e1 95bd 4b5b a1bd e813 87bd 4254 8cbd
00000050: 7f56 c8bd 0cb5 12be 23b8 cf3d 54be f03d
00000060: 198e f0ba 56a0 e33d b37a d7bd 1563 e63c
00000070: a823 4b3e a5ed bbbd 106a aebd 5e38 c7bd
00000080: 92a3 efbd 9b02 ed3d 852b 9e3d d9c0 0d3e
00000090: f6ca 88bd f655 c23d 4850 34be 4613 c13d
000000a0: 3248 00be 7464 2c3d d1d1 b0bd 2bf2 893d
000000b0: bbf3 7a3d 4a61 7cbd d523 f4bb 87f7 ea3d
000000c0: bc4c 02be d230 ee3d 8c6f e53b 52a1 89bf
000000d0: dd2d 59bd 4142 c93f bd5e 10be f837 5bbf
000000e0: 3784 063e 4eaa f03e 3ffb a73e 182a 6d3d
000000f0: a207 2abe 4205 e83d 4109 9f3d 9e9f e43e
00000100: 5e43 363e 9624 07bf 2990 eabe 54da 9abd
00000110: 5765 9bbe c855 c6be 718d c23e f4a0 df3f
00000120: 04cb b2be 99d9 10bf 03d8 2c3f 55cc 84be
00000130: ecfb 1ebf a5db a0be 419c 02be 2e4f 40bd
00000140: bc1e babe 0633 e6be d899 59be 716e 0a3d
00000150: 17e0 a8be 4e56 7abe ee71 343f 5096 df3c
00000160: 8c4d 633e e213 803f 9915 adbd b522 32bc
00000170: 6084 4abe 29da 58bd 30ee 87bf 5e18 c03f
00000180: 0cdb 67bd 38dc d7bc 61d7 1a3f 9ab3 443d
00000190: f347 ed3c 9f99 de3e 0e95 48be e8c4 b1be
000001a0: 5b9c eebd c9a4 9cbd 4d20 00be 659b c3be
000001b0: 93d9 bfbe 84d0 353e 8bc2 c5bd 5c8a 95bc
000001c0: 1f54 053d c944 b0be f7af a7be 5f59 d23e
000001d0: e374 023f e4c9 ab3d ba37 383e 215d 763d
000001e0: def8 47bd a0f9 3bbe b86d bd3d 0135 99bd
000001f0: 5b8e 303e e0de 43be 324d 2d3f 0ba6 663e
00000200: 4f77 afbd 69c0 0abe 33af 4e3e 104a c43e
00000210: 979d 683e 51e9 1c3d 35e4 7f3e 57df 54be
00000220: 9e4f 703d 6efd c8bd eb2b 25bd 906c 7fbe
00000230: cdd0 5b3e 1a25 d63d 4c09 4d3e e893 e53d
00000240: 96bd 8c3d 8062 983c e737 16bb 7812 debd
00000250: bc32 11bf 3b62 b9bd 5f53 713e fc00 8f3f
00000260: c585 f43e ba32 9ebf 0b70 183e 1c8f 1140
00000270: d1f8 7dbf c030 35bf 2244 c7be aedd 083e
00000280: 412e 2c3e 9278 0d3e aed1 3a3d f0ca e2be
00000290: 2d3f cfbe e295 763f 011d e03e 20cc 973d
000002a0: 7caf ea3d 3fef d43e b93c c3bf 5971 7dbf
000002b0: d327 ad3f fd24 833f 7fd1 d8be ffa9 b53e
000002c0: f372 783f 7582 cb3c ad5c 563f 312d 8cbc
000002d0: 084f 383e 3af0 443f 0a00 933e 50ce 7c3d
000002e0: fe65 433f 7485 e13e 7572 febe 62c1 cbbe
000002f0: e1d2 4fbf e576 bbbe 03b0 b53c 22f4 113f
00000300: 483c f53d e198 bfbc 2969 343f 71c7 a9bf
00000310: ddc7 333e 08aa e93e f864 78bf 4095 db3c
00000320: f523 d6bd 1ea5 3c3e 6bcc edbd d360 1f3d
00000330: ca24 4cbe 1508 cc3d bf92 1f3e 6fac c83d
00000340: a4eb 9a3d cf4b a4bd 45d6 163d c76a e43d
00000350: 08a9 12bd 1103 d5bd 1b3f 03ba 71eb e43c
00000360: eb68 d13d 1791 193e 07e8 d0bc 6a3f 3abd
00000370: 929f 293e 4b7c 113d 3840 8bbd 4390 17bd
00000380: ceca 19be 2497 d13d 501f 88bd 0008 93bb
00000390: 29a0 08be 1d5e b9bc 83ab f43d 9bf6 0d3e
000003a0: 185f 7bba b874 4f3e 029e 32be 7831 9f3d
000003b0: 280c 77bd 7d2d 203e 3a3f ac3d b421 043e
000003c0: 34e3 50bd da2e d5bc 6e5a 87bd b9a3 6d3e
000003d0: f9f4 fdbc f1e9 7bbd 59fe dc3d e0c6 efbd
000003e0: 3245 bb3d d96a b13d fb39 16bc f10e 61be
000003f0: 08f8 98bd ed62 d1bd fcf2 10bc 4ba1 5bbb

net.layer_1.bias f4 [50]
0.10018233 0.1559998 -0.007211335 -0.06611617 -0.023956696 0.075889096 0.08545158 0.03607531
-0.10382149 -0.12449544 0.024830963 0.34028208 -0.0071635377 -0.033572618 -0.076790944 0.13292989
-0.14402491 0.11542723 -0.024663633 0.10784722 -0.0034104802 0.012015397 -0.13176198 -0.03810055
-0.025548441 -0.093631804 -0.020333944 0.0067941286 0.08201041 0.13885185 0.1342168 -0.0046253535
0.07283233 -0.10863152 -0.07650272 0.042557042 -0.09588239 0.14736749 0.051556334 0.11355145
0.49346888 -0.034527175 0.06630803 0.03888574 0.11500394 0.046291515 -0.09871906 0.1665982
-0.12616347 -0.023748636
00000000: 652c cd3d 69be 1f3e 104d ecbb ea67 87bd
00000010: d540 c4bc be6b 9b3d 3d01 af3d b4c3 133d
00000020: 5da0 d4bd 77f7 febd 4e6a cb3c 7439 ae3e
00000030: 1cbc eabb 7183 09bd 9244 9dbd c61e 083e
00000040: 447b 13be 1d65 ec3d 630b cabc 01df dc3d
00000050: 5d82 5fbb 3adc 443c 9dec 06be 530f 1cbd
00000060: f74a d1bc 08c2 bfbd 5f93 a6bc 48a1 de3b
00000070: 13f5 a73d 2e2f 0e3e 2170 093e 4790 97bb
00000080: 1e29 953d 347a debd 75ad 9cbd 4b50 2e3d
00000090: fd5d c4bd 81e7 163e bc2c 533d aa8d e83d
000000a0: f4a7 fc3e 5e6c 0dbd 81cc 873d a746 1f3d
000000b0: 3087 eb3d 2c9c 3d3d 382d cabd b898 2a3e
000000c0: ff30 01be 808c c2bc

net.layer_2.weight f4 [50, 50]
0.00393261 -0.11375232 0.14920357 0.1505414 0.033122607 -0.094436444 0.08384168 -0.053734746
-0.07956985 -0.09542754 0.07537641 0.070272945 -0.12429328 -0.09486879 0.11139292 -0.08959932
-0.095048465 -0.08820838 -0.050951637 -0.08731106 -0.00617224 0.029308261 -0.05500923 -0.04803425
0.05876875 -0.14234334 0.12020931 0.10157066 -0.013911883 -0.048686583 -0.06297 -0.14121403
-0.14885601 -0.10860641 0.11791038 0.018085632 0.1416964 -0.05454011 0.068072766 -0.020978305
-0.08869008 -0.12821974 0.04305005 -0.116616525 0.1351908 -0.06573191 -0.13596188 -0.054997995
0.043655556 -0.035972685 0.064363055 0.1483063 0.016626926 -0.001446879 0.04032953 0.060537275
-0.08053467 0.068253875 0.09428622 0.13324496 0.06559962 -0.1057295 0.12997557 0.09384436
0.090196826 0.046092533 -0.047235247 -0.10988887 0.07421782 -0.11080702 -0.085747965 0.031887896
-0.041425172 -0.14409311 0.03676162 -0.030807965 0.097320855 -0.1487231 0.06181258 -0.041843254
0.0536785 -0.05944378 0.0093974415 0.09872897 0.008282073 0.15859702 0.11264216 0.06526534
0.007420368 0.023651786 0.11552619 0.09278896 -0.035081983 0.11936128 0.122801594 0.09236959
-0.111538686 0.116615556 -0.160152 -0.03315437 0.039173637 -0.023253353 0.025835782 -0.25876194
0.12606195 -0.13507853 -0.1372589 0.024026897 -0.14547245 0.016628897 0.000511143 -0.14993973
0.12167589 -0.06105798 -0.06324964 -0.107896164 0.099439375 -0.14626826 0.09186782 -0.079361394
-0.13525055 -0.03192649 -0.10900213 0.11072348 -0.09927267 0.1392222 0.05747374 0.1098255
0.08552599 0.015461976 0.07517513 -0.12314874 0.16324066 0.019668592 0.071268074 -0.12920381
0.03937691 -0.11350694 -0.099413574 0.08727206 -0.12141386 -0.10960933 0.097825915 0.06621302
0.0387146 0.07488616 0.058407333 0.035966728 0.1384302 -0.12263733 -0.060559943 -0.0585484
-0.001260076 -0.016793087 0.11464048 -0.10541405 -0.08563006 -0.115649745 -0.043457292 0.004640369
-0.05166702 0.04307111 0.00048029094 -0.07301599 0.112587124 -0.0019826693 0.11639787 0.061255608
-0.02626211 0.1344826 0.080989495 0.088487774 -0.035854798 0.16782732 0.08356206 0.100126006
-0.059796672 0.049605962 -0.108375974 -0.138508 0.12560706 -0.12495574 0.15051527 -0.098697886
-0.004418212 -0.11042426 -0.18858676 0.08268072 -0.030493647 0.015738238 0.14328526 -0.017024828
-0.121386684 0.031726476 0.005605553 -0.11492282 -0.035248373 0.051386498 0.031903315 0.056530938
0.08328653 -0.09363779 -0.0077021127 0.12233612 -0.124910176 0.17371324 -0.027141808 0.031310607
0.124992706 0.07874142 -0.080587946 -0.022325175 0.01061881 -0.005534022 0.038177423 0.072169155
-0.13765375 -0.06946956 -0.0076851603 -0.10914325 -0.13223168 0.16308053 -0.09340946 0.0019031576
-0.08235967 -0.13894784 -0.018186301 -0.0968324 -0.11608808 -0.0656228 -0.053387105 -0.06468708
-0.21102409 -0.12811099 -0.016971247 -0.034316067 0.002849351 0.119825706 -0.05215441 -0.049411103
-0.17074858 -0.039663274 -0.08978808 -0.10339043 0.014759458 0.11214426 -0.010209716 0.15119189
-0.075352 -0.107575744 0.119045645 0.045043692 -0.07058651 0.21847703 0.05512142 -0.00073608314
00000000: 20dd 803b faf6 e8bd d2c8 183e 8627 1a3e
00000010: 92ab 073d e567 c1bd 30b5 ab3d f718 5cbd
00000020: 84f5 a2bd 846f c3bd f25e 9a3d 43eb 8f3d
00000030: 7a8d febd 914a c2bd f921 e43d d97f b7bd
00000040: c5a8 c2bd 98a6 b4bd aab2 50bd 24d0 b2bd
00000050: 8040 cabb e117 f03c 5c51 61bd 90bf 44bd
00000060: 80b7 703d 74c2 11be 4c30 f63d 4704 d03d
00000070: abee 63bc 956b 47bd 6af6 80bd 699a 10be
00000080: b66d 18be 0a6d debd ff7a f13d 5228 943c
00000090: dc18 113e 7365 5fbd bc69 8b3d b2da abbc
000000a0: 25a3 b5bd 094c 03be 4055 303d a5d4 eebd
000000b0: 756f 0a3e 749e 86bd 9739 0bbe 9445 61bd
000000c0: 2bd0 323d 1858 13bd c7d0 833d 9bdd 173e
000000d0: 3135 883c 34a5 bdba 9430 253d eff5 773d
000000e0: 5cef a4bd b0c8 8b3d 2219 c13d 5e71 083e
000000f0: 1859 863d b588 d8bd 5118 053e 7931 c03d
00000100: 1db9 b83d 86cb 3c3d bf79 41bd 6a0d e1bd
00000110: 83ff 973d caee e2bd a19c afbd e29c 023d
00000120: 71ad 29bd 258d 13be 5a93 163d fc60 fcbc
00000130: 2850 c73d de4a 18be 302f 7d3d d563 2bbd
00000140: fddd 5b3d 527b 73bd baf7 193c 6a32 ca3d
00000150: 88b1 073c 4267 223e efb0 e63d d6a9 853d
00000160: 8f26 f33b 64c1 c13c ff98 ec3d 2308 be3d
00000170: 20b2 0fbd b073 f43d 677f fb3d 452c bd3d
00000180: 656e e4bd 23d4 ee3d e3fe 23be e0cc 07bd
00000190: 8974 203d d17d bebc 90a5 d33c 727c 84be
000001a0: 6216 013e 0752 0abe 998d 0cbe 0ed4 c43c
000001b0: bbf6 14be 5339 883c 3afe 053a cd89 19be
000001c0: 3631 f93d ef17 7abd 0789 81bd aaf8 dcbd
000001d0: dfa6 cb3d 59c7 15be 3225 bc3d 3a88 a2bd
000001e0: 1f7f 0abe 5ac5 02bd 823c dfbd fec2 e23d
000001f0: 784f cbbd 4490 0e3e 9669 6b3d 31ec e03d
00000200: 4028 af3d 3a54 7d3c 6bf5 993d 6835 fcbd
00000210: 8f28 273e 0720 a13c fff4 913d 014e 04be
00000220: af49 213d 5476 e8bd 5899 cbbd b2bb b23d
00000230: d4a7 f8bd db7a e0bd f458 c83d b19a 873d
00000240: 3393 1e3d ea5d 993d 873c 6f3d d951 133d
00000250: a5c0 0d3e 4829 fbbd b40d 78bd 72d0 6fbd
00000260: 2229 a5ba a891 89bc a1c8 ea3d 52e3 d7bd
00000270: d05e afbd c6d9 ecbd 4600 32bd 3d0e 983b
00000280: cca0 53bd 556b 303d 8fcf fb39 6889 95bd
00000290: 1494 e63d acef 01bb 0262 ee3d 29e7 7a3d
000002a0: a323 d7bc cfb5 093e d2dd a53d 1439 b53d
000002b0: 7bdc 12bd edda 2b3e 9622 ab3d dd0e cd3d
000002c0: 5bed 74bd 9f2f 4b3d 39f4 ddbd 0bd5 0dbe
000002d0: 239f 003e cce8 ffbd ad20 1a3e 1e22 cabd
000002e0: a6c6 90bb 1d26 e2bd e31c 41be 8254 a93d
000002f0: d0cd f9bc 7aed 803c 5fb9 123e a777 8bbc
00000300: 9599 f8bd 9ff3 013d c9ae b73b a85c ebbd
00000310: 9960 10bd a67a 523d 0dad 023d fc8c 673d
00000320: 2192 aa3d 2bc5 bfbd 0162 fcbb 5c8b fa3d
00000330: e8d0 ffbd e2e1 313e 7f58 debc 8d3f 003d
00000340: 2dfc ff3d 2e43 a13d 4b0b a5bd 49e3 b6bc
00000350: 84fa 2d3c be56 b5bb ee5f 1c3d 6ccd 933d
00000360: 1bf5 0cbe 0f46 8ebd ccd3 fbbb 7f86 dfbd
00000370: be67 07be 95fe 263e 754d bfbd 5f73 f93a
00000380: 30ac a8bd 5848 0ebe 70fb 94bc 1150 c6bd
00000390: 96bf edbd 3f65 86bd 70ac 5abd a97a 84bd
000003a0: b316 58be 872f 03be 4907 8bbc 018f 0cbd
000003b0: 2dbc 3a3b 2e67 f53d dd9f 55bd 4c63 4abd
000003c0: b7d8 2ebe f575 22bd d0e2 b7bd 5dbe d3bd
000003d0: a7d1 713c e4ab e53d a746 27bc 0cd2 1a3e
000003e0: 2652 9abd ac50 dcbd 34ce f33d bc7f 383d
000003f0: a98f 90bd 71b8 5f3e 00c7 613d b4f5 40ba

net.layer_2.bias f4 [50]
0.039458353 -0.07848091 -0.060262673 -0.12965342 0.041526724 0.06007293 -0.10517154 0.05420331
-0.06887054 -0.010491195 -0.17498626 0.14950232 0.08656678 0.0650915 0.09825964 0.117219746
-0.016672768 -0.0680021 -0.12497075 0.07083887 -0.007838913 0.04321236 0.020478697 0.15490133
0.01055315 -0.04305795 0.051269583 0.14256495 0.04080288 0.09155792 0.11269243 0.044315644
-0.114254236 -0.023507094 -0.020356191 -0.1263427 -0.0932986 -0.04096274 -0.08376395 0.031703833
-0.17834288 0.023277642 0.11813815 0.020117993 0.0040495424 0.14520286 -0.084207244 -0.11174583
0.07857697 -0.1271969
00000000: 159f 213d 99ba a0bd fed5 76bd dec3 04be
00000010: ed17 2a3d 080f 763d 2d64 d7bd 4a04 5e3d
00000020: ff0b 8dbd 43e3 2bbc 992f 33be 2317 193e
00000030: ed49 b13d b14e 853d 5a3c c93d e810 f03d
00000040: 5495 88bc af44 8bbd aaf0 ffbd f813 913d
00000050: c96e 00bc 72ff 303d f1c2 a73c 749e 1e3e
00000060: 1fe7 2c3c 885d 30bd 0e00 523d 8cfc 113e
00000070: ec20 273d b882 bb3d 4acb e63d 5284 353d
00000080: 20fe e9bd f391 c0bc 07c2 a6bc fb5f 01be
00000090: 5613 bfbd 8cc8 27bd 6f8c abbd e1db 013d
000000a0: 849f 36be c1b0 be3c 6af2 f13d 7dce a43c
000000b0: 06b2 843b 0fb0 143e d974 acbd ffda e4bd
000000c0: f6ec a03d e73f 02be

net.output.weight f4 [1, 50]
0.085176855 0.07080994 -0.074764945 0.013885479 0.16148901 0.09703261 0.63397527 0.12371791
-0.15180819 -0.10731893 -0.107770264 -0.24411163 0.071655475 0.06292418 -0.19694902 -0.109004
0.15194859 -0.16404566 -0.109251246 -0.00024447837 -0.01923467 -0.08561992 -0.14419203 0.096478164
0.051946748 -0.015474854 -0.022088682 0.04570012 -0.13936403 0.068473436 -0.02216446 -0.09827599
0.027184013 0.022980005 0.04729637 0.034718007 0.022312837 0.022261314 0.11793112 0.09377528
0.3300732 0.18255219 0.038503636 0.055049043 -0.021822441 -0.094928324 0.12175385 0.10503226
-0.18713653 -0.17442168
00000000: 3471 ae3d cd04 913d 5d1e 99bd ec7f 633c
00000010: 605d 253e 08b9 c63d 344c 223f d15f fd3d
00000020: 9b73 1bbe 07ca dbbd a8b6 dcbd 66f8 79be
00000030: 1bc0 923d 64de 803d 01ad 49be 7d3d dfbd
00000040: 6998 1b3e 96fb 27be 1ebf dfbd 552d 80b9
00000050: 0792 9dbc 7f59 afbd 13a7 13be 5896 c53d
00000060: 1dc6 543d 3e8a 7dbc 53f3 b4bc 0d30 3b3d
00000070: 72b5 0ebe cd3b 8c3d 3e92 b5bc ec44 c9bd
00000080: 02b1 de3c 9040 bc3c d7b9 413d 7834 0e3d
00000090: 69c9 b63c 5c5d b63c df85 f13d 410d c03d
000000a0: 5bff a83e f6ee 3a3e fdb5 1d3d 1b7b 613d
000000b0: fac4 b2bc c869 c2bd 155a f93d 271b d73d
000000c0: b8a0 3fbe 999b 32be
