burgers/nu-0/sin_N_C100000_nu0.007.pth (torch, 24948 bytes, 7 tensors)

net.layer_0.weight f4 [50, 2]
0.12806557 0.15369962 -0.90843695 -0.5301894 -1.6800741 -0.2051846 -0.13526884 -0.2835383
1.1528358 0.69981414 -0.3963185 0.4155363 0.20353474 1.3456972 1.4553734 0.81270456
-0.88059866 0.77810353 -0.006027028 0.12296405 -0.7423522 0.20722431 -0.46575284 -0.39522365
-0.30997574 -0.7884004 -0.3222029 0.15124375 -0.58043784 -0.73409265 0.28427753 -0.4696022
1.2064319 -0.4318213 -0.4478496 0.5497125 -0.17424253 -0.48248178 0.063460104 -0.7328996
0.70811987 0.70761186 -0.14743084 -0.9397715 -0.42133474 -0.7524344 -0.099728644 -0.8205427
-0.71124876 0.31243512 -0.40189505 0.07114592 -0.1504673 -1.8438896 0.9045282 -0.35681695
-0.36290488 0.20906627 1.3868314 0.13892843 0.18646814 -0.17913322 0.30336404 -0.3495674
0.32595274 0.6443059 0.669679 -0.019478574 -0.3124952 -1.0913408 0.42182127 0.3939747
0.7349381 0.47691858 2.501202 -0.31650567 0.16134791 1.4841262 -0.46578807 0.42117843
-0.96710545 0.012726148 0.58076054 -0.076303914 0.30552182 -0.46715814 -0.47236443 -0.10780862
-0.3327824 -0.24471675 0.66314906 0.025894068 -1.073306 0.5799752 2.2989528 -0.21709993
-0.26802152 0.47180387 -0.18996812 0.7316038
00000000: 9f23 033e 6f63 1d3e 538f 68bf 7eba 07bf
00000010: ab0c d7bf e91b 52be ea83 0abe ef2b 91be
00000020: 2090 933f 0527 333f 42ea cabe 2dc1 d43e
00000030: 696b 503e ce3f ac3f ad49 ba3f 680d 503f
00000040: ea6e 61bf cb31 473f 607e c5bb 93d4 fb3d
00000050: cb0a 3ebf 9c32 543e 2877 eebe c15a cabe
00000060: 24b5 9ebe 9cd4 49bf c7f7 a4be a4df 1a3e
00000070: 9397 14bf 7fed 3bbf d38c 913e b36f f0be
00000080: 5c6c 9a3f ae17 ddbe 8b4c e5be f5b9 0c3f
00000090: a26c 32be da07 f7be 5ff7 813d 4f9f 3bbf
000000a0: 5847 353f 0d26 353f 1cf8 16be dd94 70bf
000000b0: 30b9 d7be 8a9f 40bf 883e ccbd 160f 52bf
000000c0: 6614 36bf 7ff7 9f3e 30c5 cdbe f4b4 913d
000000d0: 1a14 1abe 9304 ecbf 298f 673f b6b0 b6be
000000e0: abce b9be 7815 563e b183 b13f 4143 0e3e
000000f0: 81f1 3e3e b36e 37be 8852 9b3e 80fa b2be
00000100: 47e3 a63e 3bf1 243f 1570 2b3f 8891 9fbc
00000110: 5fff 9fbe 0eb1 8bbf f5f8 d73e 0db7 c93e
00000120: e724 3c3f ac2e f43e b213 2040 080d a2be
00000130: 6338 253e d9f7 bd3f c67b eebe b3a4 d73e
00000140: 3994 77bf 5581 503c b9ac 143f 3a45 9cbd
00000150: 5b6d 9c3e 5a2f efbe c0d9 f1be c4ca dcbd
00000160: 7462 aabe 0797 7abe 23c4 293f cc1f d43c
00000170: 1762 89bf 4179 143f 0b22 1340 724f 5ebe
00000180: 1e3a 89be 4790 f13e 0187 42be 634a 3b3f

net.layer_0.bias f4 [50]
0.2298584 0.6885965 0.24504928 -0.50943375 -0.69354486 0.6266102 -0.4342994 -0.70823354
-0.73405725 -0.44626525 -0.37746605 0.38178977 -0.18743403 0.11646053 -0.69606787 0.08068476
0.4361594 0.5832707 0.019352099 0.44464964 -0.5933748 -0.0007028103 -0.5180656 0.13076551
-0.5464739 0.2528528 0.40578318 0.6363323 -0.47480989 -0.1627617 -0.33814067 -0.3957836
0.22204077 0.20296116 0.37806937 -0.074535415 -0.67401415 0.15188424 0.09689917 -0.46360382
-0.31124097 0.104590006 -0.018603958 -0.3433239 0.49187613 0.13862483 0.38674802 0.20311183
0.16998966 0.41027522
00000000: 0060 6b3e dc47 303f 33ee 7a3e 406a 02bf
00000010: 288c 31bf 8769 203f 7e5c debe cb4e 35bf
00000020: 2deb 3bbf e17c e4be 3b43 c1be f379 c33e
00000030: b5ee 3fbe dc82 ee3d 8131 32bf 0d3e a53d
00000040: 4950 df3e 3b51 153f 4b88 9e3c 1ea9 e33e
00000050: 69e7 17bf cd3c 38ba f29f 04bf 65e7 053e
00000060: b7e5 0bbf ec75 813e d0c2 cf3e ace6 223f
00000070: 481a f3be 01ab 26be c620 adbe 26a4 cabe
00000080: a85e 633e 0dd5 4f3e 4f92 c13e 06a6 98bd
00000090: 318c 2cbf 8b87 1b3e 1273 c63d 7b5d edbe
000000a0: fa5a 9fbe 4933 d63d 5467 98bc 26c8 afbe
000000b0: 30d7 fb3e abf3 0d3e d603 c63e 8cfc 4f3e
000000c0: c511 2e3e 980f d23e

net.layer_1.weight f4 [50, 50]
-0.036323894 -0.11949449 -0.088049635 -0.065016456 0.08245144 -0.034043062 -0.07333329 -0.073203534
-0.24430905 0.029323284 0.0008306906 -0.07078975 -0.13837601 0.09771808 -0.005991067 0.026555166
0.22516957 0.11439292 0.04289168 -0.07278357 0.10970439 0.017978411 -0.056946576 0.09710027
-0.13642938 -0.13179329 0.14428419 0.18466167 -0.13386022 -0.05946594 0.072953925 0.020246314
-0.037218757 -0.057630535 0.022891982 0.035057124 0.10429407 0.002184196 -0.09948379 0.005586611
0.04296121 0.18939258 0.06452524 -0.01625125 -0.025871446 0.14602216 0.078161724 0.10513273
0.04290439 -0.014635821 0.12770697 -0.3113028 -0.4032488 -0.13801253 -0.017409561 0.05897235
-0.51340985 0.11630813 -0.5492269 -0.121615365 -0.43648338 -0.04862687 0.15438779 -0.4392871
-0.30895364 0.4854274 0.4260295 -0.100338295 0.105996005 0.33345094 -0.30771264 0.27271616
-0.3057743 0.53579676 -0.34336048 -0.29685897 0.30809942 0.46247876 -0.38492292 0.16986035
0.016325843 0.0945136 -0.044040512 0.41690198 0.42135784 0.006090369 0.3337137 0.39786026
-0.322163 -0.4701724 -0.20150587 0.23522754 0.43568122 -0.27138802 0.0063262843 0.33580545
-0.108108155 0.27407554 -0.20729482 0.05455227 0.05998146 0.076166704 0.25203854 0.0036314197
0.16112544 -0.0030440786 0.058156088 -0.087456696 -0.03014819 -0.056120824 0.20739199 0.11371249
0.110990085 -0.06140096 0.034840714 -0.05427659 -0.09741615 -0.08472255 0.062782094 -0.10386347
-0.06945376 -0.049601886 0.16096818 0.069445565 0.16296166 0.16428074 -0.016758554 0.001437031
0.12249935 0.002314812 0.10132502 0.06350142 -0.084324345 -0.19626042 -0.19090895 -0.13062143
0.13054477 -0.050376546 -0.018468875 -0.060282778 0.20677033 -0.12262355 -0.05811657 0.09645266
-0.037683453 -0.176625 -0.009323798 -0.17048445 0.16986072 0.10514397 0.026934844 0.4616102
0.30680585 -0.025799163 -0.36701238 0.099684305 -0.471514 -0.6136144 -0.171157 0.038595434
0.1554756 0.29302904 0.015215256 0.061905533 0.004592128 0.17157847 -0.05052503 0.09666129
0.35371312 0.21195567 -0.19305077 0.50888294 -0.0038972367 0.07760761 0.015184387 0.14586076
0.19274275 -0.19816174 0.033162437 -0.35900623 0.1463811 -0.25214186 0.050423123 -0.27228156
0.48552582 -0.30773687 -0.4491224 -0.0053656786 0.024924155 -0.03155907 0.076361306 -0.12846127
0.10026511 0.24700509 0.20025222 -0.26858094 0.17333306 -0.2700013 0.049860984 0.17524341
0.063399285 0.12739427 -0.27199456 -0.09474553 0.016608123 -0.037095595 -0.070550635 0.13586552
0.12754501 0.056792293 0.18473656 0.044401288 0.07690351 -0.054457825 0.18842123 -0.043609153
-0.06610072 0.11981672 0.19448955 -0.04259599 -0.011224996 0.03151185 -0.008092676 0.09078412
0.22072692 0.16463995 -0.010341708 -0.12135795 0.17305826 0.17151529 0.08315123 0.010595913
0.05993579 -0.1690613 0.055000283 0.09808474 0.013383001 0.061250437 -0.068497255 0.031019287
-0.016114201 -0.10380696 -0.102294534 0.02738186 0.028164785 0.009955876 -0.08632137 -0.04946002
0.15824145 -0.058445774 0.08377776 -0.5276584 -0.7007876 -0.08428633 0.43506515 -0.002065967
00000000: 5dc8 14bd 87b9 f4bd 5e53 b4bd 5927 85bd
00000010: 4ddc a83d bd70 0bbd c42f 96bd bceb 95bd
00000020: 272c 7abe 6237 f03c b4c2 593a 37fa 90bd
00000030: 71b2 0dbe 6b20 c83d b650 c4bb 388a d93c
00000040: da92 663e d646 ea3d 30af 2f3d 8d0f 95bd
00000050: b2ac e03d 7647 933c d040 69bd 82dc c63d
00000060: 25b4 0bbe d2f4 06be 3cbf 133e f317 3d3e
00000070: a712 09be 8f92 73bd de68 953d 99db a53c
00000080: b272 18bd ff0d 6cbd f787 bb3c 0f98 0f3d
00000090: 2198 d53d ba24 0f3b 28be cbbd e40f b73b
000000a0: 18f8 2f3d 21f0 413e cf25 843d 5721 85bc
000000b0: 5bf0 d3bc d586 153e 4113 a03d d44f d73d
000000c0: 83bc 2f3d 15cb 6fbc 9ec5 023e 1563 9fbe
000000d0: a076 cebe 2853 0dbe 7f9e 8ebc fe8c 713d
000000e0: d46e 03bf f532 ee3d 229a 0cbf 7a11 f9bd
000000f0: c07a dfbe f82c 47bd d517 1e3e 3dea e0be
00000100: 2c2f 9ebe f189 f83e 8a20 da3e 2a7e cdbd
00000110: 6f14 d93d 15ba aa3e 838c 9dbe 74a1 8b3e
00000120: 738e 9cbe fa29 093f f2cc afbe e6fd 97be
00000130: 35bf 9d3e 04ca ec3e 9e14 c5be dfef 2d3e
00000140: c6bd 853c 5990 c13d d363 34bd 2d74 d53e
00000150: 37bc d73e b891 c73b 86dc aa3e 57b4 cb3e
00000160: 8cf2 a4be 70ba f0be 8e57 4ebe 7ddf 703e
00000170: 9c11 df3e 5ff3 8abe b84c cf3b b1ee ab3e
00000180: cf67 ddbd a153 8c3e 1845 54be 3372 5f3d
00000190: 1faf 753d 4afd 9b3d 320b 813e 1dfd 6d3b
000001a0: 11fe 243e 2a7f 47bb 1435 6e3d 7f1c b3bd
000001b0: 56f9 f6bc f3de 65bd 915e 543e 18e2 e83d
000001c0: c54e e33d 937f 7bbd 23b5 0e3d 2151 5ebd
000001d0: 1e82 c7bd 0483 adbd e693 803d 5fb6 d4bd
000001e0: c63d 8ebd 592b 4bbd d8d4 243e 7a39 8e3d
000001f0: 6cdf 263e 3639 283e 3c49 89bc c25a bc3a
00000200: f0e0 fa3d 1ab4 173b 7e83 cf3d 080d 823d
00000210: 3eb2 acbd 7ef8 48be a37d 43be a0c1 05be
00000220: 87ad 053e a357 4ebd 0a4c 97bc 13eb 76bd
00000230: 9abb 533e 0e22 fbbd a40b 6ebd f988 c53d
00000240: f759 1abd 2fdd 34be d8c2 18bc 7a93 2ebe
00000250: f8ef 2d3e b955 d73d 76a6 dc3c 2c58 ec3e
00000260: a815 9d3e c458 d3bc 0ce9 bbbe 4927 cc3d
00000270: 486a f1be d515 1dbf c843 2fbe 3f16 1e3d
00000280: ff34 1f3e e707 963e 6949 793c a890 7d3d
00000290: 9079 963b 44b2 2f3e 55f3 4ebd 5bf6 c53d
000002a0: e319 b53e e80a 593e 1aaf 45be 2746 023f
000002b0: c868 7fbb bdf0 9e3d efc7 783c 865c 153e
000002c0: 5b5e 453e e9ea 4abe 56d5 073d aacf b7be
000002d0: ede4 153e bd18 81be 7a88 4e3d 7d68 8bbe
000002e0: d796 f83e b08f 9dbe 5ff3 e5be 93d2 afbb
000002f0: be2d cc3c 1544 01bd 5163 9c3d 5a8b 03be
00000300: cb57 cd3d e7ee 7c3e eb0e 4d3e 7183 89be
00000310: 397e 313e 9c3d 8abe 083b 4c3d 0273 333e
00000320: 7cd7 813d a573 023e df42 8bbe f209 c2bd
00000330: c20d 883c 8df1 17bd da7c 90bd 5520 0b3e
00000340: 299b 023e 099f 683d 952b 3d3e 20de 353d
00000350: 967f 9d3d 2b0f 5fbd 7ff1 403e 839f 32bd
00000360: d05f 87bd 7862 f53d 4528 473e 2279 2ebd
00000370: 0ce9 37bc 9212 013d 2597 04bc 06ed b93d
00000380: 3d06 623e 6097 283e 4470 29bc 848a f8bd
00000390: 2f36 313e b4a1 2f3e 314b aa3d 7b9a 2d3c
000003a0: 3b7f 753d 681e 2dbe fa47 613d a7e0 c83d
000003b0: 6044 5b3c bde1 7a3d 4a48 8cbd 291c fe3c
000003c0: ee01 84bc be98 d4bd cc7f d1bd ec4f e03c
000003d0: d6b9 e63c f81d 233c 42c9 b0bd 9796 4abd
000003e0: 0c0a 223e d664 6fbd ad93 ab3d 9f14 07bf
000003f0: d166 33bf 509e acbd dcc0 de3e 2d65 07bb

net.layer_1.bias f4 [50]
0.15074888 0.28184357 0.07382928 -0.0007112026 -0.06550304 -0.12450708 -0.13749911 -0.054581657
0.02627197 -0.048338257 -0.114497684 -0.11762185 -0.113827035 0.19415581 -0.07652016 -0.10556755
-0.06833404 -0.17222852 -0.077171676 -0.0741409 -0.040086538 -0.06960781 -0.06859093 -0.12022713
0.010711539 -0.10820774 -0.12764287 -0.0366716 -0.094001375 -0.11280198 -0.12917821 0.02909445
0.12841032 0.08665608 0.08220227 0.09728985 -0.16419928 -0.11303843 -0.101732865 0.0072662025
-0.27177867 0.10677285 -0.11584752 0.07639361 -0.00824988 -0.11630802 -0.12134016 0.17916398
-0.13212593 0.09407921
00000000: ea5d 1a3e cd4d 903e ce33 973d 0070 3aba
00000010: 7526 86bd 91fd febd 91cc 0cbe 0491 5fbd
00000020: 5038 d73c 56fe 45bd c37d eabd b9e3 f0bd
00000030: 261e e9bd c8d0 463e 9ab6 9cbd cd33 d8bd
00000040: b8f2 8bbd ac5c 30be 2f0c 9ebd 2fd7 97bd
00000050: c831 24bd 8a8e 8ebd 6779 8cbd a439 f6bd
00000060: 737f 2f3c 059c ddbd d0b4 02be f634 16bd
00000070: cb83 c0bd b904 e7bd 4b47 04be 7c57 ee3c
00000080: ff7d 033e be78 b13d aa59 a83d e73f c73d
00000090: db23 28be b180 e7bd 5259 d0bd 5319 ee3b
000000a0: 9326 8bbe b9ab da3d 7741 edbd 4174 9c3d
000000b0: 812a 07bc e632 eebd 3181 f8bd c376 373e
000000c0: 054c 07be 9aac c03d

net.layer_2.weight f4 [50, 50]
0.007122078 0.18654092 0.13261613 -0.21721904 0.19392367 -0.10533177 -0.07868974 -0.13891813
0.015903672 -0.0979476 0.015478951 0.16242856 0.044208802 0.100913055 -0.09061951 0.028465388
-0.045778792 0.042716257 -0.04651382 -0.038237125 -0.059324548 0.058623698 0.1001166 -0.008494757
-0.034622554 0.042413697 0.011222332 0.15765719 -0.06805015 -0.025869593 -0.062052794 0.09133666
-0.040413387 0.07785936 -0.007895717 -0.01522578 0.06099163 0.06124681 0.08743885 0.05395422
-0.07112987 0.055185992 -0.025997402 -0.074815735 -0.11060693 0.0569307 0.024063375 0.11977587
0.26452667 -0.066365115 -0.10256284 -0.059374984 -0.024206389 0.17216197 0.046235535 0.048295494
0.15387034 -0.109566696 0.16389029 0.020058252 -0.08913437 0.06198712 -0.006508594 0.08066628
0.1813862 -0.0214908 0.008866829 -0.067545034 0.059313465 0.08876418 0.049164683 -0.14367227
-0.11710786 0.014405745 -0.108434096 -0.046166055 -0.13506454 -0.10486567 -0.12676375 -0.08435921
0.0698171 0.10236848 -0.11247891 0.108007856 -0.04039485 0.005679125 0.07430003 0.18236645
0.013750412 0.15781096 0.026446775 0.014852915 -0.12088801 -0.08400579 0.19637154 0.13614832
-0.06767273 0.044339444 -0.1488916 -0.010360268 -0.0326257 -0.17729919 0.12737651 0.07419403
-0.034677155 0.04888693 0.13279836 -0.1404179 0.022705643 -0.041546684 0.06657865 0.11816626
-0.00036934155 -0.06381165 0.10052836 0.08973379 -0.06682657 -0.09264164 0.009594846 -0.077146955
-0.06368871 0.12080401 -0.14852346 0.030574977 0.12954445 0.0755925 0.052117262 0.03364542
0.0065239775 -0.15735433 -0.0878078 0.011353373 0.08907571 0.045252018 -0.10473328 0.0028922118
0.1489545 0.07531619 0.055763677 -0.016767895 0.06310593 0.110937685 -0.09345717 -0.14183424
0.19624342 0.0008205733 0.119406 -0.06103864 0.04746955 -0.05917247 0.039439097 -0.28962472
0.0718357 0.32580462 -0.13332573 -0.020429203 0.08787585 0.025540628 0.006490888 -0.042567212
0.30842593 -0.14602226 0.024137374 0.054717842 0.20617686 0.37458625 -0.1485888 0.032020465
0.16736732 -0.20280689 0.1786728 -0.022158043 -0.06746206 0.14490563 0.19076923 -0.07255395
-0.071553625 0.04354999 -0.057820044 0.09901362 0.0056345197 0.14611757 -0.10286599 -0.14399123
0.1836229 -0.06753337 0.10160969 0.22518297 -0.15881926 -0.0827829 0.07985806 -0.26486042
-0.11875512 -0.15746582 -0.050185304 0.04470521 0.1373907 -0.16408184 -0.2858198 -0.07783187
-0.14880754 0.06982628 0.033996355 -0.20289429 -0.080286376 -0.057689425 0.004906175 -0.0929614
-0.030134847 -0.03364835 0.1055556 0.1255883 -0.035796326 -0.10110922 -0.06887559 -0.02066151
-0.027513713 0.0036403148 0.016843183 0.047434933 -0.056865912 0.0826864 -0.02142456 0.0380514
0.037718225 -0.11592287 0.020521171 -0.092613034 -0.10745551 -0.06787476 -0.022727868 0.10177003
0.15709496 -0.028893456 0.031131096 0.09404223 -0.0925059 -0.09573575 -0.1256279 -0.11903074
-0.21187401 0.07050645 -0.15514451 0.1516969 -0.12629786 -0.065618336 -0.0329654 0.016230825
0.36388737 0.0030946925 -0.047588367 0.10108647 0.12779345 -0.06881767 0.16683398 -0.039375942
00000000: 5260 e93b 9504 3f3e 86cc 073e ab6e 5ebe
00000010: ed93 463e 2fb8 d7bd 1628 a1bd 8e40 0ebe
00000020: 6b48 823c c098 c8bd 6d9b 7d3c ac53 263e
00000030: 4a14 353d 81ab ce3d b996 b9bd 3f30 e93c
00000040: 8b82 3bbd 3ef7 2e3d 4685 3ebd 889e 1cbd
00000050: 4cfe 72bd 671f 703d ef09 cd3d 982d 0bbc
00000060: 61d0 0dbd fcb9 2d3d dfdd 373c e370 213e
00000070: e15d 8bbd 78ec d3bc 122b 7ebd b70e bb3d
00000080: 8288 25bd ba74 9f3d 0a5d 01bc 8d75 79bc
00000090: 5cd2 793d efdd 7a3d 2413 b33d 1aff 5c3d
000000a0: 8aac 91bd b50a 623d 81f8 d4bc fe38 99bd
000000b0: e385 e2bd 2a30 693d 8e20 c53c 0d4d f53d
000000c0: 0a70 873e 6fea 87bd 770c d2bd 2f33 73bd
000000d0: 7a4c c6bc 3a4b 303e 7961 3d3d 7fd1 453d
000000e0: 3090 1d3e 8164 e0bd dbd2 273e 3451 a43c
000000f0: 158c b6bd 35e6 7d3d 0b46 d5bb 5d34 a53d
00000100: 4ebd 393e 790d b0bc 2d46 113c 0d55 8abd
00000110: adf2 723d ffc9 b53d e860 493d d31e 13be
00000120: 3fd6 efbd 1306 6c3c b212 debd 9e18 3dbd
00000130: 5c4e 0abe d0c3 d6bd 5bce 01be 86c4 acbd
00000140: 45fc 8e3d 91a6 d13d 585b e6bd 3933 dd3d
00000150: 1275 25bd f417 ba3b 9d2a 983d 45be 3a3e
00000160: 6849 613c 3299 213e e8a6 d83c a459 733c
00000170: 2294 f7bd 3a0b acbd 9f15 493e 776a 0b3e
00000180: 0098 8abd 479d 353d 0a77 18be 1dbe 29bc
00000190: 87a2 05bd eb8d 35be fd6e 023e 0af3 973d
000001a0: a209 0ebd a93d 483d 4bfc 073e b6c9 0fbe
000001b0: 2f01 ba3c db2c 2abd 635a 883d 2701 f23d
000001c0: 2fa4 c1b9 afaf 82bd d0e1 cd3d 59c6 b73d
000001d0: 5edc 88bd e6ba bdbd b333 1d3c 39ff 9dbd
000001e0: 3a6f 82bd 1868 f73d 8916 18be 6078 fa3c
000001f0: 4da7 043e 3ed0 9a3d e978 553d c8cf 093d
00000200: 17c7 d53b 7e21 21be 93d4 b3bd 7f03 3a3c
00000210: 536d b63d 2e5a 393d 677e d6bd 438b 3d3b
00000220: 8787 183e 603f 9a3d 7468 643d d35c 89bc
00000230: af3d 813d 4c33 e33d 7966 bfbd ff3c 11be
00000240: 09f4 483e be1b 573a 228b f43d a703 7abd
00000250: 6e6f 423d d55e 72bd e48a 213d b149 94be
00000260: 981e 933d ddcf a63e 8a86 08be 255b a7bc
00000270: 41f8 b33d 943a d13c 84b1 d43b f55a 2ebd
00000280: 01ea 9d3e dc86 15be bebb c53c d11f 603d
00000290: 0720 533e c5c9 bf3e aa27 18be e427 033d
000002a0: 5762 2b3e 9cac 4fbe 01f6 363e c984 b5bc
000002b0: 8c29 8abd 2462 143e 0259 433e 2a97 94bd
000002c0: b58a 92bd 7961 323d b6d4 6cbd a7c7 ca3d
000002d0: c7a1 b83b d89f 153e 67ab d2bd 7072 13be
000002e0: a407 3c3e ef4e 8abd be18 d03d 5d96 663e
000002f0: 84a1 22be 158a a9bd 9f8c a33d c99b 87be
00000300: e235 f3bd b83e 21be 1b8f 4dbd cf1c 373d
00000310: 26b0 0c3e 1205 28be f956 92be 5166 9fbd
00000320: 0161 18be 1501 8f3d c33f 0b3d 85c3 4fbe
00000330: 2f6d a4bd bf4b 6cbd fbc3 a03b 8c62 bebd
00000340: 5bdd f6bc dad2 09bd 892d d83d 389a 003e
00000350: 2b9f 12bd 5a12 cfbd a50e 8dbd 5442 a9bc
00000360: 7064 e1bc 5992 6e3b b7fa 893c 224b 423d
00000370: 3bec 68bd 7d57 a93d 8f82 afbc c9db 1b3d
00000380: 6d7e 1a3d f868 edbd 041c a83c e7ab bdbd
00000390: a211 dcbd ec01 8bbd cb2f babc ce6c d03d
000003a0: 80dd 203e f8b1 ecbc a406 ff3c 3699 c03d
000003b0: bc73 bdbd 1b11 c4bd 9aa4 00be 63c6 f3bd
000003c0: 80f5 58be b065 903d 34de 1ebe 6f56 1b3e
000003d0: 3a54 01be e862 86bd ba06 07bd 82f6 843c
000003e0: 724f ba3e 53d0 4a3b 05ec 42bd 6c06 cf3d
000003f0: 49dc 023e 47f0 8cbd 87d6 2a3e ab48 21bd

net.layer_2.bias f4 [50]
-0.0065421583 0.02456461 -0.15026203 0.1545622 -0.027610276 -0.12348558 0.06883524 -0.05381974
-0.031255074 -0.0022775172 -0.053908963 0.018890731 0.006147856 -0.07786754 -0.08850716 0.11500136
0.037337445 -0.089211 0.014319322 -0.08598545 -0.12503906 -0.08023411 -0.085484445 0.082063355
-0.0080585275 0.12672272 0.14294674 0.13318121 0.101712316 -0.055942044 0.041352548 0.13876076
0.09478964 -0.049409874 0.07490359 0.0828217 0.043149386 0.06787023 0.11162081 -0.056737944
0.063406475 -0.09652784 -0.06827342 -0.10113173 0.089245446 -0.14074795 0.031117793 0.09709981
-0.09959758 0.06526019
00000000: 9a5f d6bb b93b c93c 4ade 19be 8e45 1e3e
00000010: f22e e2bc 02e6 fcbd 7ef9 8c3d 1672 5cbd
00000020: 5205 00bd 6642 15bb a5cf 5cbd bcc0 9a3c
00000030: f473 c93b 0479 9fbd 3e43 b5bd d585 eb3d
00000040: 26ef 183d 42b4 b6bd 979b 6a3c 2419 b0bd
00000050: 3d0a 00be c851 a4bd 7812 afbd d510 a83d
00000060: ea07 04bc 9ac3 013e a160 123e a860 083e
00000070: 8c4e d03d 7c23 65bd 4a61 293d 4d17 0e3e
00000080: 1221 c23d 0262 4abd 0e67 993d 6c9e a93d
00000090: 69bd 303d 8cff 8a3d 7499 e43d 0c66 68bd
000000a0: 41db 813d 63b0 c5bd efd2 8bbd 271e cfbd
000000b0: 51c6 b63d 3b20 10be beea fe3c 44dc c63d
000000c0: d1f9 cbbd 22a7 853d

net.output.weight f4 [1, 50]
-0.12374557 0.040958 0.17253262 0.13633765 -0.09439058 -0.20851181 -0.20093147 0.00042212312
0.07273688 -0.09655019 -0.11405729 0.076379836 -0.16366729 0.12021126 0.04548743 0.1769828
0.91791844 -0.050882865 0.116577186 -0.05007535 0.085192285 0.079922415 0.09689791 0.08696005
0.22360452 -0.21135952 -0.07682451 0.030566258 0.06643604 0.0907641 -0.019023767 -0.04631325
0.054083053 0.023711393 0.08966903 0.011393656 0.11259736 0.00051965396 -0.022150729 -0.038274243
-0.13480738 -0.15836978 0.0002944661 -0.0009409492 0.17393455 0.10117486 -0.115250215 -0.13954444
0.19320138 -0.07291987
00000000: 516e fdbd 93c3 273d 64ac 303e 199c 0b3e
00000010: d94f c1bd 1f84 55be fbc0 4dbe 6850 dd39
00000020: 13f7 943d 1bbc c5bd de96 e9bd 086d 9c3d
00000030: 6698 27be 5231 f63d 0751 3a3d fb3a 353e
00000040: b4fc 6a3f 8d6a 50bd 05c0 ee3d cf1b 4dbd
00000050: 4b79 ae3d 5dae a33d 6972 c63d 1c18 b23d
00000060: 95f8 643e a16e 58be 2b56 9dbd 1766 fa3c
00000070: 9e0f 883d 87e2 b93d bbd7 9bbc f6b2 3dbd
00000080: 3186 5d3d 653e c23c 65a4 b73d 75ac 3a3c
00000090: 7299 e63d 6339 083a 7275 b5bc 74c5 1cbd
000000a0: f20a 0abe b02b 22be 9262 9a39 08aa 76ba
000000b0: e61b 323e c434 cf3d 4e08 ecbd bde4 0ebe
000000c0: 95d6 453e 0357 95bd
